practice/AutogluonModels/ag-20231210_074044/models/DeepAR/W0/gluon_ts/prediction-net-state.pt (torch, 108693 bytes, 11 tensors)

model.param_proj.proj.0.weight f4 [1, 40]
00000000: 219b 24bd 9590 3a3a 0369 8cbc 70df 233d
00000010: d22e 5fbd 7228 f1bd 74da 053d 0850 293e
00000020: 9de8 76bd 1e75 2a3d fd47 e8bd 9112 7abd
00000030: 5203 d1bd 4caa 17be 915b f5bd 9516 233d
00000040: fe2e bebd 67f9 323d 797e debc cdb5 b9bd
00000050: ea80 6a3d de13 b83d 8ad1 c83d 2a14 993a
00000060: 15cf 193d 44c9 373d d7de 533d c061 d8bc
00000070: f82d f1ba 2e40 d03d 02d4 143d c823 26be
00000080: 6c56 3abc 4f15 68bd d80d 5f3d 6714 c53d
00000090: 86a2 12be 5915 edbd 6002 15be cd31 19bc
-0.040187005 0.00071168813 -0.017139917 0.04000801 -0.05448801 -0.117752925 0.032679036 0.16534436
-0.06028043 0.041615598 -0.11341856 -0.061052863 -0.102057114 -0.14811057 -0.119803555 0.039816458
-0.09286307 0.04369488 -0.027159916 -0.09067879 0.05725185 0.08988164 0.098055914 0.0011678983
0.037551004 0.044869676 0.05172619 -0.026413798 -0.001840054 0.10168491 0.036335 -0.16224587
-0.011373144 -0.056660946 0.05445656 0.09623032 -0.1431981 -0.11576337 -0.14551687 -0.009350252

model.param_proj.proj.1.weight f4 [1, 40]
00000000: 51f7 52bd b8ac 0cbe a585 ae3d 24e5 c0bd
00000010: 883b 9e3d 387d 0ebe 6907 5abd 7f40 fdbc
00000020: 31a0 6cbd f23b 89bc 319c 21bc 483d 8b3d
00000030: 702a 223d ef39 d73d 1f59 863d 6a38 c6bc
00000040: 5c68 c23d af2c f13d 9ef4 063e 0ab9 b43d
00000050: 0209 9c3d 08a4 a1bd c037 a43c d1ce 23be
00000060: 47e8 6e3d f81d d83d 3f5c e7bd bda3 213e
00000070: 4e65 093e 7317 fe3d 9657 f4ba d080 6abc
00000080: 12a8 0fbd 4156 2fbd d011 063c dfb1 103e
00000090: d6f3 f4bc a46e e63d ebe5 8ebd b233 d7bd
-0.05150539 -0.13737762 0.085215844 -0.09418705 0.077261984 -0.13914955 -0.053229723 -0.030914543
-0.057769958 -0.016752217 -0.009863899 0.06798798 0.039591253 0.10509097 0.06559967 -0.024196822
0.09492561 0.11776101 0.13179252 0.08824356 0.076189056 -0.078926146 0.020046115 -0.15996863
0.058326986 0.10552591 -0.112968914 0.15785117 0.13417551 0.12406816 -0.0018641825 -0.014312938
-0.035072394 -0.042806868 0.008182958 0.14130352 -0.029901426 0.11251572 -0.06977447 -0.10507907

model.param_proj.proj.2.weight f4 [1, 40]
00000000: d416 01be 1fca 933d 43cd 81bd 4885 bdbd
00000010: 5f4e ad3d 9360 fcbd 73cf e6bd 7249 6bbd
00000020: 40a4 133d 003a 643d 44b3 e73d 64d9 d7bd
00000030: a723 d33d 6e57 5e3d 63b2 0c3e ed25 1b3e
00000040: bd28 1e3d e9be d6bd 5a23 0cbe 8777 253e
00000050: 65bc e03b 3bcb 82bd 41f6 1c3e 2b7b e1bc
00000060: 1c31 843d b739 b03d f8cd 033e cddf 2abd
00000070: 9958 1dbd afb0 e0bc 1376 e2bd 3eab c3bc
00000080: 7279 bdbd 5bde 353d 80e0 1e3e 9ccc 29bd
00000090: f287 34bc bda5 5fbd 84d2 dc3c 6dac e3bd
-0.12606364 0.07216286 -0.06337979 -0.09253937 0.08462214 -0.123231076 -0.112700365 -0.05744309
0.036045313 0.055719376 0.11313489 -0.10539511 0.103095345 0.0542826 0.13739924 0.15151186
0.03861307 -0.10485632 -0.1368536 0.16158877 0.006858396 -0.063864194 0.15328313 -0.027524551
0.06454679 0.08604758 0.1287154 -0.04171734 -0.03841457 -0.027428 -0.11057677 -0.023885366
-0.092516795 0.044401508 0.15515327 -0.041454896 -0.01101874 -0.05460142 0.02695585 -0.11116872

model.rnn.weight_ih_l0 f4 [160, 37]
00000000: 9eb7 ecbd c550 8f3d 9abe d0bd 1e17 2b3b
00000010: c6d1 d73d b725 dbbc a720 c13d 6799 483d
00000020: 701e 4abd f7bb 563d 682d f2bd ee42 4dbd
00000030: 1feb cbbd 9d67 1fbe dbfb e63d e5ae 153d
00000040: 0c8e 54bc 9cb7 a93c 79d2 f53d 535a f33d
00000050: cd99 e5bc 36ae 0b3e 923e 053d 4f01 113e
00000060: 521e 27bd 6e7d 323d 6b67 d13d d577 f2bc
00000070: 4063 453d 44a4 d5bd 7c53 c2bd 486d 063e
00000080: 9868 e039 b112 073e ccc3 073e a501 c9bd
00000090: 8fd4 883d 8cd8 32bd 82fe e0bd 2d9c b4bd
000000a0: d3c0 003e 1040 dabd 85bb 8d3c a9e4 33bd
000000b0: dfb6 eebc 06a3 9c3d 4ade e8bb 4ecb b0bd
000000c0: 7f57 0abe 00a8 b53d 7ba7 b83d 1072 c43c
000000d0: 6e4a ffbd 5d20 4fbc 7f40 193e 505b 193d
000000e0: 7bbd cbbd 7082 363d 9eb6 93bd 1ea8 243d
000000f0: d5e6 343d 1e24 193e 37e8 183e 3901 c43d
00000100: 6014 c33d 961f 31bd 18cd a3bd 1068 093c
00000110: 3f60 8abc 9ef9 6bbd 5ac4 e1bd 5399 1abd
00000120: 5b19 f43d 027a 13be 5b4a 1d3e b2d6 243e
00000130: 6e8c ecbc e8ae 2a3e eafa 163e 0005 04bd
00000140: 1045 31bd 382b 713d d957 dabd 10bb 603d
00000150: a286 113e 346b 8dbd a3b6 c23d 9a61 01be
00000160: f66d b83c a5b7 e6bd cdeb 0dbe f696 09be
00000170: 40c7 e9bd 180c 18be 082f 44bc e5ab ee3d
00000180: ec39 e3bc 9618 5fbd 6fb5 0bbe c707 8ebd
00000190: 6eef 6b3d e380 0b3e 8f49 bcbd 3008 c33d
000001a0: 3763 b9bd a3d9 16bc c8e9 6cbb df0f c43d
000001b0: 8b83 cf3d 86d8 26be 238a a83d 0e80 f2bd
000001c0: 3b8f 86bd 3efc 603b f409 b13d 5dab 18bc
000001d0: 0213 0fbe f232 783d f5da 16be b747 00be
000001e0: 6010 063e 0dd6 9d3d bd02 0ebc 690e 0abe
000001f0: deeb e4bd bb9a f4bd e9a4 1c3e 4315 253d
00000200: 0e6c 8fbd f4f3 f63d aa65 413d d7c1 873d
00000210: 0a33 c73d ba68 673c 382e 4b3d 5e8e 193e
00000220: 5281 913d eb21 51bd 098a 053e 0be7 5c3d
00000230: d31e 003e d30e 003d 35ac e0bd 462e f33b
00000240: db21 c4bd aabd 67bd fe2e 56bd 7e2b 953d
00000250: a4d8 e03d a6f5 093e 81bf b63d 64de 70bd
00000260: 16dc eb3d 2942 f83d a1c8 833c 4a5a c2bb
00000270: 1b33 f13d 2db3 e2bd 8e22 9dbd e3ce 05bd
00000280: 6811 81bd 31bc de3d eefe 323d f346 0a3e
00000290: ada4 783c e3e9 133d 5780 ea3c 836d 3bbd
000002a0: 0ee3 013d bcc1 d5bd 5849 e03d 9ba7 563c
000002b0: ddce 2ebd 43a8 853d 7e42 1d3d f5c7 aebd
000002c0: b32f 5d3d 8bce 783d df3b be3d 6897 043e
000002d0: 4d1e e4bd c998 b03d 92e9 07be 5802 113e
000002e0: 2576 e53d c944 c4bd 515a 25bd be8c cbbd
000002f0: d88a 2a3e c3f7 28bd 98cb ba3d 123c 023e
00000300: 2b10 70bd 8d46 543d 2eff d8bd 6d67 e63c
00000310: 18d3 9d3d f447 c9bd 5a48 a8bd 642d f0bd
00000320: 2245 80bd 43a1 a53d 6956 723d 671e b9bd
00000330: 99e6 b0bd 9687 e23d aca5 a93d 7764 58bd
00000340: 476e e9bc b895 403d 8006 b53c 4e06 44bd
00000350: bfe2 8cbb 827e 38bd 3d3d 53bc b2ac 9cbd
00000360: 63e2 d33d a895 893d 41a6 883b a4be 09bd
00000370: 2ed9 2e3d 9a60 e23d d078 41bd 23ce 9dbd
00000380: 3b79 2c3c 43b1 893c 7b65 f0bc 12c4 a2bd
00000390: a09c fcbb ac2e 233d 2eaa 27bd 4567 11be
000003a0: 023c 68ba d4bf 8abd 83fc 153e 9353 b2bd
000003b0: bf43 18be 7071 c63d 0766 01be 7649 1cbe
000003c0: 7357 003d c11d 10bd 4814 12bd 952c 173e
000003d0: 5702 bfbd 0d9a 1dbe a6fb 873d 45fe a8bd
000003e0: 0505 933c 00f6 b13d 890a 1a3d 8f65 54bd
000003f0: e628 153e b979 0abe a40b 2a3c a77b a83d
-0.1155846 0.069978274 -0.10192604 0.0026106308 0.10538058 -0.026751382 0.09430056 0.04897442
-0.049345434 0.05242535 -0.11825067 -0.050112657 -0.09956955 -0.15566869 0.11278506 0.036543746
-0.01297332 0.020717435 0.12003035 0.11882462 -0.02802744 0.13640675 0.032530375 0.14160655
-0.0408004 0.04357665 0.102248035 -0.029598156 0.048190355 -0.10431722 -0.0948858 0.13127625
0.00042802538 0.13190724 0.13258284 -0.09814767 0.06681167 -0.043663546 -0.109860435 -0.08818851
0.12573557 -0.1065675 0.01730133 -0.04391924 -0.029139934 0.07648282 -0.007106577 -0.08632527
-0.1350994 0.08869934 0.09016319 0.02398017 -0.12465368 -0.012641993 0.1496601 0.037440598
-0.0994825 0.04455799 -0.07212566 0.04019939 0.04416545 0.14955184 0.14932333 0.09570546
0.095253706 -0.043243013 -0.07998103 0.008386627 -0.016891597 -0.0576111 -0.11023779 -0.037743878
0.11918899 -0.14402011 0.15360396 0.16097525 -0.028875556 0.16668284 0.14744154 -0.03223133
-0.043278754 0.058879107 -0.10661287 0.054865897 0.14211515 -0.06905213 0.095074914 -0.12634888
0.022513371 -0.11265496 -0.13859482 -0.13436493 -0.11414957 -0.14848363 -0.011974104 0.1165388
-0.02773758 -0.054466806 -0.1364343 -0.06935077 0.057601385 0.13623385 -0.09193718 0.09523046
-0.09052127 -0.009207162 -0.0036150087 0.0957334 0.10132512 -0.16293535 0.082294725 -0.11840831
-0.06570288 0.0034330036 0.086444765 -0.0093182 -0.13972095 0.06059546 -0.14731963 -0.12527357
0.13092184 0.077068426 -0.008667645 -0.1348206 -0.111778006 -0.11943575 0.15297283 0.04030348
-0.07003032 0.12058249 0.047216095 0.06628769 0.09726532 0.01412409 0.049604625 0.14995715
0.07104744 -0.051057737 0.13040937 0.053931277 0.12511759 0.031264137 -0.10970346 0.0074212877
-0.0957677 -0.056577362 -0.05229091 0.07283686 0.10978821 0.13472614 0.08923245 -0.05880584
0.115165874 0.12121994 0.016086878 -0.0059311735 0.11777326 -0.11069331 -0.076726064 -0.032668006
-0.06302148 0.108757384 0.04370015 0.13503627 0.0151759805 0.036111724 0.02862565 -0.045758735
0.031710677 -0.104373425 0.10951489 0.013101484 -0.04267775 0.06526234 0.03839349 -0.085342325
0.054000568 0.06074385 0.09288763 0.12948382 -0.11138592 0.086228915 -0.13272694 0.1416105
0.11204175 -0.09583432 -0.040369336 -0.09938954 0.16654527 -0.04125191 0.09120864 0.12718228
-0.05860917 0.051825095 -0.10595547 0.02812549 0.077062786 -0.09828177 -0.08216925 -0.117274076
-0.06263186 0.08087399 0.05916444 -0.09039002 -0.08637733 0.11061017 0.082835525 -0.052830186
-0.028494967 0.047017783 0.022097826 -0.047857575 -0.004299491 -0.045042522 -0.012893018 -0.076501265
0.10345914 0.06717998 0.0041702096 -0.033629075 0.042687587 0.110535815 -0.047234356 -0.07705333
0.0105269505 0.016808158 -0.029345265 -0.07947554 -0.007709101 0.03983943 -0.04093378 -0.1419955
-0.00088590395 -0.067748696 0.14647107 -0.08707347 -0.14869593 0.09689605 -0.12636577 -0.15262398
0.031333398 -0.035184626 -0.035663873 0.147631 -0.09326618 -0.15390797 0.06639795 -0.08251623
0.01794673 0.08689499 0.037607703 -0.051854666 0.14566383 -0.13522996 0.010378752 0.0822671

model.rnn.weight_hh_l0 f4 [160, 40]
00000000: 5829 843d 7dea 253e 4cef 84bd 86ae 44bd
00000010: 55c5 183e 2ee2 573d 14c6 1a3e cba0 a43d
00000020: 2715 10be a6b3 71bc 14e8 0ebe 3469 f7bd
00000030: f9e5 27be 1540 0dbe 10c5 123e 709d f3bd
00000040: 8234 ecbd 3b3f 6d3d db06 fabc 29c3 d13d
00000050: 03d0 193e 9e46 893b 84a5 4e3d 544c b2bd
00000060: f1c6 f9bd d9a6 d4bc dcbd 1d3c 2bda 993d
00000070: 2c52 7abb 9d9f cd3d a8b5 f8bd 7b61 103e
00000080: cc0d cebc d83d ebbd 63ef c6bd 3fc1 23be
00000090: 315a cd3d 6cef f3bd a476 17be 0d2e d2bd
000000a0: f16c 093e a8ba 053e 5921 073e 498f a9bc
000000b0: 7161 b93d 82cc d8bc b0d5 80bd ac79 e8bd
000000c0: ebdc 9b3d 54c4 163e 9891 abbd 986b 47bd
000000d0: a9f6 2bbd c7b2 07be fa11 39bd b08a 69bd
000000e0: c666 1fbd a91a 143e 58e8 023d f1b5 693d
000000f0: a2e3 273d f3d4 9c3c 2ab1 14be 61eb debd
00000100: 54cd 153b c302 30bd ead5 68bd c6b6 1b3e
00000110: c70d d6bd 89e5 283b 322e e93d 0f49 903d
00000120: a751 973d 8e20 253e 8ba0 7fbd b24a 05be
00000130: 18bd 853c 2aa2 b0bc 89ba a43d 202d cdbd
00000140: 6eac a43c e0e2 fa3d 42ca 013c 2b12 a13d
00000150: 1213 a4bc 5bed e23d 3fd1 ef3d 40b6 e43c
00000160: 3334 d3bb 3a69 ae3c a998 eabc 513d cbbd
00000170: d2f5 ffbd 5054 88bd 3e88 123e 1d5e 0e3e
00000180: 4b25 90bd cc6c 5dbc cd0d 643d e87b c7bd
00000190: 6544 a33d be33 9fbd c682 903d 0e55 dbbd
000001a0: 404d 7b3c 78d1 f8bd 599b b63d 74b9 8db9
000001b0: 6312 0cbc 824e 0abe 043b d0bc d2f0 e1bc
000001c0: 991a f9bd 8095 113e 1b8b dbbb 5fc2 9c3c
000001d0: 6e65 d03d aa94 d33d 32da 1ebd 4c06 4abd
000001e0: 6eaa 073e 77e2 e83d 0e20 cb3d a8a3 c63d
000001f0: 9228 22be cf95 6b3d 1b87 103e 7077 fa3d
00000200: dddb 95bd 2b88 87bc 0163 ba3d 75ef 9bbc
00000210: ad75 17be fcea 19be 1ccd cc3c 824f d3bd
00000220: 63ad 303d 8047 cd3c e157 26be f4ce a0bc
00000230: 1441 b53c 55fa b5bd a09f f93d f406 f13b
00000240: 3fb9 0bbd 21aa 143e 51f9 8f3d a398 663d
00000250: 13dc 9e3d 3290 003e b8d7 03be 84f4 c8bd
00000260: 86dc f8bd 0479 f03c 1882 933d 16a3 0fbb
00000270: 3227 613c 2606 013e f01a 4fbd a537 0b3e
00000280: d751 b3bc 7c56 213c 1985 dabd 1225 a03d
00000290: 66b0 573d bdfa 73bd 8c4c b7bd e6b5 40bd
000002a0: 93c3 1c3e 5691 9fbd eab5 89bd d982 af3d
000002b0: 2e44 573d f148 07be da03 30bd 6ddd 25be
000002c0: 5235 f13d abd9 bfbd 5c49 083e dc3c d33d
000002d0: e1ac 9aba 074a 323d 98b5 d03c 3067 11be
000002e0: 030b a8bd 5e2e 21bc a96b 6fbc 15a0 27bd
000002f0: 0a9a febd e228 f4bd e057 a3bc 0785 07be
00000300: eede 453d 847c b23c b295 853c 3cf1 193e
00000310: 45c8 22be 84e6 d93d 70ba ffbd f5a2 a33c
00000320: ec62 1ebe c31a ba3c 5567 c3bd 3be3 64bd
00000330: 46c0 193c d84f 163e 2361 953c 8077 05be
00000340: 20ce f33d 14f9 1fbd 57c9 0dbd 85f6 e33d
00000350: 0a33 16be 9ba9 9f3d 1d39 f13d 74f3 8d3c
00000360: 3648 74bd 909c 14be 272f b43d 0dcd 743c
00000370: 2c57 00be 0d9e dabd c712 933c f14b d13d
00000380: 38d9 dc3d acbe b73d c3be 003e b3b0 e83d
00000390: 1c8c 663c 325f 1fbe 6f72 a03d 9e5a 1e3e
000003a0: 3bfc a5bd 7c1e 75bc 32b9 07be b8c9 f53b
000003b0: 61a8 033e a39b b43c 4477 10be 469a c2bc
000003c0: 00d2 fd3c cc13 053d a1dd 173e a7da 53bb
000003d0: 1d9e 0fbe 4658 c43c 51ff ed3c beed 623c
000003e0: e0a8 50bb fccc 12be 3384 85bd 02ac 24be
000003f0: 20ef 22bd d4d2 f53d bc4a e63a 9543 7c3d
0.06453198 0.16202731 -0.06490955 -0.048018 0.14919026 0.052705936 0.15114623 0.08038481
-0.14070569 -0.014752304 -0.13955718 -0.12080613 -0.16396321 -0.13793977 0.14332986 -0.11895263
-0.115334526 0.05792163 -0.030520847 0.10242302 0.15020756 0.0041893264 0.050450817 -0.08705965
-0.12196148 -0.025958465 0.0096277855 0.07512315 -0.003819595 0.100402094 -0.12144023 0.14099686
-0.025153063 -0.11486405 -0.09713628 -0.15991686 0.10026968 -0.119109005 -0.14791352 -0.1026269
0.13420464 0.13059485 0.13196315 -0.020698206 0.090517886 -0.026464704 -0.06290758 -0.11351332
0.07610496 0.1472333 -0.08377379 -0.048686594 -0.04198328 -0.13251792 -0.04518316 -0.05701703
-0.03891637 0.14463295 0.03195986 0.05705828 0.040988572 0.01914451 -0.14520708 -0.10884739
0.002285798 -0.042971384 -0.05684463 0.15206441 -0.104518466 0.002577158 0.11385764 0.07045185
0.07388621 0.161257 -0.062408965 -0.13016775 0.016325518 -0.0215617 0.08043391 -0.100183725
0.020101752 0.12250304 0.007921757 0.078647934 -0.020028625 0.11080428 0.117098324 0.027918935
-0.0064454316 0.02129041 -0.028637247 -0.099238046 -0.124980584 -0.06656706 0.14309785 0.13903089
-0.07038363 -0.013514709 0.055677224 -0.0974043 0.079720296 -0.07773541 0.07056193 -0.10709582
0.015338242 -0.12149328 0.08916349 -0.0002703179 -0.008549306 -0.13506511 -0.025418766 -0.027580652
-0.12163276 0.14217186 -0.0066999323 0.019135652 0.10175596 0.1033109 -0.038782306 -0.04932241
0.13248608 0.1137132 0.09918223 0.09699184 -0.15835789 0.057515915 0.14114039 0.12229812
-0.07317326 -0.016544422 0.09100915 -0.01903508 -0.14790983 -0.15031046 0.025000148 -0.10317899
0.043134104 0.025058508 -0.1624446 -0.019629933 0.022125758 -0.08885638 0.12188649 0.007355565
-0.03411221 0.14518024 0.07029975 0.05629791 0.077568196 0.12555006 -0.12875259 -0.09812263
-0.121514365 0.02935458 0.07202548 -0.0021917275 0.013742255 0.12600002 -0.0505628 0.13595445
-0.02188961 0.00984728 -0.106699176 0.078195706 0.05265846 -0.059565295 -0.08950147 -0.047048472
0.1530898 -0.077913925 -0.067241505 0.08569879 0.052555256 -0.13211419 -0.042972423 -0.16197748
0.11777748 -0.09367689 0.13309234 0.103143424 -0.001180079 0.04352763 0.025477216 -0.14199519
-0.08205225 -0.009837715 -0.0146130705 -0.04092415 -0.12431724 -0.1192186 -0.019939363 -0.1323434
0.048308305 0.02178789 0.016306732 0.1503343 -0.1589671 0.106396705 -0.12486732 0.019975165
-0.15467423 0.02271784 -0.095411934 -0.055880766 0.0093842205 0.14678895 0.018234795 -0.13033867
0.119045496 -0.0390559 -0.03461584 0.11131004 -0.14667907 0.077960216 0.117784716 0.017328002
-0.05963918 -0.14512849 0.08798056 0.014941466 -0.12533253 -0.10674677 0.01795329 0.10219563
0.10783619 0.08971915 0.1257277 0.11361828 0.014071491 -0.15563658 0.078343265 0.15464255
-0.0810475 -0.014960881 -0.1325424 0.0075008534 0.128572 0.02204687 -0.14107996 -0.023755204
0.030983925 0.032489583 0.14830638 -0.0032326372 -0.14025159 0.023967873 0.029052408 0.0138506275
-0.0031838939 -0.14336008 -0.065193556 -0.16081241 -0.03977883 0.12003103 0.001756988 0.06158789

model.rnn.bias_ih_l0 f4 [160]
00000000: 0c4a 4c3b a99d ba3d 0b19 00be 84c8 0dbe
00000010: 4ca5 88bd fefb 08be 9b6d 16be a419 c8bd
00000020: 5a64 f1bc de2b f73c 46c7 2a3d 1a59 b33d
00000030: 2e7a d5bd 191d d9bc e443 173e f7d9 0fbe
00000040: bb33 0f3e 797e 07be 3180 c83d d32b 3abd
00000050: 94ed 24bd 0cc3 93bd ebdf 0f3d c1a9 c23d
00000060: 1b6d 49bd a241 aabc 9b7b ebbd a919 ccbc
00000070: c70c 8d3d 8922 063e eb47 9b3d 7de0 e1bd
00000080: ef43 593d 30ae 853d ba18 acbd 60c3 543d
00000090: d301 0b3b 3eb6 20bd 8808 e33d de54 15be
000000a0: 7c59 9b3d 4a47 b93d 1e30 3a3c 9cae aa3d
000000b0: fe8c 023c ba70 c7bd 8cbf 72bd 9279 89bd
000000c0: be4b 0e3e 4331 cbbd d009 d3bc 2e65 06be
000000d0: d8f9 193e 547f 983d 4dcc f53d 35f9 333d
000000e0: 6fa1 2d3c e0db c8bd cab0 143d 3406 efbc
000000f0: c096 35bd 6859 693b fc7a 0a3e 28ea 3d3d
00000100: bcc1 b4bd f9e2 c13c c8bf 13be 427e 06be
00000110: 5c94 f4bd 876f 5ebd 2eba d9bd eba2 1c3e
00000120: 763c e63d 0b69 463c 37b3 e5bc f56b c13d
00000130: 5d78 0b3e fb21 c43d b1cd 5ebd 2fc2 36bd
00000140: 76b1 b73c 6d8a 1d3e 251e 0cbe e0c1 14be
00000150: 8aad edbd 1e4d f5bc f627 b1bd b65e e9bd
00000160: 4685 d7bd 2723 173e f4f4 1abc 892a 97bd
00000170: 025c ae3d 3156 babd 5562 9bbd fbde e23b
00000180: 9954 c9bd 13a7 70bd 7977 82bd 28e1 883d
00000190: bcc2 1fbb 5fb8 18be f68e 2a3d 8d88 25bd
000001a0: 40ba 2bbb e6aa ccbd bf41 103d 2c67 56bc
000001b0: daf0 39bd f756 0e3e 0b01 17be 60bf d138
000001c0: 59fe 1dbe 8922 1abe c27c 63bd 6812 8e3d
000001d0: 6cc2 3abc 044b 7f3b 16c7 c93b 4745 ac3d
000001e0: 8e3a 27be 6da1 e23d 5cb1 0ebe 5ded 093e
000001f0: bcc0 1b3e e1ca afbd 0a7f 00be 5de5 dabd
00000200: 0277 cd3c fc55 0b3e 0ec3 073e e9a9 993d
00000210: 098a c2bd 0730 3e3c 98e7 9dbd 83fb c63d
00000220: d11d c23d bc0f 9a3d 0553 04be 2383 1ebd
00000230: be3d 073c 7957 b83d 9e08 0dbe de09 d43d
00000240: a5be b2bd 2d7c 113e 28c8 bbbd 5281 dd3d
00000250: 35e7 633c d221 1ebd dbc4 17be 90bb b03c
00000260: d66c 22bd eee3 00be 8b0a 123e 2a5e 3d3d
00000270: 5867 b63d 9c74 14be 7e45 12be 874c 88bd
0.0031172065 0.091121025 -0.12509553 -0.13846022 -0.06672153 -0.13377377 -0.14690249 -0.097705156
-0.029466797 0.030172285 0.04169395 0.08757229 -0.104236946 -0.026503133 0.14771992 -0.1404799
0.13984577 -0.13231839 0.097900756 -0.04545195 -0.040265635 -0.072149366 0.035125654 0.09505034
-0.049176317 -0.02078325 -0.11498185 -0.02491458 0.06887203 0.13099112 0.07582077 -0.11029146
0.053043302 0.06527364 -0.08403154 0.051944137 0.0021210804 -0.0392363 0.110856116 -0.14583156
0.07585427 0.090468004 0.011364011 0.08334085 0.0079681855 -0.09738298 -0.059264705 -0.06712641
0.13896081 -0.09921505 -0.025761515 -0.13124534 0.15036714 0.07446161 0.12001858 0.043938834
0.010597571 -0.09807563 0.03630141 -0.029177763 -0.04433322 0.0035606269 0.13523477 0.046365887
-0.088260144 0.0236678 -0.14428627 -0.13134101 -0.1194236 -0.05430558 -0.10631214 0.15296523
0.11242001 0.012110005 -0.028039558 0.09444419 0.13620134 0.09576794 -0.05439538 -0.04461878
0.022423487 0.15384836 -0.13683374 -0.14527082 -0.116053656 -0.029943999 -0.086502 -0.11395018
-0.10523467 0.14759503 -0.009457815 -0.0738116 0.08513643 -0.09098471 -0.07587115 0.006923554
-0.09830589 -0.058753084 -0.06370444 0.0668357 -0.0024377545 -0.14914082 0.041640244 -0.040413428
-0.0026203543 -0.09993534 0.03521895 -0.0130861215 -0.04539571 0.13900362 -0.14746492 0.00010001543
-0.15429057 -0.15052237 -0.0555389 0.069371045 -0.011398893 0.0038954625 0.006157766 0.08411651
-0.1633093 0.11065946 -0.13934845 0.13469453 0.15210241 -0.08583618 -0.12548462 -0.10688279
0.025081161 0.13607019 0.13258001 0.07503111 -0.09498984 0.01160813 -0.077101886 0.09715941
0.09478343 0.07522532 -0.12922294 -0.03869928 0.008254467 0.09001059 -0.13772818 0.103534445
-0.08727769 0.14207526 -0.09169036 0.108156815 0.0139101045 -0.038606472 -0.14821188 0.021573812
-0.039654575 -0.12586948 0.14261834 0.04623238 0.0890643 -0.14497608 -0.14284322 -0.066552214

model.rnn.bias_hh_l0 f4 [160]
00000000: d836 313d a313 1c3d 32db 7f3d d5f3 ba3d
00000010: 6b34 603d 4124 98bc 7f85 053e ecbe 82bd
00000020: d363 183e 1902 af3d 6f86 c4bd 90b6 f6bd
00000030: aaa5 9a3b 5a9f f9bd f24d 9dbd d727 4d3d
00000040: 76cb 0dbe ca51 19be a55c dfbd d27e 113c
00000050: 6066 7abd dd93 033c 44aa 6b3b ef38 ffbd
00000060: 8e24 00be 588a 9fbd 7d59 df3d 0d06 92bd
00000070: f9df 0abe e7c4 0dbe 6e6c bd3c 9313 903d
00000080: 3c84 9b3d 2a93 70bd ee3b 4fbc bed8 f5bc
00000090: 3629 343d bd49 a4bd a1ae 053e 13d3 2abd
000000a0: c99d 873d 6bba af3d d940 183e 0396 0d3d
000000b0: 5221 c7bd 6f93 93bd f94d b93d 7737 f93c
000000c0: 4cc8 12be 7423 07be d1be 9fbc c427 d8bc
000000d0: 859a 0dbc 3dd0 c4bd 25f0 e53d 008a 16be
000000e0: aaea d8bd 6bcb 113e c54b f03b 2c50 50bb
000000f0: e251 473d 6236 823d 8c0a 70bc 7f44 88bd
00000100: 02da 91bd ead9 173e 08b0 eabd c839 d3ba
00000110: 9143 35bd 9e4f 0dbc 38bd e63d d5a6 bf3d
00000120: 947d 18be 48a7 c7bb b674 fdbd 9694 6c3c
00000130: 750b 293e c7e4 f83d fd07 a23d 06df 183e
00000140: 3b3b 3cbd 95be b4bc edcf 093e 400c cbbc
00000150: 0767 183e ae7d 04be 3a5b 703d 4fd8 353d
00000160: 203a 4b3d 468b 77bc 2d50 023e 4343 86bc
00000170: a009 93bc aa23 50bd f211 4cbd a575 fdbd
00000180: 1bfe 1ebe ae4a 8abc 8c13 cdbd e9f9 13be
00000190: efa7 98bd 82d3 1c3d abe3 11be 8681 00bd
000001a0: 277f 603d 1710 0e3e 9437 e43c 0339 303d
000001b0: af89 92bd 44bc 52bd 62ed 053e c536 003e
000001c0: 585f 7ebd d38b 8cbd a23c 19be 1548 6f3d
000001d0: 6bfc ee3d dfff b2bd b8e8 b03d 5ed1 b6bc
000001e0: 643b fabc 2d99 c73c ef84 513d a2b9 de3d
000001f0: 99ec 0e3e aab9 bfbd 7655 11be c81f aa3d
00000200: 895e 293e 4ff2 66bb 06b3 bcbb 60b8 12bc
00000210: f0e0 b93d 92d1 fd3d 40f8 793d be97 e6bd
00000220: 5b3f 253d bcef 0abd 2886 c13c 293d e2bc
00000230: ee37 0fbe 00be 51bd 5039 3cbd 9f04 a5bc
00000240: ae31 86bd 7de7 093e 8f1f 29bd fe35 a53d
00000250: 68b1 20be c90a 123e b8fa 073e fbb9 04be
00000260: b101 f53c ad2c 8cbd 1111 003e 521f 07be
00000270: e267 093e 9e79 0ebe a5e2 eabd 69c2 a8bd
0.043265194 0.038104665 0.0624649 0.091285385 0.05473749 -0.018571975 0.13039206 -0.06384072
0.1488183 0.08545322 -0.09595954 -0.1204654 0.0047194557 -0.12188597 -0.076808825 0.050086822
-0.13847145 -0.14972606 -0.109063424 0.008880334 -0.06113279 0.008030859 0.003595964 -0.12462031
-0.12513945 -0.07790059 0.109057404 -0.0713006 -0.13562001 -0.13844644 0.023122992 0.070349835
0.07593581 -0.058734097 -0.012648566 -0.030010577 0.043984614 -0.08021877 0.13054897 -0.041705202
0.06621892 0.08580478 0.14868487 0.03456689 -0.09723152 -0.07205855 0.09048075 0.030421956
-0.1433422 -0.13197118 -0.019500168 -0.02638615 -0.008642797 -0.09610031 0.112274446 -0.1470108
-0.105916336 0.14237754 0.007333251 -0.0031786067 0.048662074 0.06358029 -0.014650952 -0.066536896
-0.0712166 0.14829221 -0.114593565 -0.0016115243 -0.04425389 -0.008624939 0.11266559 0.093579926
-0.14891654 -0.0060929395 -0.123757765 0.0144397225 0.16508277 0.12153011 0.0791168 0.14928827
-0.045954924 -0.022063533 0.13458224 -0.024786115 0.14883052 -0.12938568 0.05868075 0.04439574
0.04961598 -0.015108889 0.12725897 -0.016389495 -0.017948925 -0.050815262 -0.0498218 -0.123759545
-0.15526621 -0.016881313 -0.10013494 -0.14450802 -0.07453906 0.038287647 -0.14247005 -0.031373523
0.054808762 0.13873325 0.027858533 0.04302312 -0.07155167 -0.051449075 0.13078836 0.12520893
-0.062102646 -0.06862607 -0.14964536 0.058418352 0.11669239 -0.0874021 0.086381376 -0.02231663
-0.030545898 0.024365032 0.051152166 0.108752504 0.13957442 -0.093615845 -0.14192757 0.08306843
0.16539969 -0.0035239642 -0.005758646 -0.008955091 0.090761065 0.12393488 0.061027765 -0.11259411
0.040343624 -0.033920035 0.023623541 -0.027617054 -0.13986179 -0.05120659 -0.045953095 -0.020143805
-0.065524444 0.13467212 -0.041289862 0.08066939 -0.15692675 0.14261927 0.13279235 -0.12961571
0.029908033 -0.06844459 0.1250651 -0.13195542 0.13418534 -0.13913581 -0.1146901 -0.08240206

model.rnn.weight_ih_l1 f4 [160, 40]
00000000: ac86 68bd 2d93 edbc 559d 1a3d a928 023e
00000010: 0d6a 08be be6d fb3d 2146 6abd df99 d13d
00000020: 9d10 0abe bec1 a0bd 5b02 e1bd dbfe e6bd
00000030: fab8 f93d 30f0 a1bd 9ae7 993d a1fa e63d
00000040: 8583 a6bd bd41 fcbd b75a 89bd e24e 82bd
00000050: 8634 1a3d 6120 21bd 2a8b b2bc ef4e 7dbd
00000060: efb3 dcbd bcbb 133e 626e e2bd 05a2 873d
00000070: ddf6 3dbd be2a 69bd 6b9a d0bd bd67 5abb
00000080: 6e7a 17be 026c 03be 0f4e bcbd 11c3 0d3e
00000090: bede 933d 676b 06be 88cb 07bd cef7 f4bd
000000a0: dc87 95bb e270 8b3d 4ff4 f0bd d4bc 043e
000000b0: 1327 08be ef96 07be 2f8b 69bd 1906 cfbd
000000c0: 9232 4c3d 2363 1abe 80a3 8cbd 451a c7bd
000000d0: f8d9 bcbc f4fc d3bc 50e4 10be 848d b83d
000000e0: 60a2 163e 204a 543d 7f00 293d afcc e43d
000000f0: 057c bd3d 2ac1 06bd b20d 223e 7a22 c83c
00000100: 1be6 a73c a5a4 1abe 11d6 ca3d 7d79 f43d
00000110: 9564 99bd 755a b63d 6eef 76bc c4db a03d
00000120: ecdd d83c 79e1 5f3a 3ec8 bf3d 2420 0c3c
00000130: 93a7 1f3e 0e50 b43d 8ff6 77bd 92d7 c3bd
00000140: d66a 803c e922 3dbd 6e48 10be aa7b be3c
00000150: a2b5 2dbd 55bc dc3c ef6a 1abe aa3e cd3c
00000160: b4e6 f23d 772b c93d 743a 433d c4f1 8cbc
00000170: 681c 0b3d ebbf 8b3c 4986 ed3d 7b4f 003e
00000180: 9044 15be 8a7f 163c fb23 7d3c 2e0b 05be
00000190: b03c d83d d21f d33b ded6 efbd b776 1d3e
000001a0: 7469 07be 2dd9 50bb a8ac 463c fa77 f33c
000001b0: 1b70 003d 22e8 c43d 2163 463d 47d4 133e
000001c0: 32ab 15be 422f d93d a2c3 173e 64a5 24bd
000001d0: b88c 0fbe a42b a5bd c6ba 633c f0cd d3bc
000001e0: 41e0 4fbd 2cd8 8b3d 8a3a ce3d a1af 12be
000001f0: 2714 f23d 083a cb3c e0be eebd 54a1 023e
00000200: 9e59 18be a2a0 3ebd 92aa 74bc bbf2 71bd
00000210: 6e4f e6bd c656 b1bd 0a3a 053e e94f 303d
00000220: 58d1 3b3d 9190 a0bd 9e30 1a3e f4a1 113e
00000230: d64f ce3d 0498 c7bd f577 16be a3db 933d
00000240: aeb5 cbbc 9682 0abd bedb ba3d 615e 713d
00000250: 7ed5 033d 15cf 4ebd 3132 2d3d 877d 0a3d
00000260: e837 f83d d3b2 e7bd d470 cbbd 1628 393d
00000270: 0c15 af3d 4072 ad3d 5187 a23d 722b f03d
00000280: 38e6 e43b d5d3 ecbb 32d8 17bd ffe3 73bd
00000290: f8ea 103e 253f bb3c b4dd fbbd 142f 8dbd
000002a0: 66d7 cf3d 255b 853d 8eb8 9f3d 5e54 033c
000002b0: 59a0 623d 674e 053e ee85 0bbe f6b4 1e3b
000002c0: bbb0 1ebe d332 8a3d 7745 50bc e5ce 9dbd
000002d0: e1f4 91bd f29c 123e 693a b43d 9d02 093c
000002e0: 419e b0bd bfe5 b5bd 050a 9f3d 3add da3c
000002f0: 624b 43bd 0001 ec3d 0498 403d a244 0bbe
00000300: 45fe 0dbe 27cc a53d 0e9d 273d 2f32 74bd
00000310: 1477 dfbd 4f3f 4abd 3851 0cbd 0bc2 90bd
00000320: 57be eb3d 1648 e2bd 4f26 b5bc 4db0 973d
00000330: 84f0 15be a406 8e3d d49b 493d 93e8 063e
00000340: 6e4e 89bd adcd 42bc 53db f93d 2dc3 6b3d
00000350: 6400 2a3d bb5c ed3d bd90 fc3d b47a bdbd
00000360: 97a2 ed3d cf70 a7bc 9a62 373d f8e4 b13d
00000370: 0ad5 813d f679 1ebe fe2e 073e b54a d8bd
00000380: d88e 263d 7fcd d9bc f79a 10be d53d 3b3c
00000390: fa52 0bbb b942 83bd 4fde a03d eb96 2dbd
000003a0: c8c9 093e 5da5 0b3e bbdf 123e a417 0bbb
000003b0: eeec a0bd 3186 0dbe 29c3 0bbd 7dd7 e1bd
000003c0: e828 14be cdbb 10be c32a 6cbc fb51 b43d
000003d0: 9fdd a5bc 7194 e1bd 82cb 9c3d 63bf c63d
000003e0: 484f 023b 4ead a93d 4581 e63c 30dd 173e
000003f0: f623 363c 5079 4a3b e365 c53d 2011 e7bd
-0.056769058 -0.029000843 0.0377477 0.12710823 -0.13321705 0.12276791 -0.057195786 0.10234427
-0.134829 -0.078494534 -0.109867774 -0.112790786 0.121934846 -0.0790714 0.075148776 0.112782724
-0.08130554 -0.12317226 -0.067067556 -0.06362702 0.037647747 -0.03933752 -0.021794874 -0.061842855
-0.10776507 0.14427084 -0.1105621 0.066227 -0.046378005 -0.056925528 -0.10185703 -0.0033325993
-0.14792797 -0.1283417 -0.09194576 0.13843943 0.07220219 -0.13126908 -0.033153087 -0.119613275
-0.004563315 0.0680864 -0.11765348 0.12962657 -0.13296156 -0.1324117 -0.0570175 -0.10108585
0.049852915 -0.1507688 -0.06867123 -0.097218074 -0.023053154 -0.025877453 -0.14149594 0.09011367
0.14710379 0.051828504 0.04126024 0.11171853 0.092521705 -0.03289906 0.15825537 0.024430502
0.020495465 -0.1510187 0.09904111 0.119372346 -0.074898876 0.08903972 -0.015071733 0.07854417
0.026473008 0.0008540373 0.09364365 0.008552585 0.15591268 0.08804332 -0.06053787 -0.09562601
0.015675943 -0.04617587 -0.1409013 0.023252327 -0.042409547 0.026945272 -0.15079854 0.025054295
0.118604094 0.098227434 0.047663167 -0.017205127 0.033962637 0.017059287 0.115978785 0.1253032
-0.14576936 0.009185681 0.015450473 -0.12992546 0.1055845 0.0064430023 -0.117109045 0.15377317
-0.13223821 -0.0031867728 0.012126125 0.029720295 0.031356912 0.09614588 0.04843438 0.14436446
-0.14616087 0.10604717 0.14820722 -0.04019679 -0.14018524 -0.080649644 0.013899511 -0.025855035
-0.050750975 0.06828341 0.10069759 -0.1432481 0.1182025 0.024807945 -0.116575 0.12756854
-0.14877936 -0.04653991 -0.014933245 -0.059069376 -0.11245619 -0.08659129 0.13010421 0.04304496
0.045853943 -0.07840074 0.15057608 0.14221936 0.10073821 -0.097457916 -0.14694197 0.07219627
-0.024866905 -0.033815943 0.09123944 0.058927897 0.032186024 -0.050490458 0.042284194 0.03381112
0.12120038 -0.11313405 -0.0993363 0.045204245 0.08548936 0.08469057 0.07935966 0.117270365
0.006985452 -0.007227401 -0.037071414 -0.059543606 0.14152133 0.022857258 -0.12298146 -0.06893745
0.10148506 0.06511525 0.07798873 0.00801572 0.0553287 0.1301819 -0.13625309 0.0024216748
-0.15497105 0.06747975 -0.012711874 -0.077054776 -0.07126785 0.14317682 0.08800203 0.008362439
-0.086239345 -0.08881711 0.07765583 0.026716817 -0.047679313 0.11523628 0.047019973 -0.136004
-0.13866527 0.080955796 0.040921263 -0.05961817 -0.10911384 -0.049376782 -0.034257144 -0.07068261
0.11510914 -0.110489056 -0.022112994 0.074066736 -0.1464253 0.0693486 0.049220875 0.13174658
-0.067044124 -0.011889857 0.12200036 0.05755918 0.04150428 0.115899526 0.12332294 -0.092519194
0.11603277 -0.020439534 0.04477177 0.086862504 0.06339462 -0.15476212 0.1320152 -0.10561124
0.04066357 -0.026587246 -0.14121614 0.011428316 -0.0021259175 -0.06409211 0.07854902 -0.042380255
0.1345588 0.136373 0.14343159 -0.0021223808 -0.07857691 -0.13820721 -0.034121666 -0.11027429
-0.1446873 -0.1413414 -0.014414492 0.08804699 -0.020247279 -0.11014641 0.076560035 0.09704473
0.001988368 0.08285008 0.028137812 0.1483047 0.011116972 0.0030895062 0.09638574 -0.11282563

model.rnn.weight_hh_l1 f4 [160, 40]
00000000: 9b2c c83d 20d1 173d 556a b93d 6f80 22be
00000010: 0ee8 bc3d 0d01 b0bd 3acc 163d 4a18 0f3d
00000020: 5f0c 54bb 963a ffbd 3120 103e e40e d8bd
00000030: f15a b8bc 42f6 f8bb 5a96 a73d 603d ba3d
00000040: 248a ccbd 1d1b c0bb ff40 2d3d 6b3d 1d3e
00000050: 0f25 603d f28e acbd 9fe9 0cbe 9378 11be
00000060: c535 593d 13b2 6d3d 4be9 8fbd 17a7 e73d
00000070: ac69 053e 60a4 ac3d e442 26be 70d7 23be
00000080: ab18 32bd bbd7 a93d 20ba fcbd 9e36 d33c
00000090: 96f9 0f3e 6be9 b5bd 1609 edbd 8e6c c7bd
000000a0: 6d47 4d3d d5ce 46bd 0df1 ebbd 363b a8bd
000000b0: eb04 153e 5928 1ebe acdd 153e 2af9 ea3d
000000c0: de17 cd3c a562 64bd fe4a b83d ef2f e23d
000000d0: 0528 02be f6b2 6eba 3133 ce3d 2601 053d
000000e0: fdd9 b73d 1a71 49bd 3e91 9ebd 4829 f03d
000000f0: 2877 d73d d335 15be c75f c03d f557 333d
00000100: 5b18 e0bd 80e8 f2bd 662f 25bd 5f03 8d3d
00000110: 1a50 203e f341 7f3d d332 89bd b976 113e
00000120: 6273 e0bd 96f8 b43d f70d 9abd 31a7 ae3d
00000130: 09d1 00be d8ff f43b 0c09 04bd 52bd 22be
00000140: 91e6 edbd 51b3 17be 1d3d a0bd f91d ff3d
00000150: 2d27 c63b 7d51 793c 7ca8 cdbc becb 0bbe
00000160: 995a 023e 7e39 aabd 3510 033e cff1 0ebe
00000170: 135f 103e 49a4 313d 083e 23be e8b3 42bd
00000180: e03c 1ebe adc4 85bc c880 223d 3e5b dcbd
00000190: f4f9 163e 0325 0ebe c36e 29be 01ed 16be
000001a0: 9ecf d8bc cd8a 37bd 126d 24bc 7300 e1bd
000001b0: bce2 e53d d47e 1a39 2075 653d 4a9a 4fbd
000001c0: a469 59bc d5da 09be ab9a e4bd e9a2 a63b
000001d0: 64b7 7f3d f48e d63d 13eb 3c3c 2eb1 e23d
000001e0: 053b 993d 9d4f 0c3e 8dac 00bd d7fd 67bc
000001f0: 8720 9dbd f706 dbbd 0606 e23c 0b2a 4a3c
00000200: c6d7 00be 8651 023e 29bd e43d 9737 bf3d
00000210: 606e 3f3b 7437 e2bc df85 b53c bd24 82bc
00000220: 9a5e 55bd b7cd c8bd a3c0 c63b 6d7e 2dbc
00000230: 72a7 823d cdc9 393d 9606 15be 48b1 1a3d
00000240: a626 e23d 109c c5bd 5c86 eb3d dc8c 07be
00000250: 742d 5db9 84c7 a2bd 1422 923d 5e3a 053e
00000260: 9988 df3c a12e 463d 05e3 92bd af7a 14be
00000270: 9854 d23d d67e 24bc d6bb 38bd 0cee 83bd
00000280: e4f5 0bbe e00a e03b a161 bd3d 9698 b33c
00000290: e637 bdbd df16 edbd 7909 9fbd 70f1 c83d
000002a0: 361e 29bd 78af f53a d3be 84bd dd1b 6e3d
000002b0: 3075 1b3d 0ba9 c2bd 5563 b3bd 8fd9 163e
000002c0: 08ce 163e 62a4 aeba f2aa babd dffd 923d
000002d0: 0420 fc3d 3a03 6f3d 5b19 32bd 49df 06be
000002e0: 0df5 efbd fa68 86bd f342 28bc 516f 21bd
000002f0: 8f67 cf3c dfaa 15bb e081 e0bc 860e 80bd
00000300: 83cb 67bd 22bc e1bd c4c0 293c b27f eb3d
00000310: 6040 713d 130a 0d3e 2cf6 2abe fb7c 8ebd
00000320: 3bd3 b03d cfd7 a2bd 6cc1 c9bd 54ab 023e
00000330: a593 94bd a2a6 4d3c 347d 5bbc 0779 073e
00000340: f42a cd3d 5e37 2a3e 76b1 cbbc fc12 1e3c
00000350: f6b3 0cbe 0860 c13d 2dc7 06be c9f9 39bd
00000360: 6a6b 113e bd76 d8bd 7e78 96bd 032f 1cbe
00000370: 7c28 883d a59a bcbd 330e c5bd 6942 f33c
00000380: 9cd5 a4bd 7b45 28be bb6f 05be acf8 8bbc
00000390: 2ed7 e13d a1f8 0dbe b32f d0bd fce5 f6bd
000003a0: 0786 223e f2d3 133e 731e 8c3d 0b49 a2bd
000003b0: fa74 1d3e 38ed 983d dc04 bb3d dfac 75bd
000003c0: e4e7 e2bd 80e7 843c 6409 94bd c81b 473c
000003d0: ea6b 043e 8b4a 15be 44a0 78bc e1b7 263e
000003e0: ba31 323d 9836 6c3d b00d 0b3d 5445 a83d
000003f0: a2f6 8fbd 59f0 113e 4707 97bd ee85 d6bd
0.09774133 0.03706467 0.09053484 -0.15869306 0.092239484 -0.085939504 0.03681586 0.034935273
-0.0032356007 -0.12462346 0.1407478 -0.10549715 -0.022504302 -0.0075977156 0.08182974 0.090937376
-0.09987286 -0.005862607 0.042298313 0.1535546 0.05472284 -0.08425702 -0.13760994 -0.14206152
0.053029794 0.058031153 -0.07026919 0.11311167 0.13028592 0.084297895 -0.16236454 -0.16000152
-0.043480556 0.082931004 -0.12340188 0.02578288 0.14060053 -0.088824116 -0.11573999 -0.09737502
0.050116945 -0.048537094 -0.11520586 -0.082144186 0.14552657 -0.15445079 0.14635342 0.114733055
0.025035795 -0.055758137 0.089986786 0.11044299 -0.12710579 -0.0009105647 0.10068358 0.0324718
0.08977125 -0.049180128 -0.077425465 0.11726624 0.10520774 -0.14571314 0.09393268 0.043785054
-0.109421454 -0.11860752 -0.040328406 0.068854086 0.15655556 0.062318753 -0.06699147 0.14205445
-0.109595075 0.088364765 -0.07522195 0.08527983 -0.1257974 0.007476788 -0.03223519 -0.15892532
-0.11616243 -0.14814498 -0.078241564 0.12456889 0.0060471506 0.015217182 -0.025104754 -0.1365194
0.12729873 -0.08311747 0.12799151 -0.1395943 0.14098768 0.043369565 -0.15941632 -0.047534853
-0.1545291 -0.016329134 0.039673597 -0.107595906 0.14743787 -0.13881306 -0.16546158 -0.14738847
-0.026466187 -0.044810105 -0.01003577 -0.10986414 0.11224887 0.00014733832 0.056019902 -0.05068425
-0.013269816 -0.13462384 -0.11162313 0.0050853384 0.062430754 0.10476485 0.011530655 0.110689506
0.0748196 0.13702245 -0.031414557 -0.014159641 -0.0767222 -0.10694688 0.027590763 0.012339125
-0.12582311 0.12726411 0.11168892 0.09336775 0.0029210076 -0.027614333 0.022158561 -0.015886659
-0.052092172 -0.09804862 0.0060654446 -0.010589224 0.06379594 0.045358468 -0.14553294 0.037766725
0.11042528 -0.09648907 0.115002364 -0.13237327 -0.00021093135 -0.07948211 0.07135406 0.13010547
0.027286815 0.048384313 -0.07172207 -0.14499925 0.10270041 -0.010040006 -0.04510101 -0.06441888
-0.13668019 0.006837234 0.09247137 0.021923345 -0.092391774 -0.11576628 -0.07765479 0.098116755
-0.041288577 0.001874431 -0.06481709 0.05813204 0.037953556 -0.09504899 -0.087591805 0.1473143
0.14727032 -0.0013324136 -0.091146365 0.07177328 0.12310794 0.058352686 -0.043481212 -0.13171114
-0.117166616 -0.065629914 -0.010269868 -0.0394128 0.025317935 -0.0022837443 -0.02740568 -0.0625277
-0.05659057 -0.110222116 0.0103609 0.11498965 0.058899283 0.13773374 -0.1669547 -0.06957432
0.08634039 -0.079513185 -0.098513454 0.12760669 -0.072547235 0.012551935 -0.01339655 0.13229762
0.10017958 0.16622683 -0.024864893 0.009648081 -0.13740525 0.09442145 -0.13161917 -0.04540423
0.14201131 -0.105695225 -0.07347201 -0.15252309 0.06648347 -0.092091836 -0.09621849 0.029694753
-0.08048555 -0.16432755 -0.13030903 -0.01708635 0.110273704 -0.13864376 -0.10165348 -0.12055585
0.1587144 0.1443632 0.06841745 -0.07924088 0.15376654 0.07467121 0.09131786 -0.059979316
-0.11079386 0.016223669 -0.072283536 0.01215262 0.12931791 -0.14579217 -0.015174929 0.16281082
0.043504454 0.057669252 0.0339486 0.08216348 -0.07029463 0.14251842 -0.07374435 -0.10474764

model.rnn.bias_ih_l1 f4 [160]
00000000: d356 143b 1ed9 65bb 32e6 1dbc 0be3 0b3e
00000010: 470a 38bd e8e4 0d3e ea41 cabd 45f6 cbbd
00000020: 6045 10be c3be 553d 6cc2 c1bd b00c 26bd
00000030: 7055 0ebd 9fa3 fbbd a82f e0bc 187e 813d
00000040: 315e 07be e6da 183e ce28 273e 91c6 85bc
00000050: 7cba 31bd fa6f 1a3e 88c1 38bd 8a81 033e
00000060: 0127 173e d510 d63a 37c7 00be 47c2 823d
00000070: 93b0 13be dedf 90bb 31b9 223c 2ffb b43d
00000080: 806e d5bd 44e7 e43c c549 05bc 9981 07bd
00000090: 595b e4bd aa24 15be 5072 223d 885c 323d
000000a0: 267b f4bc 6def 103e 30c4 bebb 7110 093e
000000b0: 96ff 143d 271a 703c e049 8339 529f f03d
000000c0: 8c9d dcbc e244 d83c a0ec 073e 40f5 1ebe
000000d0: 8720 bd3d 5018 92bd 52f7 03be 798b 133e
000000e0: acb2 d03d 41f7 62bd c95b 6abd ced6 06be
000000f0: ec6a 94bd 8fc7 cebd 4004 c13c fe32 65bb
00000100: 18d8 a1bd 4353 16be 299c b43d 29a5 1abe
00000110: 49ba 0e3e 1149 28be ec42 09bd a102 153e
00000120: fbcd cfbd b970 943d 1944 b93d 5a3e eebd
00000130: 23cc edbd 07ee 263e c272 203e a5b3 163e
00000140: d80f cfbd f778 e0bd f710 2cbd 5fce c0bd
00000150: d283 223e 772b acbd 2dee aabd a7a1 023e
00000160: 0d95 1abe f7ba 013e d209 8d3d aa6e 8b3b
00000170: 5f57 cd3d 7aa8 0b3e d4ff 02bd 8cac 953c
00000180: 5dd9 17be fb49 08be 6150 91bd 5b84 103e
00000190: 3303 e9bd b293 f83d 01df fdbc 34bc d5bc
000001a0: 56c6 1e3e f370 153d 570a a7bc 1811 d63b
000001b0: 84f1 283d 43e8 26bd 20b7 05be a8f9 20be
000001c0: 416c f5bd 6016 9e3d d7ae d93d 5d1c 9a3d
000001d0: ea6d b6bd 18f8 9abc fa40 19be a58d 97bd
000001e0: cb94 2a3e 1048 1b3c 2b52 8e3d 8006 e33c
000001f0: bc5a 75bd 3c88 8c3d 05e0 a13d ae1f e03b
00000200: 9ba4 933c bbe4 ff3d 0400 a8bd ee32 eebc
00000210: 406f 07b7 8de2 55bd c19d bf3c 4ade 0dbe
00000220: a42d 27be c929 fd3d 270e eebd ae71 883c
00000230: d4ae b9bd 2c71 a53d 00e2 f4bd 7af9 a33d
00000240: 19c1 f1bd 50e7 82bd 0588 a53b ab77 14be
00000250: 43c4 1c3d 0611 27be 129e 1f3e 5806 d7bd
00000260: d660 853c 6ff4 723d 31bc 46bd 1d69 87bd
00000270: ec69 b3bd d86d c8bd 779b 8c3d f629 0cbe
0.002263476 -0.003507204 -0.009637402 0.13660829 -0.044931676 0.13856852 -0.09875853 -0.099590816
-0.14088964 0.052183878 -0.09460911 -0.040539443 -0.03474945 -0.122870676 -0.027366474 0.063228786
-0.13219525 0.14927253 0.1632416 -0.016330035 -0.043390736 0.15081778 -0.04510644 0.12842384
0.14760973 0.0016331921 -0.12575994 0.06384712 -0.14422826 -0.0044212183 0.009931848 0.08836972
-0.10421467 0.027942307 -0.008135264 -0.03308258 -0.11150236 -0.14564767 0.0396598 0.043545276
-0.029843878 0.14153834 -0.005821727 0.13385178 0.03637656 0.014654673 0.00025041308 0.11749138
-0.026930593 0.026400033 0.13273859 -0.15523243 0.0923472 -0.071335435 -0.12887314 0.14408673
0.10190329 -0.05541158 -0.05721644 -0.13167879 -0.07246956 -0.100966565 0.023561597 -0.003497302
-0.07902545 -0.146802 0.08818848 -0.15102066 0.1393825 -0.16434123 -0.033511087 0.14551784
-0.101467095 0.07248063 0.09046192 -0.11632986 -0.116112016 0.16301738 0.15668777 0.14716966
-0.10110444 -0.10960572 -0.042008366 -0.09414362 0.15870598 -0.08406728 -0.0834621 0.12756978
-0.15095921 0.12668978 0.06886639 0.0042551355 0.1002643 0.13638487 -0.031982258 0.018270753
-0.14829011 -0.13309471 -0.07095409 0.1411299 -0.11377563 0.12137546 -0.030990126 -0.026090719
0.15505347 0.03648467 -0.020390673 0.0065327995 0.041245952 -0.040748846 -0.13058138 -0.15720236
-0.119835384 0.077191114 0.10629051 0.07524941 -0.08907683 -0.018917128 -0.14966193 -0.074000634
0.16658323 0.00947763 0.06949266 0.02771306 -0.059900984 0.06861922 0.079040565 0.006839714
0.018022826 0.12494799 -0.08203128 -0.02907702 -8.072529e-06 -0.05221801 0.023390653 -0.13854328
-0.16326004 0.123614855 -0.11623793 0.01665577 -0.09066549 0.080782264 -0.119571686 0.08006568
-0.118044086 -0.063917756 0.005051615 -0.14498775 0.038273107 -0.16315088 0.15587643 -0.10499257
0.016281527 0.05931514 -0.048519317 -0.06611846 -0.08760437 -0.09786576 0.0686559 -0.13687882

model.rnn.bias_hh_l1 f4 [160]
00000000: a88c ad3c 16b4 503d 6210 5dbd 3dd4 47bc
00000010: 4c32 38bd 8534 0ebd 3e3f b4bb 8f67 43bc
00000020: 81d6 8bbc 6789 c03d 300d f73d b015 b73d
00000030: 4583 d1bd 8945 4bbd 8e82 38bb 1be3 c03d
00000040: 23c8 3d3d b3f3 e1bc 6cee 1fbd 1b3f a9bd
00000050: 46b3 3cbd 9e1d e6bd 79fd a4bc 8691 233d
00000060: 911e 3fbd f4a3 37bd e955 39bd 29f1 29bd
00000070: a4ad 1a3e d06a 86bd 1fe4 9e3c 22a1 36bd
00000080: 3b6f ae3d 73d9 bdbd c4d2 e13c 48a7 1fbe
00000090: 5d8e d3bd 0305 c13d 1dcd cb3d 2a3a 39bd
000000a0: 746a e1bd 1848 00be 3615 173d 21d7 bbbd
000000b0: fbab 63bd c2dc 8cbc eb01 c4bd 61b3 123d
000000c0: 4d1f dabd ae9d 953b df25 1f3d 9fd4 663d
000000d0: ae6f 803d fc41 253d a1de 14be 5b46 e13d
000000e0: 6c31 ae3d 663b b63d 3a2e 523d 55d2 f6bd
000000f0: 2cf2 033e 98f5 e7bd e285 a03d 2248 f1bd
00000100: 1a16 fc3d 5ed9 aabd 2be7 44bd 3dfc 0ebe
00000110: 5969 7abd 3a81 593d 6b26 10be 9b09 12be
00000120: 9ea0 7e3d 4d65 20be 7efb a4ba 0bdf 373d
00000130: f0cd 06be 1195 81bc 44db db3c 229d 90bd
00000140: 989f 1dbe 1782 9f3d e953 b43d 3196 62bd
00000150: 6464 18be 19b0 153d 2b79 1cbe 1b83 dc3d
00000160: 7460 26be b30d 0b3d 932c 253e 51dc 05be
00000170: a015 ea3d 5d32 993d 7ac6 d1bd 3c0c 153e
00000180: 37cc 0ebe 251c 993d 3e08 fb3d 897f 103e
00000190: b901 f7bd a3ae 253d fef6 273e 263e 293c
000001a0: 0fdd 0cbe 9c2a c03d 9d13 e2bc bbb8 a6bd
000001b0: b954 c0bd 3c42 ecbd ae4b 973d dffe ff3c
000001c0: 730f a1bd c91f bcbd 7f28 6b3d 28d7 8d3c
000001d0: 8099 ff3d f561 f53d 6ed6 f4bc d162 22be
000001e0: cb54 c93c 98b1 8bbd c57f 073d 14df 933d
000001f0: 0e6f c33c f31b c3bd 51c3 613c d162 6abd
00000200: 5e01 6f3d efdd 963d b8a5 673b b2f0 0ebe
00000210: 0f84 9bbd c568 62bd 9e20 0fbd e52e f5bd
00000220: 4ae3 28be 5b4a 06be 44d4 dabd 83f2 b7bd
00000230: d319 823c fc81 70bd 9457 633c 8523 cfbd
00000240: ef6a 5abc 625c 0d3e a004 dc3d a2e7 93bd
00000250: 7da3 1f3c aea3 0b3e d0b2 06be 33a0 863c
00000260: 0492 e6bd c442 0cbd 0ac1 84b9 5a85 a43d
00000270: db49 b43d f8ad f9bc 2c1e ab3c 81eb 0c3e
0.021185234 0.050952993 -0.053970702 -0.012196598 -0.04496984 -0.034718055 -0.005500703 -0.011926546
-0.017070057 0.094012074 0.12063062 0.089396834 -0.10230116 -0.04962686 -0.0028153989 0.09418317
0.046333443 -0.027582025 -0.039045736 -0.082639895 -0.046069406 -0.11236118 -0.020140396 0.039933704
-0.04666001 -0.044834092 -0.045247946 -0.041489754 0.15105301 -0.065633416 0.019395886 -0.044587262
0.08517309 -0.09269991 0.027566321 -0.15591156 -0.10329888 0.09424784 0.09951232 -0.045221485
-0.110066324 -0.12527502 0.036885463 -0.09171892 -0.055583935 -0.01719511 -0.09570678 0.0358156
-0.106505014 0.004565916 0.038854476 0.056355115 0.06271301 0.04034613 -0.14538051 0.10999747
0.0850552 0.08898048 0.051313616 -0.120518364 0.1288535 -0.1132614 0.07838036 -0.11781336
0.12308903 -0.08342241 -0.04807202 -0.13963409 -0.061135624 0.053101756 -0.14077155 -0.14261477
0.062164895 -0.15663643 -0.0012587158 0.044890445 -0.13164496 -0.01581815 0.026837952 -0.07061221
-0.15392911 0.077884845 0.08805067 -0.055319015 -0.14882046 0.036544893 -0.15280597 0.10767194
-0.16247731 0.03394861 0.16130285 -0.13072325 0.11429906 0.07480309 -0.102429345 0.14555448
-0.1394509 0.07476071 0.122574314 0.14111151 -0.120608754 0.04044975 0.16402814 0.010329759
-0.13756202 0.09383127 -0.027597243 -0.08140703 -0.093911596 -0.11536071 0.07387482 0.031249462
-0.07864275 -0.0918575 0.057411667 0.017314509 0.1248045 0.119815744 -0.029887404 -0.15858008
0.024576565 -0.06820983 0.033080835 0.07220283 0.023856666 -0.09526815 0.013779477 -0.057223145
0.058350913 0.07366549 0.0035346579 -0.13959005 -0.075935476 -0.055275697 -0.034943216 -0.11971835
-0.16492954 -0.13114302 -0.10685018 -0.08981802 0.015881455 -0.058717713 0.013875861 -0.10114197
-0.013331159 0.13804772 0.1074307 -0.07221915 0.0097435685 0.13636658 -0.13154149 0.01643381
-0.11258319 -0.03424336 -0.00025320827 0.08033247 0.08803149 -0.030478463 0.02088841 0.13761713
