practice/AutogluonModels/ag-20231210_075213/models/DeepAR/W0/gluon_ts/prediction-net-state.pt (torch, 108693 bytes, 11 tensors)

model.param_proj.proj.0.weight f4 [1, 40]
0	0x3e07c7d7	0.13259827
1	0x3dfff419	0.1249773
2	0xbde4a767	-0.11164742
3	0x3d27b9a9	0.040948544
4	0xbe106ab4	-0.14103204
5	0xbd845cb6	-0.06462996
6	0xbe090002	-0.13378909
7	0xbd1f29f0	-0.038858354
8	0x3dad6f83	0.08468535
9	0x3e095680	0.13411903
10	0x3e133cf4	0.1437872
11	0xbc850b73	-0.016240811
12	0x3d1e9029	0.0387117
13	0xbda610ba	-0.08108659
14	0x3cf1f680	0.029536486
15	0xbcb5594e	-0.02213731
16	0xbd06c639	-0.032903884
17	0x3d79f084	0.06102039
18	0xbc8dab21	-0.017293515
19	0x3989fda2	0.00026319647
20	0x3db98429	0.09058411
21	0xbc019e90	-0.007911339
22	0x3e0b1b04	0.13584524
23	0xbcf3919b	-0.029732516
24	0xbe0912e1	-0.13386108
25	0x3e2c87f2	0.16848734
26	0xbdf21a61	-0.118214376
27	0xbc13db3c	-0.0090244375
28	0x3cee2253	0.029069101
29	0xbe020f67	-0.12701188
30	0xbe00c3a9	-0.12574638
31	0x3de0052d	0.10938487
32	0x3dfa847c	0.12232301
33	0x3d2e2424	0.042514935
34	0x3dda58bf	0.10661458
35	0x3cde977f	0.027171848
36	0xbd699f79	-0.05703685
37	0xbc411eab	-0.011787097
38	0x3d4b5d99	0.04964981
39	0x3d63a962	0.055581458

model.param_proj.proj.1.weight f4 [1, 40]
0	0xbcebc702	-0.028781418
1	0x3e0066b7	0.12539183
2	0xbc1f2dcb	-0.009715508
3	0xbdb6ef9b	-0.0893242
4	0xbde8149e	-0.113320574
5	0x3c3ba716	0.011453411
6	0x3dd6a4ec	0.10480675
7	0x3cadb692	0.02120522
8	0x3c6b5bd5	0.014365156
9	0xbdf2e36b	-0.11859783
10	0xbd6e064c	-0.058111474
11	0x3e0e8c56	0.13920721
12	0xbe03752f	-0.1283767
13	0x3dd136fa	0.10215564
14	0x3d3b5fb3	0.045745563
15	0xbd809430	-0.062782645
16	0xbde2fab1	-0.11082972
17	0xbbd337be	-0.006445854
18	0xbc7dc011	-0.015487687
19	0x3dc573d4	0.09641233
20	0x3dc7ee0e	0.09762202
21	0xbda0a3ae	-0.078437194
22	0xbd99d230	-0.07510793
23	0xbdbe9c9d	-0.09307215
24	0x3d267200	0.040636063
25	0x3ce63c9f	0.028105078
26	0x3e1ca5b3	0.15297584
27	0xbc87e9c8	-0.016590968
28	0x3e0e65e6	0.13906059
29	0x3dc433db	0.09580203
30	0x3e116586	0.14198884
31	0xbcb3ebc8	-0.021963015
32	0xbde305f0	-0.11085117
33	0x3dd2c2b4	0.10291043
34	0xbdb09994	-0.08623043
35	0xbcf359cb	-0.029705903
36	0xbdacbfc3	-0.08435013
37	0x3d74ab51	0.059733693
38	0xbd94c12a	-0.072634056
39	0x3e29d095	0.16583474

model.param_proj.proj.2.weight f4 [1, 40]
0	0x3dba79ae	0.0910524
1	0xbda33989	-0.07969958
2	0x3e09704d	0.13421746
3	0xbd90e174	-0.07074252
4	0xbd85beaf	-0.06530511
5	0xbd802ec6	-0.06258921
6	0xbe1cc000	-0.15307617
7	0x3d8d7c08	0.06908423
8	0xbdf71b92	-0.120658055
9	0x3d7f0b2a	0.062266506
10	0xbd830fd4	-0.06399503
11	0xbde59e3b	-0.11211821
12	0x3cfbb09e	0.030723866
13	0x3de22269	0.110417195
14	0xbc70d28b	-0.014698635
15	0xbc69d773	-0.0142725585
16	0x3de4af0b	0.11166199
17	0xbe00f9b2	-0.12595251
18	0x3dc3e0df	0.09564375
19	0x3e11af30	0.14226985
20	0x3e11ebd9	0.14250125
21	0xbc0ba971	-0.008524285
22	0xbd9fe842	-0.078079715
23	0x3d388d17	0.04505643
24	0x3de893c7	0.11356311
25	0xbd773046	-0.06034877
26	0x3e040503	0.12892537
27	0x3e1c4b8b	0.15263192
28	0x3dc834c0	0.09775686
29	0x3da2c8ed	0.0794848
30	0xbe13f020	-0.14447069
31	0x3df161e0	0.11786246
32	0xbd4040f2	-0.046936937
33	0x3d77cb06	0.060496353
34	0xbda2fbe4	-0.079582006
35	0xbe0ecbbc	-0.13944906
36	0xbc922284	-0.017838724
37	0x3cef519b	0.029213717
38	0x3e1b74d5	0.15181287
39	0x3db62462	0.08893658

model.rnn.weight_ih_l0 f4 [160, 37]
0	0xbd80d6da	-0.0629098
1	0x3d895633	0.06705894
2	0xbd3decd2	-0.046368428
3	0x3c0f1c29	0.008734741
4	0x3d902b89	0.07039554
5	0xbe0d5e91	-0.13805605
6	0x3da31445	0.079628505
7	0xbdd2df3e	-0.10296486
8	0xbd9640b4	-0.0733656
9	0xbdd3f67e	-0.10349749
10	0x3e0fdbe4	0.14048725
11	0xba1f1672	-0.0006068713
12	0xbd8200f6	-0.063478395
13	0xbcc51181	-0.024056198
14	0xbdf606b0	-0.12012994
15	0x3e05274d	0.13003273
16	0x3e182ba4	0.14860398
17	0x3d1fbf70	0.03900093
18	0x3e050f63	0.12994151
19	0x3def3bd0	0.1168133
20	0x3d31e707	0.043433215
21	0x3ddd95d1	0.10819591
22	0x3e1f219e	0.15540168
23	0x3cd5fbf8	0.026121125
24	0x3e1d029e	0.1533303
25	0xbde70e6b	-0.11282047
26	0x3c6941cb	0.014236878
27	0x3c91dee0	0.01780647
28	0xbe0d25a5	-0.13783891
29	0x3ca62bde	0.02028459
30	0x3bc2e80c	0.0059480723
31	0x3e1215ed	0.14266177
32	0x3dc405d4	0.09571424
33	0xbd5791ef	-0.052629407
34	0x3db29c3d	0.08721206
35	0xbdf6922b	-0.12039598
36	0x3dfa2942	0.122149006
37	0xbcde7256	-0.027154129
38	0xbdc8f1fb	-0.09811779
39	0x3e01f703	0.12691884
40	0xbc8a389e	-0.0168727
41	0x3d792724	0.060828343
42	0xbc09a25d	-0.008400527
43	0x3e0b2d88	0.13591588
44	0xbd10a8ea	-0.03531734
45	0x3bd56ae3	0.006512986
46	0xbdbcf787	-0.092268996
47	0x3d4daf9e	0.05021631
48	0x3c81512f	0.015785782
49	0xbd454c1b	-0.048168283
50	0xbdadfc5e	-0.08495401
51	0xbd2ad1f1	-0.041704122
52	0x3d89a585	0.067210235
53	0x3e0ec7a4	0.13943344
54	0x3e1cbb40	0.15305805
55	0x3d058e25	0.032606263
56	0xbdee9c4a	-0.116509035
57	0x3e132f0a	0.14373413
58	0x3cd3068c	0.025759958
59	0xbe03f926	-0.12888011
60	0x3da9a656	0.08283679
61	0xbda8300e	-0.08212291
62	0x3d6767c2	0.056495436
63	0x3da59649	0.08085305
64	0x3ccb4d43	0.024817115
65	0xbb8c2097	-0.004276346
66	0x3d7b19bf	0.06130385
67	0xbdf39ce7	-0.11895161
68	0xbc2357a2	-0.009969624
69	0x3d69e5a2	0.05710376
70	0x39f06a3c	0.00045855518
71	0x3d12acd5	0.035809357
72	0x3df5c19e	0.1199982
73	0xbd152d50	-0.036420166
74	0xbdb67312	-0.08908667
75	0xbe0456ca	-0.12923732
76	0x3db7e647	0.08979469
77	0xbcae19cc	-0.021252535
78	0x3dfecbb0	0.12441194
79	0xbddc6642	-0.10761692
80	0xbe07a345	-0.13245876
81	0xbc7d0912	-0.015444057
82	0xbd2d9c2a	-0.042385258
83	0x3cabe42a	0.02098282
84	0x3d2a1e21	0.04153264
85	0xbdd5662c	-0.10419878
86	0x3e11b1a2	0.14227918
87	0xbdb24287	-0.08704095
88	0xbde1c01f	-0.11022972
89	0x3da69daa	0.08135541
90	0x3dbfff10	0.09374821
91	0xbd9f27b3	-0.07771244
92	0x3d1df845	0.038566846
93	0x3c49117e	0.012272237
94	0xbde51bf0	-0.11186969
95	0xbda0b9dd	-0.078479506
96	0x3d4c524f	0.049883183
97	0xbcff4896	-0.031162541
98	0x3de2546c	0.110512584
99	0xbcdc460b	-0.026888868
100	0x3dc7320b	0.09726342
101	0xbdbec238	-0.09314388
102	0xbc933df4	-0.017973877
103	0xbd490bd4	-0.049083546
104	0xbddd07aa	-0.107924774
105	0x3e1f1f80	0.1553936
106	0xbd8259cb	-0.06364783
107	0x3df414f7	0.11918061
108	0x3d61675a	0.055030204
109	0x3dfcf856	0.12352054
110	0x3d324c51	0.043529812
111	0xbdb6e5ad	-0.08930526
112	0x3d3f7f64	0.04675235
113	0xbdd7bc7c	-0.105339974
114	0xbdbd6c7b	-0.09249207
115	0x3dde69b0	0.10860002
116	0xbe144219	-0.14478339
117	0xbd96c01c	-0.07360861
118	0xbd969f5c	-0.07354614
119	0x3d6964e1	0.05698097
120	0xbcd21b21	-0.025647702
121	0xbce0a409	-0.027421968
122	0x3ccf895b	0.02533405
123	0xbd36e669	-0.04465333
124	0xbdbc9c4c	-0.09209499
125	0xbd22d350	-0.039752305
126	0x3d71afaf	0.059005436
127	0x3df466dd	0.11933682
128	0xbcec85bd	-0.028872365
129	0x3d47ffdf	0.048828002
130	0x3c474473	0.012162316
131	0xbdea3838	-0.11436504
132	0x3e19e605	0.15029152
133	0xbd56f486	-0.05247929
134	0x3db76b41	0.08956004
135	0xbd96fb39	-0.07372136
136	0x3ab28301	0.0013619364
137	0xbdc3c87f	-0.09559726
138	0x3d822406	0.06354527
139	0x3d33f1f2	0.04393191
140	0x3e0ba479	0.1363696
141	0xbbc1f3b2	-0.0059189433
142	0xbdc202c6	-0.09473185
143	0x3d486f22	0.04893411
144	0xbbfb5440	-0.0076699555
145	0x3d0a6c9b	0.03379498
146	0xbd90cf8e	-0.07070838
147	0x3e183791	0.14864947
148	0xbdec938a	-0.11551578
149	0xbc8fded1	-0.017562302
150	0x3d1fca28	0.03901115
151	0x3d76af9c	0.060226068
152	0x3e07d45d	0.13264604
153	0xbdf05c86	-0.117363974
154	0x3b269450	0.002541799
155	0x3e0cb9b6	0.13742718
156	0xbdff6d5f	-0.12472033
157	0x3ddf5932	0.109056845
158	0x3cbfc3f2	0.023408864
159	0xbe0f8685	-0.14016159
160	0x3d6840c5	0.056702394
161	0xbe15597a	-0.14584914
162	0xbdf609c1	-0.12013579
163	0xbd431b97	-0.047633734
164	0x3cd64f78	0.02616094
165	0xbcc7ea04	-0.02440358
166	0x3c1d4578	0.009599082
167	0xbdfe5ea4	-0.12420395
168	0xbe04dd48	-0.12975037
169	0x3e23ec96	0.16008219
170	0xbc142989	-0.009043106
171	0x3de2c879	0.110733934
172	0x3def6099	0.116883464
173	0xbdcf2bf2	-0.10115804
174	0xbda2b738	-0.079451025
175	0xbe196764	-0.14980847
176	0xbe1eb5eb	-0.15499084
177	0xbdb0e0f6	-0.08636658
178	0xbc578f2a	-0.013156692
179	0x3c157f57	0.0091245985
180	0x3e053078	0.1300677
181	0x3d86e9ad	0.06587539
182	0x3dbcaaa0	0.09212232
183	0x3c25dd0b	0.0101235015
184	0x3e1101c6	0.14160833
185	0xbdd7691c	-0.10518095
186	0x3d3e58ef	0.046471532
187	0x3dc5110f	0.09622394
188	0x3db9bec2	0.09069587
189	0x3d815498	0.06314963
190	0x3d2476cd	0.04015236
191	0x3c5bdcb4	0.013419319
192	0xbe0b6d30	-0.1361587
193	0x3e1e304a	0.15448108
194	0xbc17cf28	-0.0092656985
195	0x3da41d1b	0.08013364
196	0x3d9ffff4	0.07812491
197	0x3de4ab9b	0.11165544
198	0x3e12db46	0.14341459
199	0xbdb1c5e8	-0.08680326
200	0xbc9bec9b	-0.01903372
201	0x3e09f7e0	0.13473463
202	0x3de44a09	0.111469336
203	0x3d9d6baf	0.07686555
204	0x3ca7009a	0.020386029
205	0x3dacfcb3	0.08446636
206	0xbe19dd75	-0.15025885
207	0xbdf92c9e	-0.12166713
208	0xbdaadc9a	-0.08342858
209	0xbd4ad7c9	-0.049522195
210	0x3e19bade	0.1501269
211	0x3dddc367	0.10828286
212	0xbe11b498	-0.14229047
213	0xbde9f2e0	-0.11423278
214	0x3dc58269	0.096440144
215	0xbdcce8ad	-0.10005317
216	0xbe0c1f1c	-0.13683742
217	0xbdd63eef	-0.104612224
218	0x3d963e6a	0.07336123
219	0x3df3d423	0.11905696
220	0x3be38552	0.0069433833
221	0xbd415993	-0.047204565
222	0x3d2fe6c7	0.042944696
223	0x3e03416d	0.12817927
224	0xbe0effc7	-0.13964759
225	0x3ce92dd7	0.028464241
226	0x3db8deab	0.090268455
227	0xbe0aa879	-0.1354083
228	0xbcd6a8fa	-0.026203621
229	0xbb76e6c0	-0.0037674159
230	0xbbdcff86	-0.006744328
231	0x3e0ce07c	0.13757509
232	0xbe02b2de	-0.12763545
233	0x3dc8dd07	0.098077826
234	0x3e282fcf	0.16424488
235	0xbdaf3e6d	-0.08556829
236	0xbd8a4b8a	-0.06752689
237	0x3d2120fd	0.0393381
238	0x3d33fa64	0.043939963
239	0x3cefaf6f	0.029258458
240	0xbdcca52b	-0.09992441
241	0x3d113aa4	0.035456315
242	0x3cdae633	0.026721096
243	0x3de6ad84	0.11263564
244	0xbd67c7c9	-0.056587014
245	0xbd6a2a63	-0.05716933
246	0xbe140bd4	-0.14457637
247	0xbe0aaeb0	-0.135432
248	0xbdd64f27	-0.10464316
249	0xbe00ba58	-0.12571084
250	0xbe153263	-0.14570002
251	0x3d9ded4a	0.07711275
252	0xbd1c2439	-0.038120482
253	0xbe172086	-0.147585
254	0x3c59e542	0.013299288
255	0xbe148001	-0.14501955

model.rnn.weight_hh_l0 f4 [160, 40]
0	0xbde36cd9	-0.111047454
1	0xbdfba78c	-0.122878164
2	0xbcfeaa44	-0.031087048
3	0x3e0647f9	0.13113393
4	0x3e22a234	0.15882188
5	0x3e000be1	0.12504531
6	0xbe1a1955	-0.15048726
7	0xbe092643	-0.13393502
8	0x3e1e39c3	0.15451722
9	0x3dea6ec6	0.114469096
10	0x3d4995be	0.04921507
11	0x3e28aede	0.16472957
12	0x3d8cab17	0.0686857
13	0x3db9b08c	0.09066877
14	0x3df39ba5	0.11894921
15	0xbe1f4e2e	-0.15557167
16	0x3e232aa4	0.15934235
17	0x3de668c1	0.11250449
18	0xbdd642a4	-0.104619294
19	0xbe1f25d2	-0.15541771
20	0x3d291838	0.041282862
21	0xbe0d1c39	-0.13780297
22	0xbc642050	-0.0139237195
23	0x3b9a3e18	0.004707109
24	0x3c64abac	0.013956945
25	0xbd133b37	-0.035945144
26	0xbe1746bb	-0.14773075
27	0xbccf4f59	-0.02530639
28	0xbdc3b436	-0.09555857
29	0xbe0dd93f	-0.13852404
30	0x3d43b56b	0.047780436
31	0x3e25200c	0.16125506
32	0x3cce98cd	0.025219345
33	0xbdc086fe	-0.09400748
34	0x3d285d40	0.041104555
35	0x3de6a0f6	0.112611696
36	0xbd9f4126	-0.07776098
37	0xbdec9b45	-0.11553053
38	0xbdeb9ea0	-0.11504865
39	0x3cb0d0fd	0.021584028
40	0x3d0c22f3	0.034213018
41	0x3daf9988	0.08574206
42	0x3db6e0c2	0.08929588
43	0xbe10a497	-0.14125286
44	0xbde3ca03	-0.11122515
45	0x3d0d308b	0.034470122
46	0x3e200bff	0.15629576
47	0x3ce8c26b	0.028413018
48	0xbd0e0b9f	-0.03467905
49	0xbd47221e	-0.04861652
50	0x3ddbf826	0.1074069
51	0xbe0b1713	-0.13583021
52	0x3d30491a	0.043038465
53	0xbddf0cec	-0.108911365
54	0x3d60b572	0.05486054
55	0xbdc5fb4a	-0.0966707
56	0xbd1eb95a	-0.038750984
57	0xbd155ad9	-0.036463592
58	0x3ddb0ce6	0.106958196
59	0x3de43830	0.111435294
60	0x3de1873c	0.11012122
61	0xbc70cf11	-0.014697806
62	0xbc9478cd	-0.018124009
63	0xbcfff337	-0.031243904
64	0xbe11c2dd	-0.1423449
65	0x3ddb0c4a	0.10695703
66	0x3dc42e1e	0.09579109
67	0xbcc63289	-0.024194019
68	0xbe107093	-0.14105444
69	0xbdf53279	-0.119725175
70	0xbdab0022	-0.08349635
71	0xbdbb6fc0	-0.09152174
72	0xbc0c40e3	-0.008560392
73	0x3d8d75e8	0.069072545
74	0x3c8b768c	0.017024301
75	0x3d556eb2	0.05210752
76	0xbd6a8c5d	-0.057262767
77	0x3d927065	0.07150344
78	0xbd05fda7	-0.032712605
79	0xbd167472	-0.036732145
80	0x3da24119	0.07922573
81	0xbdadb601	-0.0848198
82	0xbddc494e	-0.10756169
83	0x3ca13dcf	0.019682793
84	0xbdab41d8	-0.08362168
85	0xbc83f302	-0.016107086
86	0xbe13a5ef	-0.14418767
87	0xbdf17347	-0.117895655
88	0x3dd44bd1	0.10366023
89	0x3d42950a	0.047505416
90	0x3cca0540	0.024660707
91	0xbd09b91e	-0.033623807
92	0x3da4a269	0.0803879
93	0x3d405162	0.046952613
94	0xbdf49a63	-0.119435094
95	0xbddc8527	-0.10767584
96	0x3c187a57	0.009306512
97	0xbe15b963	-0.146215
98	0x3db178d7	0.086656265
99	0xbe1eef03	-0.15520863
100	0x3c16ff54	0.009216148
101	0xbd975370	-0.07388961
102	0xbb5fa4b1	-0.0034125263
103	0x3d90fd89	0.07079608
104	0x3e2ed5bf	0.17073725
105	0x3de9f05d	0.11422799
106	0x3c177ac2	0.009245576
107	0x39d2dcec	0.0004021892
108	0xbe223e4d	-0.15844078
109	0xbdf345f4	-0.11878577
110	0x3d84cd78	0.064845026
111	0xbdbc9832	-0.092087165
112	0x3d977068	0.07394487
113	0x3e257823	0.1615911
114	0x3e1c136e	0.15241787
115	0x3e004996	0.12528071
116	0xbe2bba0e	-0.16770193
117	0x3dd7fad0	0.105458856
118	0xbe1062ae	-0.14100143
119	0x3d897992	0.06712641
120	0x3d668160	0.056275725
121	0x3e19c353	0.15015917
122	0xbd98b58b	-0.074565016
123	0xbe048cb3	-0.12944297
124	0xbce1b90b	-0.027554056
125	0x3e289342	0.16462424
126	0x3db1a2ec	0.08673653
127	0xbde00257	-0.10937946
128	0x3d887704	0.066633254
129	0x3c7e08b9	0.015505009
130	0x3c802485	0.015642414
131	0x3d8b48d5	0.06801001
132	0x3d80e07c	0.06292817
133	0xbdfd1e5f	-0.123593085
134	0x3dc9ccd0	0.09853518
135	0x3e191d7d	0.14952655
136	0xbcc0fe88	-0.02355887
137	0x3c5b0224	0.01336721
138	0xbd8118a0	-0.06303525
139	0xbc465d25	-0.012107168
140	0xbdbd5363	-0.092444204
141	0xbcd297a0	-0.025707066
142	0xbe1a42aa	-0.15064493
143	0x3dc4622d	0.09589038
144	0xbd92203d	-0.07135055
145	0xbc388135	-0.011261274
146	0x3d87b196	0.06625669
147	0x3dda49d2	0.10658611
148	0xbdf114cc	-0.11771545
149	0x3de9ed2d	0.11422191
150	0x3e11541b	0.1419224
151	0xbd5eb4a3	-0.054371487
152	0x3dac8205	0.08423237
153	0x3d41844e	0.047245316
154	0x3dbcd265	0.09219817
155	0x3dfe7a22	0.12425639
156	0xbe249fa6	-0.16076526
157	0x3cd9ada3	0.026572054
158	0xbe1917eb	-0.1495053
159	0xbd0c0493	-0.03418405
160	0xbbb990c5	-0.00566301
161	0xbcd634bf	-0.026148198
162	0x3deb82fa	0.11499591
163	0x3da7f33f	0.082006924
164	0x3da62c6a	0.0811394
165	0x3a7103ac	0.00091939676
166	0x3c226e92	0.009914057
167	0x3dbb8098	0.09155387
168	0x3cdbac1c	0.026815467
169	0x3cd7dbcf	0.02634993
170	0x3d273197	0.040818777
171	0xbe0253d5	-0.12727292
172	0x3dd5e2d6	0.10443656
173	0x3d36bd87	0.04461434
174	0xbde7e2ac	-0.11322531
175	0xbe232a38	-0.15934074
176	0xbc8335cd	-0.016016865
177	0x3dc5366d	0.096295215
178	0xbde58705	-0.112073936
179	0xbd40e580	-0.04709387
180	0x3e10b9b0	0.14133334
181	0xbe05855d	-0.13039155
182	0x3e26bf8f	0.16284011
183	0xbdbc576a	-0.091963604
184	0x3d8c8f31	0.06863249
185	0x3d9666e8	0.073438466
186	0xbd9bf77d	-0.07615564
187	0xbddd595e	-0.10808061
188	0x3be14ff5	0.0068759867
189	0xbe2b8b4d	-0.16752358
190	0xbdbfff86	-0.09374909
191	0xbd6a28bc	-0.057167754
192	0x3e0ea023	0.13928275
193	0x3df6f640	0.12058687
194	0xbdc37f3f	-0.09545755
195	0x3d32dfc5	0.043670435
196	0xbc756e20	-0.014979869
197	0x3d749ec1	0.059721712
198	0xbe0e1fc6	-0.13879308
199	0x3d9c8a75	0.07643596
200	0x3d7c2a06	0.061563514
201	0xbd821ea6	-0.06353502
202	0x3d4effaf	0.050536808
203	0xbd935d22	-0.07195498
204	0x3e009fef	0.1256101
205	0x3d94b0aa	0.072602585
206	0x3ded6761	0.115919836
207	0x3d2980ed	0.04138272
208	0x3de563ae	0.11200653
209	0xbe0f7105	-0.14007957
210	0xbd95de80	-0.07317829
211	0x3cc55eb8	0.024093017
212	0xbdd44209	-0.10364158
213	0x3dc5999c	0.09648439
214	0x3de7862f	0.1130489
215	0xbde2205a	-0.11041327
216	0xbcdc41c8	-0.026886836
217	0x3e018e3e	0.12651917
218	0xbcb8fd41	-0.022581698
219	0x3ce18bde	0.027532514
220	0xbd82951e	-0.06376098
221	0xbc9bd79a	-0.019023705
222	0xbce32187	-0.027725948
223	0x3de18d5c	0.1101329
224	0xbdc82be8	-0.097739995
225	0x3d8b8da5	0.06814126
226	0x3dd9c172	0.106326
227	0x3dcff190	0.10153496
228	0x3dc7fbfc	0.09764859
229	0x3d4d175a	0.050071098
230	0xbcd30dc1	-0.025763394
231	0x3db1a308	0.08673674
232	0x3d8bf1ed	0.06833253
233	0xbdab0881	-0.08351231
234	0xbe0842b7	-0.133067
235	0x3d7147ea	0.058906473
236	0xbd52d299	-0.051470373
237	0x3e144948	0.1448108
238	0x3cc65f8e	0.024215486
239	0x3e1d0b9e	0.15336463
240	0xbd5bf714	-0.05370243
241	0x3cd1b68f	0.025599746
242	0x3db5c490	0.08875382
243	0xbd20002a	-0.039062656
244	0x3d5eb312	0.054369994
245	0x3debc7d0	0.115127206
246	0xbd3bfa06	-0.045892738
247	0xbdc29c4f	-0.0950247
248	0xbde5e841	-0.112259395
249	0x3da11adf	0.078664534
250	0xbdee1bb3	-0.11626377
251	0x3d3f90d9	0.046768997
252	0x3c9f5d03	0.019453531
253	0x3dc9c955	0.09852854
254	0xbd865276	-0.06558697
255	0xbdf12932	-0.117754355

model.rnn.bias_ih_l0 f4 [160]
0	0xbd97a0aa	-0.07403691
1	0x3e17e14d	0.14832039
2	0xbd170702	-0.036871918
3	0xbc644158	-0.013931595
4	0xbd307e93	-0.04308946
5	0x3e222586	0.15834627
6	0xbdc546e6	-0.096326634
7	0xbd977aae	-0.07396446
8	0xbdd9c54d	-0.10633335
9	0xbdd525b0	-0.10407579
10	0x3d264db4	0.040601447
11	0x3cf6d5b1	0.030131193
12	0xbdebfd10	-0.11522877
13	0xbe0882c1	-0.13331129
14	0xbe0031aa	-0.12518945
15	0xbbb7199e	-0.0055877706
16	0xbd2ba6d5	-0.04190715
17	0xbde76ed5	-0.113004364
18	0xbdc418c5	-0.09575037
19	0xbc721123	-0.0147745935
20	0x3d903dd6	0.07043044
21	0xbd9a2a6e	-0.07527624
22	0xbdb65fdf	-0.08905005
23	0x3e2c9d66	0.16856918
24	0x3cc9064b	0.024539134
25	0xbd950fc5	-0.072783984
26	0xbe0a609b	-0.13513415
27	0x3dec7e9b	0.115475856
28	0xbe0896ac	-0.13338727
29	0x3ce8c3fb	0.028413763
30	0xbd92c3bb	-0.07166239
31	0x3e2a53d0	0.16633534
32	0xbdbe203c	-0.09283492
33	0x3da0119b	0.07815858
34	0x3d8e55a8	0.069499314
35	0xbd7e185a	-0.062034942
36	0x3d6711e5	0.05641355
37	0x3d7e5282	0.062090404
38	0xbc24e2a7	-0.010063804
39	0xbdff7c9a	-0.12474938
40	0xbd85da98	-0.06535834
41	0xbdc64238	-0.09680599
42	0xbd8e355b	-0.069437705
43	0xbd7c5c26	-0.061611317
44	0xbe05aa9a	-0.1305336
45	0xbdf80944	-0.12111142
46	0x3e226242	0.15857795
47	0xbdd9c298	-0.10632819
48	0x3dcd9ccb	0.100396715
49	0xbd19ee22	-0.037580617
50	0xbd984954	-0.07435861
51	0x3de38e82	0.111111656
52	0xbd656992	-0.056008883
53	0x3d95bb68	0.073111355
54	0xbd59702a	-0.053085484
55	0x3c1e9160	0.009678215
56	0x3d1e33bd	0.03862356
57	0x3a3d80a8	0.0007228949
58	0x3d897e6c	0.06713566
59	0x3dbe8c22	0.09304072
60	0x3e1d6138	0.15369117
61	0x3c53ce4c	0.012927603
62	0x3d0c148d	0.034199286
63	0x3e2261fb	0.15857689
64	0xbddaf552	-0.106913224
65	0xbd09b1ff	-0.033617016
66	0x3d90090a	0.07032974
67	0xbdf0f263	-0.117649816
68	0xbd4b1cb9	-0.04958794
69	0x3c441360	0.01196751
70	0x3e196f2c	0.14983815
71	0x3dc9b900	0.09849739
72	0xbd4f67e7	-0.0506362
73	0x3e07f57c	0.13277239
74	0xbd7ff46f	-0.06248897
75	0x3da9907b	0.082795106
76	0xbde1ee12	-0.110317364
77	0x3bde04a1	0.006775454
78	0x3d636047	0.05551174
79	0xbdb60133	-0.088869475
80	0x3cf61e65	0.03004379
81	0xbd693ae1	-0.056940917
82	0x3cd3def9	0.025863158
83	0xbdda9d1d	-0.10674498
84	0x3d2af1ce	0.04173451
85	0xbda6e599	-0.08149261
86	0x3c4580b2	0.012054609
87	0xbe0e8610	-0.13918328
88	0x3dbabc13	0.091179036
89	0xbba8bb06	-0.005149248
90	0x3d46aa50	0.048502266
91	0xbdc9121d	-0.09817908
92	0xbdd775b7	-0.10520499
93	0xbc8e8d8b	-0.017401477
94	0x3c12a437	0.008950285
95	0xbd964259	-0.073368736
96	0xbdb50f52	-0.08840813
97	0xbe01b840	-0.12667942
98	0x3d3229c2	0.043496855
99	0xbe0f8fc6	-0.14019689
100	0x3cbb0337	0.022828681
101	0xbe1eaa91	-0.15494753
102	0xbe13f34a	-0.14448276
103	0x3d68e9a2	0.056863435
104	0xbd12cbb8	-0.035838813
105	0xbde10f40	-0.10989237
106	0xbe171206	-0.14752969
107	0x3e0fd1d4	0.14044887
108	0xbdbbab1e	-0.091634974
109	0xbd21ad3f	-0.03947186
110	0xbdc64afd	-0.09682272
111	0x3e109eb4	0.1412304
112	0x3e108a64	0.14115292
113	0xbd9f7c2c	-0.07787356
114	0x3ca5737c	0.020196669
115	0x3dac8e8e	0.08425628
116	0xbc0ccb4e	-0.0085933935
117	0xbd2bfb3e	-0.04198765
118	0xbdf1e524	-0.11811283
119	0x3da6619a	0.08124085
120	0xbdb2ba98	-0.08726996
121	0x3df8c859	0.12147588
122	0x3e1ecca1	0.15507747
123	0xbdef8511	-0.11695302
124	0xbc51cbba	-0.01280492
125	0xbdc1539e	-0.09439777
126	0xbdfd17cf	-0.12358057
127	0x3e251736	0.16122136
128	0xbd98490d	-0.07435808
129	0xbba45171	-0.0050145914
130	0xbe20186e	-0.15634319
131	0xbbb3966e	-0.005480579
132	0x3e0cf93c	0.1376695
133	0xbe0e0640	-0.13869572
134	0xbe2b9025	-0.16754206
135	0x3dba7cdd	0.09105847
136	0x3d2cface	0.042231373
137	0x3e1fb2e8	0.15595591
138	0xbc7f11a4	-0.015568171
139	0x3e21224b	0.15735738
140	0x3dccd8bc	0.10002276
141	0x3d781978	0.060571164
142	0xbdef1b90	-0.11675179
143	0x3d24ee5e	0.040266387
144	0x3d8959cd	0.06706581
145	0x3e1413af	0.14460634
146	0xbe129bcb	-0.14317243
147	0xbe135434	-0.1438759
148	0xbe0a0f4d	-0.134824
149	0x3deb54fa	0.11490817
150	0x3d81439e	0.06311725
151	0x3e1723fb	0.14759819
152	0xbd1dc17e	-0.038514607
153	0xbd571c15	-0.052517015
154	0xbcd52479	-0.026018368
155	0xbcb8c418	-0.022554442
156	0xbe22952b	-0.15877216
157	0xbdc3183d	-0.095261075
158	0xbd057b23	-0.032588135
159	0xbda0a2d2	-0.078435555

model.rnn.bias_hh_l0 f4 [160]
0	0x3d2620f3	0.040558767
1	0xbd989956	-0.074511215
2	0xbdecec79	-0.11568541
3	0x3e175661	0.14779045
4	0x3d98b346	0.07456069
5	0x3e13651b	0.14394037
6	0xbe19ef2c	-0.15032643
7	0xbdeb46bd	-0.11488102
8	0xbdd6f3a3	-0.10495689
9	0x3e091668	0.13387454
10	0x3d7be450	0.061497033
11	0xbce1ff7e	-0.027587648
12	0xbc2950a0	-0.010334164
13	0xbc452e42	-0.0120349545
14	0xbd96aa64	-0.07356718
15	0x3e168106	0.14697656
16	0x3e1db986	0.15402803
17	0xbd986347	-0.07440811
18	0x3d547773	0.05187173
19	0xbcfb61dc	-0.030686311
20	0x3da91d5c	0.08257553
21	0xbe196afd	-0.14982219
22	0x3e0ba8e8	0.13638651
23	0x3e05457f	0.13014792
24	0xbd55382e	-0.05205553
25	0xbdf0b904	-0.11754039
26	0x3d9d55b7	0.076823644
27	0xbdfa2fa8	-0.12216121
28	0x3dda1594	0.10648647
29	0xbe1158e4	-0.14194065
30	0xbe0c9538	-0.13728797
31	0x3e0505f9	0.1299056
32	0xbd967ca6	-0.073479936
33	0xbdceb6e2	-0.10093476
34	0xbe12a01e	-0.14318892
35	0xbe050f30	-0.12994075
36	0x3d546d46	0.051862024
37	0x3d9d03cf	0.07666742
38	0xbc8aaaf3	-0.016927218
39	0xbb8eadf8	-0.004354235
40	0xbd95e1dd	-0.073184706
41	0x3d5c274d	0.053748418
42	0xbdbc2849	-0.09187371
43	0x3de9841a	0.114021495
44	0xbccf58b8	-0.02531086
45	0xbddb743d	-0.1071553
46	0x3e087e3f	0.13329409
47	0xbcd131dc	-0.02553647
48	0x3dcd498e	0.10023795
49	0xbddb46f4	-0.107068926
50	0x3e00c1b0	0.12573886
51	0x3db7b052	0.08969177
52	0x3d396283	0.045259964
53	0x3daf774f	0.08567678
54	0x3e0af1e0	0.1356883
55	0x3da2d3a1	0.07950521
56	0x3d910a6d	0.07082067
57	0xbdb90ce4	-0.09035662
58	0xbddd0d8c	-0.107935995
59	0xbcb06ead	-0.02153715
60	0x3e191290	0.14948487
61	0x3d8a78a3	0.06761291
62	0x3d69acc4	0.057049528
63	0xbd1823d3	-0.03714354
64	0xbe10ac26	-0.1412817
65	0x3dfed4b9	0.124429174
66	0xbdc101d7	-0.09424179
67	0xbdb5f824	-0.0888522
68	0xbb5cfc94	-0.0033719884
69	0xbd0e3d7c	-0.034726605
70	0x3d808546	0.0627542
71	0xbd4cc177	-0.04998919
72	0x3e073919	0.13205375
73	0xbe1782cc	-0.14795989
74	0xbd0b597c	-0.034020886
75	0xbded7ad7	-0.115956955
76	0xbc48edf6	-0.012263766
77	0x3da1ad36	0.078943655
78	0xbde75523	-0.112955354
79	0xbc6fa8dd	-0.0146276625
80	0xbdf6afe2	-0.12045266
81	0xbdef915a	-0.116976455
82	0x3da328d2	0.0796677
83	0x3d6cebe8	0.057842165
84	0xbd5e058f	-0.05420452
85	0x3ddb72f7	0.10715287
86	0xbe062947	-0.13101684
87	0xbdc5f696	-0.09666173
88	0x3da96701	0.082715996
89	0x3c87f0bc	0.016594283
90	0xbd0b54dc	-0.034016475
91	0xbdc48912	-0.095964566
92	0xbd8419e5	-0.064502515
93	0xbde14a20	-0.11000466
94	0x3e183e17	0.14867435
95	0x3d6c695d	0.05771767
96	0xbe0f0b4b	-0.13969152
97	0xbdce6f12	-0.10079779
98	0x3dbaa6b9	0.09113831
99	0xbd4df90c	-0.050286338
100	0x3e0af5bf	0.13570307
101	0xbe0ef0a9	-0.13958992
102	0xbd3b0b5f	-0.04566514
103	0xbde30a52	-0.11085953
104	0x3deb778b	0.114974104
105	0x3d049a10	0.032373488
106	0xbe0bf902	-0.13669208
107	0xbd32a869	-0.04361764
108	0x3dcb04a1	0.09912992
109	0xbd0c6361	-0.034274463
110	0xbd8e8a5e	-0.06959985
111	0xbd4fbda1	-0.050717954
112	0x3dd2320a	0.102634504
113	0xbd6e97e4	-0.058250323
114	0x3dbf1a9c	0.09331247
115	0x3cda1c96	0.026624959
116	0xbd873be6	-0.066032216
117	0x3dcfb8f2	0.101426974
118	0xbdd9c73a	-0.106337026
119	0x3c9cb471	0.01912901
120	0xbd76bc3c	-0.060238108
121	0xbdbecf08	-0.09316832
122	0xbc65f824	-0.014036212
123	0x3d1dab07	0.038493183
124	0x3dccb616	0.09995668
125	0x3dfebc7f	0.124382965
126	0xbd53ae23	-0.05167974
127	0x3e05e2b7	0.13074766
128	0xbccd5afd	-0.0250678
129	0xbd205d12	-0.03915126
130	0x3de5d5db	0.1122243
131	0xbdae4a63	-0.08510282
132	0x3e213cda	0.1574587
133	0xbda0e8cb	-0.07856902
134	0xbd3511f5	-0.04420658
135	0xbdd5be4e	-0.10436688
136	0xbd983f64	-0.07433966
137	0xbcc10b63	-0.023565
138	0xbdf2a806	-0.11848454
139	0xbd074258	-0.033022255
140	0xbddffd28	-0.109369576
141	0xbd4d3885	-0.05010273
142	0xbd9f0aed	-0.07765756
143	0x3d66eb5e	0.056376807
144	0xbd40938b	-0.047015708
145	0xbd774593	-0.060369086
146	0x3dd11b49	0.10210282
147	0xbd14a678	-0.03629157
148	0x3dc5a533	0.0965065
149	0xbd953726	-0.07285909
150	0xbe06c9c6	-0.13162908
151	0x3e0745ca	0.13210216
152	0xbe0f7e14	-0.14012939
153	0x38ef1b70	0.00011401519
154	0x3e24fd8e	0.16112348
155	0x3e037242	0.12836555
156	0xba963579	-0.0011460028
157	0xbe1f52a6	-0.15558872
158	0xbe07a10c	-0.13245028
159	0xbd9d6e5e	-0.076870665

model.rnn.weight_ih_l1 f4 [160, 40]
0	0xbe16eb6d	-0.14738245
1	0x3e08d3fc	0.13362116
2	0x3e022e74	0.12713033
3	0x3d17ddfd	0.03707694
4	0xbc491412	-0.012272852
5	0xbc6d9b6f	-0.01450239
6	0xbdc48f5d	-0.09597657
7	0xbdf4a4f3	-0.11945524
8	0x3e262f1f	0.16228913
9	0xbdf16df0	-0.11788547
10	0xbd7c10b0	-0.061539352
11	0x3c8e3b05	0.017362127
12	0xbde74103	-0.11291697
13	0xbe0e019c	-0.13867801
14	0x3d809192	0.06277765
15	0xbe135e3d	-0.14391418
16	0x3e09579b	0.13412325
17	0x3dbf8b41	0.093527324
18	0x3dd50015	0.10400406
19	0xbd1ec8ef	-0.038765844
20	0x3e099c1e	0.1343846
21	0x3e006e53	0.12542085
22	0x3d2684ec	0.040654108
23	0x3de730b7	0.112885885
24	0xbd8b2c04	-0.06795505
25	0xbd0e6492	-0.03476388
26	0x3d82ac64	0.06380537
27	0xbe0f160f	-0.13973258
28	0xbe065cf8	-0.13121402
29	0xbdb14a66	-0.086567685
30	0x3da27294	0.0793201
31	0x3d3bfaa8	0.04589334
32	0x3e2802bb	0.16407292
33	0xbcfa17da	-0.030528951
34	0x3da33e3c	0.07970855
35	0x3e244065	0.1604019
36	0xbd52aa1d	-0.051431764
37	0xbcb4060e	-0.021975543
38	0xbc4ffd5d	-0.012694684
39	0xbe02308f	-0.12713836
40	0x3dffaa38	0.124836385
41	0x3d9e0084	0.07714942
42	0xbd601ec3	-0.054716837
43	0xbc50fe38	-0.012755923
44	0x3dfdfcf7	0.12401765
45	0x3d7238e3	0.059136283
46	0x3dad02dc	0.08447811
47	0xbda1ea8b	-0.07906064
48	0x3d33a680	0.04385996
49	0xbc9b8337	-0.018983467
50	0xbe0eed6b	-0.13957755
51	0xbd7566f2	-0.05991263
52	0xbda4403b	-0.080200635
53	0xbe292c39	-0.16520776
54	0x3e1c0027	0.15234433
55	0xbd5a5f42	-0.0533135
56	0x3d95ff89	0.0732413
57	0xbd4b37ec	-0.049613878
58	0xbc26ddb5	-0.010184695
59	0x3e00ce83	0.12578778
60	0x3d9a4f16	0.07534616
61	0xbd55a031	-0.052154724
62	0x3e09c46e	0.13453838
63	0xbc4d469f	-0.012529044
64	0x3dd899a9	0.10576183
65	0xba9010fa	-0.0010991388
66	0xbdeb0894	-0.114762455
67	0x3dbe7b05	0.09300808
68	0x3df54a76	0.11977093
69	0xbe0b46ac	-0.13601178
70	0x3db2892d	0.087175705
71	0x3cc4813c	0.023987405
72	0x3b13f04d	0.002257365
73	0x3dbc7bd9	0.092033096
74	0x3dc6e146	0.09710936
75	0x3dfaa8fe	0.12239264
76	0x3daa58dc	0.0831773
77	0xbd3f0c63	-0.046642672
78	0x3e0907a0	0.13381815
79	0xbc978727	-0.018497063
80	0x3dd2cccb	0.102929674
81	0x3ddfd2f8	0.10928911
82	0x3dbd80f8	0.092531145
83	0xbd98c6f6	-0.07459824
84	0x3e0827c5	0.13296421
85	0xbce10eb7	-0.027472837
86	0xbd93617b	-0.07196327
87	0x3e14955c	0.14510101
88	0xbdd8b061	-0.105805166
89	0xbdb418e4	-0.0879381
90	0xbc678527	-0.014130867
91	0x3e037e3d	0.12841125
92	0x3e089143	0.13336663
93	0xbde3148c	-0.110879034
94	0x3d3b9e36	0.04580518
95	0x3dedf9ea	0.11619933
96	0xbd804453	-0.06263032
97	0xbc3ddf9a	-0.011588955
98	0x3d8455f1	0.064617045
99	0xbe05b1d9	-0.13056125
100	0x3e11f87a	0.14254943
101	0xbe0fa477	-0.14027582
102	0x3de11e40	0.10992098
103	0xbda44c67	-0.08022385
104	0x3da5c030	0.080932975
105	0xbd57aeef	-0.052657064
106	0xbd0425fc	-0.032262787
107	0xbd23b511	-0.0399676
108	0xbdac03a3	-0.08399131
109	0xbd05fa97	-0.032709684
110	0xbcf26de8	-0.029593423
111	0x3dcca5a4	0.09992531
112	0xbdef0e7c	-0.116726846
113	0x3d0f57d0	0.034995854
114	0x3d8946e7	0.06702977
115	0xbdeb65c1	-0.114940174
116	0x3dc71326	0.09720449
117	0xbdb85cee	-0.090021
118	0x3e1ee464	0.15516812
119	0x3d8a151a	0.06742306
120	0x3d3aaac4	0.04557301
121	0xbc266c44	-0.0101576485
122	0xbdab61b8	-0.08368248
123	0xbba1a50e	-0.004933006
124	0xbd916775	-0.07099811
125	0x3dcaaadd	0.09895871
126	0x3db1a5bd	0.0867419
127	0xbe1184f6	-0.14210877
128	0xbd9805de	-0.07422994
129	0xbc41db00	-0.011831999
130	0x3d486ea7	0.04893365
131	0x3d4a85b8	0.04944393
132	0x3ca21bac	0.019788586
133	0x3e129bd5	0.14317258
134	0xbe1a01a4	-0.15039688
135	0xbd0fb703	-0.035086643
136	0x3e0037aa	0.12521234
137	0xbe071a62	-0.13193658
138	0x3e2bb4d6	0.16768202
139	0xbdb8f9e7	-0.0903204
140	0xbd82471c	-0.06361219
141	0xbd69a07d	-0.05703782
142	0xbdd3dda1	-0.10345007
143	0x3dd3824d	0.10327587
144	0xbdab7454	-0.08371797
145	0xbd3a15a4	-0.045430794
146	0x3d60f15e	0.054917686
147	0x3dba8e2d	0.09109149
148	0x3cf83dd8	0.030302927
149	0x3d09cbfd	0.033641804
150	0x3e18abeb	0.14909332
151	0xbdf9c94f	-0.121966
152	0xbd221b3a	-0.039576747
153	0x3dd6130b	0.10452851
154	0x3e064b61	0.13114692
155	0x3d881d83	0.06646254
156	0x3dc5d137	0.09659045
157	0x3dd189ef	0.10231387
158	0x3c3ce120	0.011528283
159	0x3cccedb3	0.025015688
160	0xbd8139f7	-0.06309884
161	0x3dc1bb1c	0.094595164
162	0x3e2396d3	0.15975504
163	0x3d3fa409	0.046787295
164	0xbc821894	-0.01588086
165	0xbd567078	-0.052353352
166	0xbd4783bd	-0.04870962
167	0x3da30b32	0.0796112
168	0xbe2ef84d	-0.17086907
169	0xbca4f69e	-0.020137127
170	0xbd735c12	-0.059413977
171	0x3db14b67	0.0865696
172	0x3d86901a	0.06570454
173	0x3ca9047c	0.020632021
174	0xbe21fe24	-0.15819603
175	0x3cf764d4	0.030199446
176	0x3df7faa8	0.12108356
177	0xbd64c044	-0.05584742
178	0x3c823a9c	0.015897088
179	0x3d1284a3	0.035771023
180	0xbe04f203	-0.12982945
181	0x3d13d38c	0.03609042
182	0x3dee59d1	0.11638225
183	0xbcc84d6d	-0.024450982
184	0xbe0bce99	-0.1365303
185	0x3d739176	0.059464894
186	0xbdd925d2	-0.10602917
187	0xbd2f9ade	-0.042872302
188	0xbd25ef55	-0.040511448
189	0xbda748f0	-0.081682086
190	0xbd0619f0	-0.03273958
191	0x3d75176b	0.059836786
192	0x3cf2c4f9	0.02963494
193	0xbdc32e1b	-0.09530278
194	0x3c9743bf	0.018464921
195	0xbe0a2633	-0.13491134
196	0x3df9a8ae	0.12190376
197	0x3d7444e6	0.05963602
198	0x3d30d16e	0.043168478
199	0xbcf7648e	-0.030199315
200	0x3e1409b1	0.14456822
201	0xbdfcef22	-0.123502985
202	0xbdd4fd55	-0.10399882
203	0x3d7211df	0.059099074
204	0x3d3d2460	0.046177268
205	0x3dcaae85	0.09896568
206	0xbda6640f	-0.081245534
207	0xbd529db8	-0.051419944
208	0xbd694234	-0.0569479
209	0x3e0ee379	0.13953961
210	0x3de0a0fc	0.10968205
211	0x3d6635f1	0.056203786
212	0x3d81057c	0.06299874
213	0xbd8c0924	-0.06837681
214	0x3d7d586e	0.06185191
215	0x3cbeca7f	0.023289917
216	0xbb9f2357	-0.0048565078
217	0x3e0e9ce2	0.13927034
218	0x3d55f276	0.052233182
219	0x3dd523c0	0.104072094
220	0xbd79e491	-0.061008994
221	0x3dcb3724	0.099226266
222	0x3db4e6cd	0.08833084
223	0xbdd2d0fc	-0.10293767
224	0x3d48dad3	0.049036812
225	0x3df896eb	0.1213816
226	0x3d4284f6	0.047490083
227	0x3dd784d2	0.1052338
228	0xbd5decdf	-0.054180976
229	0x3e165e02	0.14684299
230	0xbd59a6af	-0.053137477
231	0x3d5ec8b4	0.054390624
232	0x3dd974e5	0.10617999
233	0x3dc28337	0.094976835
234	0xbe02beca	-0.12768093
235	0x3cbc4717	0.022983117
236	0xbd42a710	-0.047522604
237	0x3d239cf9	0.039944623
238	0xbe12e664	-0.143457
239	0x3db4943b	0.08817335
240	0x3e090946	0.13382444
241	0xbdf4c3d9	-0.119514175
242	0xbd609bab	-0.054835957
243	0x3dfe4ed6	0.124173805
244	0x3db75ed5	0.08953635
245	0x3df17dd1	0.11791576
246	0xbca15101	-0.019691946
247	0x3b9fd18e	0.004877276
248	0xbb1a014c	-0.0023499308
249	0xbddc9b56	-0.107718155
250	0x3df880a7	0.121339135
251	0xbda3df5a	-0.08001585
252	0xbc964651	-0.018344076
253	0xbe0d7402	-0.13813785
254	0x3b06849e	0.0020525823
255	0x3c8207b2	0.01587281

model.rnn.weight_hh_l1 f4 [160, 40]
0	0xbdb41202	-0.08792497
1	0xbc2d1165	-0.010563229
2	0xbb2480c6	-0.002510117
3	0xbe1e20a1	-0.15442134
4	0x3d9b1051	0.075714715
5	0xbcf5c21d	-0.029999787
6	0x3d8b50e9	0.06802542
7	0xbdf8cb8b	-0.12148198
8	0x3d5635e6	0.052297495
9	0x3e0d968a	0.13826957
10	0xbddbb080	-0.10727024
11	0x3d76761f	0.060171243
12	0xbc2344f8	-0.009965174
13	0x3d81bb7b	0.06334587
14	0x3dcd1624	0.100139886
15	0xbe08c9f6	-0.13358292
16	0x3e0ea729	0.13930954
17	0xbd0a17c7	-0.033714082
18	0xbde3de06	-0.11126332
19	0xbdc4cca5	-0.09609345
20	0xbc22971c	-0.009923723
21	0xbe00c85f	-0.12576436
22	0xbdba39ee	-0.090930805
23	0xbdd58586	-0.10425858
24	0x3de8b802	0.11363222
25	0x3d999e61	0.075009115
26	0xbc8fcd0c	-0.017553829
27	0x3dcfc287	0.10144525
28	0xbddf0732	-0.10890044
29	0xbd616798	-0.055030435
30	0x3e1b5a1e	0.15171096
31	0x3da0ec03	0.07857516
32	0x3a5ea758	0.0008493564
33	0x3ddd60ae	0.10809456
34	0xbe1319d3	-0.1436532
35	0x3cad5216	0.021157306
36	0x3da3d745	0.08000044
37	0x3e16ed39	0.14738931
38	0xbdcd7074	-0.10031214
39	0xbe1b6246	-0.15174207
40	0xbe2a9c88	-0.16661274
41	0x3c4d5800	0.012533188
42	0xbdfc0578	-0.123057306
43	0x3d049bd3	0.032375168
44	0xbde63e55	-0.11242358
45	0xbc66f4a8	-0.0140964165
46	0x3ce48d76	0.027899485
47	0x3e12edd9	0.14348544
48	0xbd6921d1	-0.056917015
49	0xbe1600c3	-0.14648728
50	0xbd9f080b	-0.07765206
51	0x3ccc5683	0.024943596
52	0xbdcde6b4	-0.10053769
53	0x3dd17386	0.102271125
54	0xbdee9a3c	-0.116505116
55	0xbd0c97a1	-0.034324292
56	0x3e1fdee8	0.15612376
57	0x3dfc1d01	0.123102196
58	0xbda0f791	-0.078597195
59	0xbd8f95a1	-0.07010961
60	0xbd268312	-0.040652342
61	0xbd534c14	-0.051586226
62	0xbd0bc557	-0.034123745
63	0x3db85b60	0.090018034
64	0x3dab697c	0.08369729
65	0xba96eca2	-0.0011514614
66	0xbcfc2cef	-0.030783145
67	0x3d738011	0.059448306
68	0xbc0edcf5	-0.008719672
69	0xbd9f5b0a	-0.07781036
70	0xbe0c2804	-0.1368714
71	0xbe0e6b58	-0.13908136
72	0xbe14220c	-0.14466113
73	0x3cfaa83f	0.030597804
74	0x3d62fd4f	0.055417355
75	0xbdbd4b92	-0.092429295
76	0xbdaeb158	-0.085299194
77	0xbd25280a	-0.040321387
78	0xbd41ff89	-0.047362838
79	0xbd279c0b	-0.0409203
80	0x3db5dfef	0.088806026
81	0xbd090f72	-0.033461995
82	0xbd8abc86	-0.06774239
83	0x3c392b49	0.011301824
84	0x3cd9d081	0.02658868
85	0x3e0a87bb	0.1352834
86	0x3e11059d	0.14162298
87	0xbc270db2	-0.010196136
88	0xbd90e2d8	-0.07074517
89	0xbd02e582	-0.031957157
90	0xbe14f9a5	-0.14548357
91	0xbe0bc865	-0.13650663
92	0x3d8ca152	0.06866707
93	0x3de6bc08	0.11266333
94	0x3c4e7522	0.012601169
95	0x3d541b9f	0.051784154
96	0x3c5b235c	0.01337513
97	0xbb4c622e	-0.003118645
98	0xbd3ff534	-0.046864703
99	0x3df4ed6d	0.11959348
100	0x3e2ae68b	0.16689508
101	0xbe1f15ac	-0.15535611
102	0xbe20dc67	-0.15709077
103	0x3d6e3bae	0.058162384
104	0x3d40965b	0.04701839
105	0xbdbb9858	-0.09159917
106	0xbceda4fb	-0.029009333
107	0x3d4c9e00	0.049955368
108	0x3d010b75	0.031505067
109	0xba483a90	-0.0007638121
110	0xbd8e6213	-0.069523
111	0xbd84a279	-0.06476302
112	0xbd634a3e	-0.055490725
113	0x3ceba3ec	0.028764687
114	0xbbb0f152	-0.0053998614
115	0x3e0f54bc	0.13997167
116	0xbd6adc5c	-0.057339057
117	0xbd8a2c4d	-0.06746731
118	0xbe0148a7	-0.12625371
119	0x3db3767d	0.08762834
120	0x3de1ceb5	0.11025754
121	0xbd944fce	-0.07241784
122	0x3decfcbd	0.115716435
123	0x3dd4355d	0.10361741
124	0xbdac5a89	-0.08415706
125	0xbe077e73	-0.1323183
126	0x3db2bf4d	0.08727894
127	0xbd994159	-0.07483167
128	0xbe16aabf	-0.14713572
129	0x3db4c386	0.08826356
130	0x3dc78f37	0.09744113
131	0x3dedcba4	0.11611107
132	0x3d81d35f	0.06339144
133	0xbd73434d	-0.059390355
134	0x3db6ecc2	0.08931877
135	0xbe19bca6	-0.1501337
136	0x3d87bf9a	0.06628342
137	0x3d38f9e1	0.045160178
138	0xbdbce587	-0.09223466
139	0x3d841313	0.064489506
140	0xbe167001	-0.14691164
141	0x3d3f5925	0.046715874
142	0x3d7a716c	0.061143324
143	0x3dbaf714	0.09129158
144	0xbd6cc6d6	-0.057806812
145	0xbd96f8c0	-0.07371664
146	0xbc69db60	-0.0142734945
147	0xbdb12078	-0.08648771
148	0xbcbeeab5	-0.023305276
149	0x3e01c82b	0.12674014
150	0x3d069080	0.03285265
151	0xbd381614	-0.04494293
152	0x3d484e8b	0.04890303
153	0x3e10a1d9	0.1412424
154	0xbcadf213	-0.021233594
155	0x3d92be5b	0.07165214
156	0xbe067f14	-0.13134414
157	0x39be80fc	0.00036335725
158	0x3cf74874	0.030185916
159	0xbd9813cb	-0.0742565
160	0xbe289a3d	-0.16465087
161	0x3e1a377d	0.1506023
162	0x3ca87a0e	0.020566013
163	0x3d1c7cb8	0.03820488
164	0xbe232bcb	-0.15934674
165	0x3e08dc04	0.1336518
166	0x3e02f85d	0.12790056
167	0x3e10312a	0.14081255
168	0xbdfcd3c9	-0.12345082
169	0x3e1ec732	0.15505674
170	0x3d5a6311	0.053317133
171	0x3d2c2694	0.04202898
172	0xbba07f9a	-0.004898024
173	0xbdfca246	-0.12335639
174	0xbd820871	-0.06349266
175	0x3d148ff4	0.036270097
176	0x3da71fc5	0.081603564
177	0xbcd20ea0	-0.02564174
178	0xbcb0f61c	-0.02160173
179	0xbdb83810	-0.08995068
180	0x3e0a7c16	0.13523898
181	0x3d9737c8	0.07383686
182	0xbdeda95c	-0.11604568
183	0xbd55331d	-0.0520507
184	0xbdf52e7f	-0.11971759
185	0x3ddfd095	0.10928456
186	0x3d1807a2	0.037116654
187	0x3cb81bf4	0.022474267
188	0xbdd0bd74	-0.10192385
189	0x3ddcf7cf	0.10789453
190	0xbd8be7eb	-0.06831344
191	0xbcd51a62	-0.026013557
192	0x3cd0d410	0.025491744
193	0x3e055630	0.13021159
194	0xbd20f0dc	-0.0392922
195	0x3d2df9f0	0.042474687
196	0xbd0d99b2	-0.034570403
197	0xbe049566	-0.12947616
198	0xbd42e293	-0.04757936
199	0xbe05d0fa	-0.13068
200	0xbe200892	-0.1562827
201	0xbd2efff3	-0.04272456
202	0x3e2badcf	0.16765521
203	0xbe13a48b	-0.14418237
204	0xbd5450d8	-0.05183491
205	0xbe07327c	-0.13202852
206	0xbc02e5c1	-0.007989348
207	0xbe134521	-0.1438184
208	0xbd4270a4	-0.047470704
209	0xbdc22ab9	-0.09480805
210	0x3d7fd19c	0.06245576
211	0x3d5beb7f	0.053691383
212	0xbd96c457	-0.073616676
213	0x3dfd39a0	0.12364507
214	0xbdfb756d	-0.122782566
215	0x3e0eeecf	0.13958286
216	0x3cdf4b76	0.027257662
217	0x3d9fe926	0.078081414
218	0xbd4c3bda	-0.049861766
219	0xbe197f34	-0.1498993
220	0xbd983ea1	-0.074338205
221	0x3d737834	0.059440807
222	0x3a0ebbba	0.00054448436
223	0x3ba990ff	0.0051747556
224	0xbd995262	-0.074864164
225	0xbe1a72b1	-0.15082814
226	0x3e0cf3c0	0.13764858
227	0x3d02d7af	0.031943973
228	0x3ddb477e	0.107069954
229	0x3d6d1490	0.057880938
230	0xbe1cbd35	-0.15306552
231	0xbd0f49e2	-0.03498257
232	0x3cbd900a	0.023139972
233	0x3da99fdb	0.08282443
234	0xbcd93b2e	-0.026517477
235	0xbdebbc67	-0.11510544
236	0xba03e43a	-0.0005031262
237	0xbd7011fe	-0.05861091
238	0x3df380e1	0.11889816
239	0x3db47ae9	0.08812506
240	0xbde63fff	-0.11242675
241	0x3d8868c3	0.06660607
242	0xbd49ddf0	-0.04928392
243	0xbdee0c5d	-0.11623452
244	0xbd9ab104	-0.07553294
245	0x3c6434d4	0.013928611
246	0xbd598aaa	-0.053110756
247	0x3d1db712	0.038504668
248	0xbda409be	-0.08009671
249	0xbe047e39	-0.12938775
250	0xbd400c26	-0.046886586
251	0xbd7fa370	-0.062411726
252	0xbd49c13a	-0.04925654
253	0xbd73468e	-0.059393458
254	0xbd2cc8d2	-0.042183705
255	0x3ac1e675	0.0014793413

model.rnn.bias_ih_l1 f4 [160]
0	0xb927c3e0	-0.0001599933
1	0xbd7a24b7	-0.06107017
2	0xbd5cee30	-0.05393809
3	0x3d13182e	0.03591173
4	0xbcf32a82	-0.029683355
5	0x3e16bb16	0.14719805
6	0x3d7c3072	0.06156964
7	0xbcf81516	-0.030283492
8	0x3dd07543	0.10178616
9	0xbd2da81b	-0.042396646
10	0xb99f46dc	-0.00030379638
11	0xbb74ae76	-0.0037335432
12	0xbd82c420	-0.06385064
13	0x3dd1d6e7	0.102460675
14	0x3d886486	0.06659798
15	0x3d1d8e89	0.03846601
16	0x3ddbd6a1	0.107342966
17	0x3c62a2e5	0.013832782
18	0xbd866bc5	-0.06563524
19	0x3ded74ec	0.11594567
20	0xbd8a3f75	-0.06750385
21	0x3cd4f425	0.025995323
22	0x3e0e75d7	0.1391214
23	0xbd77a026	-0.060455464
24	0xbd098c5d	-0.033581126
25	0x3e143f94	0.14477378
26	0x3e19c27b	0.15015595
27	0xbe0b6fa8	-0.13616812
28	0xbd1c1c44	-0.038112894
29	0xbdd4b3bf	-0.10385846
30	0x3deeea2d	0.11665759
31	0xbd011f6a	-0.0315241
32	0xbda6f7ea	-0.081527546
33	0x3dd4c198	0.103884876
34	0xbe086dc6	-0.13323125
35	0xbe05b17e	-0.13055989
36	0x3be248f5	0.00690567
37	0xbd265287	-0.040606048
38	0xbcca568f	-0.024699477
39	0x3d205a20	0.03914845
40	0xbd9c7fc5	-0.076415576
41	0x3d963cdd	0.073358275
42	0x3e09f611	0.13472773
43	0xbe0a1d62	-0.13487771
44	0x3dd042ca	0.10168989
45	0xbce62146	-0.028092038
46	0xbcee59c7	-0.029095544
47	0xbd53e245	-0.05172946
48	0x3d035e16	0.03207215
49	0xbde92b7b	-0.11385246
50	0xbd0886e1	-0.033331756
51	0x3ce1b510	0.027552158
52	0x3e1ed1a8	0.15509665
53	0xbe267eaa	-0.16259256
54	0xbbaaf982	-0.005217732
55	0x3bca3e7b	0.006171999
56	0xbdb5dddd	-0.08880208
57	0xbdafb703	-0.085798286
58	0xbe108881	-0.14114572
59	0xbd644609	-0.055730853
60	0xbda03bce	-0.07823907
61	0x3df0c525	0.11756352
62	0x3cb3fffb	0.021972647
63	0x3d42dd67	0.047574427
64	0x3de8c224	0.113651544
65	0x3d9afd19	0.07567806
66	0x3cbcfbaf	0.02306923
67	0xbdd3f47d	-0.10349367
68	0xbd859665	-0.06522826
69	0xbc08eef6	-0.008357754
70	0x3b3b75b0	0.0028604083
71	0x3dee2664	0.11628416
72	0xbd290b9e	-0.041270845
73	0x3dac2490	0.08405411
74	0xbe232018	-0.15930212
75	0x3d63b871	0.05559582
76	0x3e1617ad	0.14657469
77	0xbd4ae6d2	-0.049536534
78	0x3e029d95	0.12755425
79	0x3dee8af6	0.116475984
80	0xbba1c126	-0.004936355
81	0x3db6cce0	0.089257956
82	0x3d7869ae	0.06064766
83	0x3dc0f763	0.09422185
84	0xbcd07412	-0.025445972
85	0xbe08f514	-0.1337474
86	0xbd54b0a9	-0.05192629
87	0x3e2353fb	0.15950005
88	0xbcecaa2d	-0.02888974
89	0x3d8df889	0.0693217
90	0xbe11b059	-0.14227428
91	0x3bcb36a3	0.0062015816
92	0x3dccd0f1	0.1000079
93	0x3d0ec395	0.03485449
94	0x3e0cb027	0.13739072
95	0x3bde5f4a	0.0067862617
96	0xbc9390a3	-0.018013304
97	0xbd14836a	-0.03625814
98	0x3e0fa9dc	0.1402964
99	0xbdda8444	-0.10669759
100	0x3dccd0fb	0.10000797
101	0xbdd1b864	-0.10240248
102	0xbdf4a7cd	-0.11946068
103	0x3d90bbb3	0.07067051
104	0x3d6e76b4	0.058218673
105	0xbe133b1b	-0.14378016
106	0x3d2c9818	0.042137235
107	0xbc81e8a8	-0.01585801
108	0xbd8b9c43	-0.06816914
109	0x3c7fbd69	0.015609124
110	0x3dcccd85	0.10000137
111	0x3dd4f8d6	0.10399024
112	0xbd7bb779	-0.06145427
113	0x3cdb5b37	0.026776893
114	0xbd7b09ad	-0.061288524
115	0x3d8b3fa3	0.06799247
116	0xbe26dbbc	-0.1629476
117	0xbd510fa0	-0.05104029
118	0x3d81731d	0.06320784
119	0x3e1cf6c4	0.15328509
120	0xbe053a06	-0.13010415
121	0x3e22bf54	0.15893298
122	0x3e16ff88	0.14745915
123	0x3deaf5b7	0.11472648
124	0x3d68a430	0.056797206
125	0x3e2aa01a	0.16662636
126	0xbc82f7b2	-0.015987251
127	0x3b3b303b	0.0028562683
128	0xbda0bdee	-0.07848726
129	0x3d02485f	0.0318073
130	0x3df514ce	0.11966859
131	0x3de102b0	0.10986841
132	0x3ceb353c	0.028711908
133	0x3e09da6c	0.13462228
134	0xbd00052f	-0.031254943
135	0x3dae4eae	0.08511101
136	0x3dd06f70	0.10177505
137	0xbe17df6e	-0.14831325
138	0x3d82a9d1	0.06380046
139	0x3d9ecb04	0.07753566
140	0x3dd5c113	0.104372166
141	0xbe0d0a50	-0.13773465
142	0xbe027ae3	-0.1274219
143	0xbdc679fe	-0.09691237
144	0xbd911e28	-0.0708583
145	0xbd689ae4	-0.05678834
146	0x3d1e2e90	0.038618624
147	0xbd85c054	-0.06530824
148	0x3d6a88da	0.057259418
149	0xbcd4c3e4	-0.025972314
150	0xbdd1295d	-0.102129675
151	0x3cdfce62	0.02732009
152	0x3dc82661	0.09772945
153	0xbd6a0f2e	-0.057143383
154	0x3d20ea3e	0.03928589
155	0xbd4b02cf	-0.049563225
156	0x3da5f84a	0.08103998
157	0x3d866267	0.065617375
158	0xbd3e81ef	-0.046510633
159	0x3d1da2fa	0.038485505

model.rnn.bias_hh_l1 f4 [160]
0	0x3d6893fd	0.056781758
1	0xbdf89b0a	-0.12138946
2	0x3a71e0d0	0.000922692
3	0xbd886495	-0.066598095
4	0x3e1fa181	0.15588953
5	0x3db501b7	0.08838218
6	0x3e2e042d	0.1699378
7	0x3ce13e18	0.027495429
8	0xbacd3576	-0.0015656191
9	0xbe1041b8	-0.1408757
10	0x3ddf757e	0.10911082
11	0xbde94a86	-0.11391167
12	0xbd90a763	-0.070631765
13	0x3e04bfe5	0.12963827
14	0xbe1446a0	-0.14480066
15	0x3d6e5c65	0.058193583
16	0x3ce0facb	0.027463337
17	0xbb561a61	-0.0032669532
18	0xbdc19909	-0.09453017
19	0xbdb980f6	-0.090578005
20	0x3e29c2e3	0.1657825
21	0x3dcb0bb6	0.09914343
22	0xbddb2456	-0.1070029
23	0xbdfb9c7a	-0.12285705
24	0x3d156b8c	0.036479518
25	0x3cf0a086	0.029373419
26	0x3e13dcc0	0.14439678
27	0x3dd09697	0.10184973
28	0xbcdfb8c8	-0.02730979
29	0xbd8db255	-0.0691878
30	0xbdc18d1e	-0.09450744
31	0xbc5ebc63	-0.01359472
32	0x3e2a9ad1	0.1666062
33	0x3d9796e2	0.074018255
34	0xbe115113	-0.14191084
35	0x3df90fc1	0.12161208
36	0xbe0af36d	-0.13569422
37	0xbe21c285	-0.1579686
38	0x3c8054ae	0.015665378
39	0x3e289296	0.16462168
40	0x3d1d1c64	0.038357154
41	0xbad060a3	-0.0015897941
42	0x3dce48aa	0.10072453
43	0x3e048993	0.12943105
44	0x3e18eb33	0.14933471
45	0x3dccb95d	0.09996293
46	0x3d53155f	0.051534053
47	0xbdbf2f9a	-0.09335251
48	0x3e0265e2	0.12734178
49	0xbe28280d	-0.16421528
50	0x3e1fab84	0.15592772
51	0x3dacbe1c	0.08434698
52	0x3d94dc24	0.07268551
53	0x3d2c773f	0.04210591
54	0xbb9406c9	-0.0045174104
55	0xbd8e5867	-0.06950455
56	0x3c0a97c2	0.008459033
57	0x3d4fc233	0.050722312
58	0xbd8dfc0d	-0.069328405
59	0xbcdc6e2b	-0.026908
60	0xbdbd0113	-0.092287205
61	0xbbee5b3c	-0.0072740596
62	0x3da56104	0.08075145
63	0xbd75a7e8	-0.05997458
64	0xbd9071b3	-0.070529364
65	0xbdf35909	-0.118822165
66	0x3dbd8990	0.092547536
67	0x3d7ee4bb	0.062229853
68	0xbd3c61d5	-0.045991737
69	0xbcad4a9a	-0.021153737
70	0xbd0b5463	-0.034016024
71	0xbd896f9e	-0.067107424
72	0x3de38b72	0.111105815
73	0x3dd20a9e	0.10255931
74	0x3da47bce	0.08031426
75	0x3e03443c	0.12818998
76	0xbced6e6e	-0.028983321
77	0x3d544c03	0.051830303
78	0xbdf63a9a	-0.12022896
79	0x3e168446	0.14698896
80	0xbdf50455	-0.11963717
81	0x3deedf5a	0.11663695
82	0x3e149d95	0.14513238
83	0xbd0fcca2	-0.035107262
84	0x3d9df221	0.07712198
85	0x3d846e18	0.06466311
86	0x3d985f5d	0.07440064
87	0xbcd104d6	-0.025515001
88	0xbdbe96e5	-0.093061246
89	0x3df9f694	0.12205234
90	0x3d24f3e2	0.040271647
91	0x3d914e7b	0.07095047
92	0x3d6fa944	0.058511034
93	0xbdf14a17	-0.1178171
94	0x3d880d9b	0.0664322
95	0x3d1c501c	0.038162336
96	0x3e0d5ec9	0.13805689
97	0x3c8c1f35	0.017104724
98	0x3da02d88	0.078211844
99	0xbcaa240c	-0.020769142
100	0x3e23c349	0.15992464
101	0x3e0a10ec	0.13483018
102	0xbe1e233e	-0.15443131
103	0xbd40aad6	-0.04703792
104	0x3db70f5c	0.089384764
105	0xbe0d5af5	-0.13804229
106	0x3d7991a0	0.060929894
107	0x3dc76cfe	0.097375855
108	0xbdd0e943	-0.10200741
109	0xbd881b15	-0.066457905
110	0x3e05366e	0.13009045
111	0xbe05faf6	-0.13084015
112	0x3dea1b9c	0.11431047
113	0xbd82013d	-0.063478924
114	0x3df6690b	0.12031754
115	0xbd68aba4	-0.056804314
116	0xbe2ceec9	-0.16887964
117	0xbd970fbc	-0.07376048
118	0x3d4e2266	0.050325774
119	0x3c37cfab	0.0112189455
120	0xbaff2bbd	-0.0019467991
121	0xbced5fda	-0.02897637
122	0xbdfd13a0	-0.12357259
123	0xbdd9a07f	-0.10626315
124	0xbd855b73	-0.06511583
125	0x3da4735f	0.08029818
126	0x3e119dd5	0.14220364
127	0x3b0789cb	0.0020681496
128	0xba398d26	-0.00070782227
129	0xbdb52f0d	-0.08846865
130	0x3dfa567e	0.12223528
131	0x3d8b217c	0.06793496
132	0xbc555074	-0.01301967
133	0xbdc2ef96	-0.09518354
134	0xbe1d0a31	-0.15335919
135	0x3e17a4ca	0.14808956
136	0x3e149bff	0.14512633
137	0x3e058613	0.13039427
138	0xbd8c0064	-0.06836012
139	0xbd2cc3d0	-0.04217893
140	0xbdec5349	-0.11539323
141	0xbb310638	-0.0027011763
142	0x3b8af1cc	0.00424025
143	0x3e02fd1c	0.12791866
144	0xbd9cd8c2	-0.07658531
145	0xbcb53b6f	-0.022123067
146	0x3d759557	0.059956875
147	0xbd737279	-0.05943534
148	0x3e0cc4bf	0.13746928
149	0x3e24df6f	0.16100858
150	0xbbcfc230	-0.0063402876
151	0x3d988531	0.07447279
152	0xbd404313	-0.046938967
153	0xbd945f72	-0.07244767
154	0xbdfe1304	-0.12405971
155	0x3d6fc874	0.058540776
156	0x3dc074c7	0.093972735
157	0xbb5a5605	-0.0033315432
158	0x3c0eaef5	0.008708705
159	0x3d94d38c	0.07266912
