practice/AutogluonModels/ag-20231210_072748/models/DeepAR/W0/gluon_ts/prediction-net-state.pt (torch, 108693 bytes, 11 tensors)

model.param_proj.proj.0.weight f4 [1, 40]
00000000: 432a 653e 12a5 8ebe 43b1 cb3e 7f39 c43e
00000010: f151 9ebc 898d b6be 0d2c 9abd 2f53 f53e
00000020: 3294 adbe 3848 6ebe 730d babe bfbc 453e
00000030: b8f3 73be a312 e4be ca68 09bf b4b1 1bbe
00000040: 75f2 97bc 1adc a33e 7d73 3b3e 2de6 c53c
00000050: b365 a43e d85c 8cbd f32b 97be eb46 29be
00000060: 966f a0bd 877c b63c c5c1 93be a814 713e
00000070: 4ae4 763e e3c4 963e 2e9e 9c3e 9d0b 07bf
00000080: 705e 9a3e 74f1 e7be 2371 4cbe 7254 a63e
00000090: 3f2b e1be 3570 123e 2fe1 d9be 3443 aabd
0.22379403 -0.27860314 0.39783677 0.38325116 -0.019326182 -0.35654858 -0.07527933 0.47915027
-0.33902127 -0.23269737 -0.36338386 0.19310282 -0.2382344 -0.4454547 -0.5367552 -0.15204507
-0.01854823 0.32003862 0.18305774 0.024157608 0.3210884 -0.06853646 -0.29525718 -0.1653096
-0.07833783 0.022276176 -0.28858772 0.23543036 0.24110523 0.29447088 0.30589432 -0.52752095
0.30150175 -0.45301402 -0.19965033 0.32486302 -0.43978307 0.14300616 -0.42554614 -0.08313599

model.param_proj.proj.1.weight f4 [1, 40]
00000000: 3014 ccbd 9964 33be e136 7b3d 1ddf 1cbe
00000010: b788 153e 9ff4 30be 923b dbbd a011 27bd
00000020: a8c5 c2bd 1b6b 59bd 1c76 463d f4a3 a83d
00000030: 584c cc3d 2afc 2d3e 3643 c43d 3261 a83c
00000040: 2fd1 0e3e 366b 203e 2990 383e 1017 243e
00000050: f0a7 cb3d b32d 15be e804 7f3d 398a 4abe
00000060: 54ae 243e 38ad 4e3e 7b24 0abe 4e37 473e
00000070: 2faa 333e dd09 2d3e 74b2 41bd 7535 62bd
00000080: 5d7f d5bd 35f1 23bd 81be 883c 9e6b 423e
00000090: bcf3 84bd c435 1a3e 508b dabd 9d94 43be
-0.09964788 -0.17518844 0.061331633 -0.15319486 0.14602934 -0.17280816 -0.107047215 -0.040788293
-0.09510356 -0.05308066 0.04845248 0.082343966 0.09975499 0.16990724 0.09583132 0.020554159
0.13946985 0.15665898 0.18023743 0.16024423 0.09944141 -0.14568214 0.06226054 -0.1977929
0.16082126 0.20183265 -0.13490479 0.19454691 0.17545389 0.16898294 -0.047289327 -0.05522676
-0.10424683 -0.040024955 0.016692402 0.18986365 -0.06491801 0.15059572 -0.10671103 -0.1909966

model.param_proj.proj.2.weight f4 [1, 40]
00000000: 639c 35be 0bab 093e a07e 90be 3895 26be
00000010: e167 3f3d b0fe a9bd d6c0 bebd 9940 51be
00000020: f42d b73d dc85 f73d 423d 0b3e bfc8 c1bc
00000030: c440 413e 93e1 753d 2631 643e 0b86 1b3e
00000040: 31b8 653d 8bee 32be 1eb7 08be 4d7e 103e
00000050: 79ef 86bd bb08 ae3d ee7b 863e ebfe 583c
00000060: 52a9 f93c 2b20 043e 63d0 6a3e fa4c 96bd
00000070: 2eae 7dbd e9e1 f5bc 9795 4abe fb7e aa3d
00000080: d9ee f7bd e6ed 3f3e c539 8c3e 24c5 84bd
00000090: 4eaa 7c3d d640 cebd 6350 bc3d a2bb 99bd
-0.17735438 0.13444154 -0.28221607 -0.1626786 0.046729926 -0.08300531 -0.09314124 -0.20434798
0.08944312 0.120860785 0.13597587 -0.023655294 0.18872362 0.060029577 0.22284374 0.15187852
0.05608386 -0.1747381 -0.13351104 0.1411068 -0.065886445 0.08497759 0.26266426 0.013244371
0.030476246 0.12902896 0.22931056 -0.07338901 -0.06193369 -0.030014949 -0.19783626 0.08325001
-0.121061035 0.18743095 0.27387825 -0.06482914 0.061685853 -0.1007096 0.0919502 -0.07506491

model.rnn.weight_ih_l0 f4 [160, 37]
00000000: dbd9 043d 3320 7b3e ea4b 133d 5b27 283d
00000010: a97e be3d 361d 20bd c686 cb3d c742 923d
00000020: a134 d83d 983f 4a3e ec20 e43b 1ac4 bb3c
00000030: 16a0 bebc 05f0 6abd 6a0d 723e d9e0 173e
00000040: faf9 c53d 4437 eb3d 689d 413e d96d 6a3e
00000050: 91ac aa3c 22f1 813c 6f71 10bd 2a84 ab3d
00000060: 47eb b2bc 925f bf3c 8b42 673d d005 81bc
00000070: c625 d43c f72c 6cbd 9f70 733d e082 963d
00000080: 6ed7 0b3e 7dc6 923d 8ce5 a13d c9d6 ffbd
00000090: f8dd 4f3e 332c 91bb 5e71 6ebd a62d 9bbc
000000a0: abb4 4f3e fe97 18bd e764 823d ab10 23bc
000000b0: f29b ce3b 225e fd3d 2487 5e3d 9224 2bbc
000000c0: 4fa9 92bd 62cd 213e 187f 1f3e c396 9b3d
000000d0: 075e a5bd a364 b33c 695f 423e ff66 bb3d
000000e0: bf5c 28bd 68d5 ce3d 90b8 aabe 12e9 42be
000000f0: e142 d1bd a5e7 ac3d 789f ac3d 9ac6 573d
00000100: c7b5 563d fddf bdbc 34ee 32bd 6ea8 8d3d
00000110: 6241 12bc 086f ab3c a0f8 8dbe 05b0 85be
00000120: 6f99 933e dcf4 9cbd 7015 7b3e 0f9c 993e
00000130: 9472 dd3d 8f02 7b3e a70b 2c3e 42a5 0abd
00000140: d4b7 0ebd 3973 8f3d cc7c 6abb 92de 0a3e
00000150: 893c 5e3e e530 0abd a461 163e dbe0 bebd
00000160: 843a ba3d f79d 83bd 91d9 dcbd e165 e7bd
00000170: 41de dcbd 1653 0dbe 8e24 733b 5a38 4d3e
00000180: 05e0 513e 2e0e ef3d 4acc 9cbd 6b52 1abd
00000190: b4d1 fe3c a58d 9c3d f0e5 4ebd afa7 563d
000001a0: b568 023a 59c4 9ebb 942f 423d febe bf3d
000001b0: 0c63 a5bd 4931 a1be 3e30 093e 2c90 92bd
000001c0: 5e6f 65bd 6ebc 0dbd 080b a03d 7afd 573d
000001d0: 2f0c 5fbd f1aa c83d 8209 fbbd c0bc c2bd
000001e0: 4954 263e 3330 0b3e 3a90 513d 52a8 72bd
000001f0: dac3 fd3c c902 9cbd 7b92 663e b013 e63d
00000200: e812 b13c 1773 813e c6e1 5b3e f8f7 433e
00000210: 1d04 213e 1308 61be 2fa9 99be bd67 ad3d
00000220: b63b 1e3d 5a1b e1bc 0375 953d 8b21 ee3c
00000230: 130a 8f3d 8b33 9d3d 3903 79bd c959 743d
00000240: 1de4 92be 0b89 8d3e 61bf 043e 315a e53d
00000250: e83d 4f3d f4ce b13d 1cc4 5b3d d7a5 84bd
00000260: 308d 0e3e 00bd 313e c9e5 9b3d 039e 193d
00000270: 553e b03d ad88 03be 59f3 d8bd 092f 74bd
00000280: 9f39 acbd 01cc 1a3e 7ba7 933b 6742 c83d
00000290: 3774 87bc ed3a f83c 1da5 c73c f3e3 dbbd
000002a0: 0c53 05bc c242 48be 9317 b13d 0a88 a83d
000002b0: 4756 bbbc 39ec 103d 7026 a83c 176f 3fbd
000002c0: 1a72 ee3c d593 063d 86ae ef3d 2655 943d
000002d0: e704 aebd b803 923e bc5f 073e 47ba 083e
000002e0: aaa6 d93d 534a 9bbd 2cf0 683c 3e9b 45bd
000002f0: 1142 603e ee6c 42bb 7bdb e53d ac61 153e
00000300: b6d3 20bd c041 bd3d 13fd 24bd 8bbd 043e
00000310: 3620 eb3d f9fa 99bd 546d 97bd 9a3d b6bd
00000320: d86e 95bc be4d 003e 9719 c73d 3169 55bd
00000330: 6096 33bd 81cb 2e3e ed84 0c3e 19f5 c1bd
00000340: fbf3 1bbe e8db ce3c 74e0 3f3c 59a5 d2bc
00000350: 40e0 13bb 92f6 c5bc 2cc7 debb 340d 2fbd
00000360: c122 6a3d 6e15 cc3d dd21 05be 3385 bc3e
00000370: f5b0 a03d 9f17 0d3e 74cc ccbc ff93 86bd
00000380: 56a5 a83c 81eb 093d aed4 84bb a77a 4ebd
00000390: c549 ad3c f8b4 8d3d 918e 5dbc 7226 ebbd
000003a0: 4d35 d53c 352e 48bd 64fa 2a3e 51fc 7fbd
000003b0: 4109 fbbd 1d40 fc3d a58e d0bd 0d31 08be
000003c0: 11b4 393d f1c9 b1bc a7d8 5f3c 4ab5 5c3e
000003d0: 0da9 97bc c23c 97bd ad87 133d dad5 38bd
000003e0: 057b 1b3c fc10 433d d3a3 a43c 19b7 e4bc
000003f0: c59e 3a3e e853 9bbd 13a2 643d bf11 8f3e
0.032434326 0.24524002 0.03596107 0.041053157 0.09301502 -0.039090358 0.09937815 0.07141643
0.10556913 0.19750822 0.0069619324 0.022920657 -0.023269694 -0.057357807 0.2363793 0.14831866
0.0966682 0.114851505 0.18907702 0.22893466 0.02083424 0.015862051 -0.03526443 0.08374818
-0.021840705 0.023361001 0.056459945 -0.015749842 0.025896918 -0.05766007 0.059433576 0.07349181
0.13656399 0.07166765 0.07905111 -0.12492139 0.20299518 -0.004430318 -0.058213584 -0.018942665
0.20283763 -0.037254326 0.06366902 -0.009952704 0.006305211 0.1237147 0.0543281 -0.010445731
-0.07161199 0.15801004 0.15575826 0.07597115 -0.08074575 0.021898573 0.18981709 0.09150504
-0.041104075 0.10099298 -0.33343935 -0.19034222 -0.10217834 0.0844262 0.08428854 0.052679636
0.05241945 -0.023178095 -0.0436842 0.06916891 -0.008926721 0.020926967 -0.27728748 -0.26110855
0.28827998 -0.07663891 0.24519897 0.30001876 0.1081287 0.24512695 0.1680132 -0.03384901
-0.03484328 0.07004399 -0.003577995 0.13561466 0.2170278 -0.033738036 0.14685684 -0.093202315
0.09093192 -0.06426614 -0.10783685 -0.11298729 -0.10784579 -0.13801226 0.0037100646 0.20041028
0.20495613 0.116726264 -0.076561525 -0.037676256 0.031105854 0.07644204 -0.050512254 0.05240601
0.0004974709 -0.004845184 0.047408655 0.09362601 -0.08075532 -0.31482914 0.13397309 -0.07156405
-0.05601441 -0.03460353 0.07814604 0.05273197 -0.05445498 0.097982295 -0.12257673 -0.095086575
0.1624309 0.13592605 0.051162936 -0.059242554 0.030977178 -0.07617719 0.22516815 0.11234224
0.02161546 0.2528312 0.21472844 0.19137561 0.15724225 -0.21975736 -0.3001189 0.08467052
0.038631164 -0.027478863 0.07297709 0.029068729 0.069843434 0.07675847 -0.06079409 0.05965594
-0.28689662 0.27643618 0.1296363 0.11198843 0.050596148 0.08682051 0.05365382 -0.06476944
0.13921046 0.17357254 0.076121874 0.037504207 0.08605639 -0.12845106 -0.1059329 -0.05961517
-0.08409428 0.15116884 0.004506049 0.0977829 -0.016534908 0.030301536 0.024370724 -0.10736837
-0.008137476 -0.19556716 0.086470746 0.082290724 -0.022868289 0.03538153 0.02052614 -0.046736803
0.029107142 0.032855827 0.117032096 0.07242803 -0.08497029 0.28518462 0.13220114 0.13352309
0.10627492 -0.075825356 0.014217418 -0.048243754 0.21900202 -0.0029666978 0.11223503 0.1458804
-0.039264403 0.092410564 -0.040280413 0.1296293 0.11480753 -0.07518572 -0.073938996 -0.08898468
-0.018241331 0.12529656 0.09721678 -0.05210227 -0.04384458 0.17069818 0.13722582 -0.09470577
-0.1522979 0.025251344 0.011711229 -0.02571361 -0.0022564083 -0.024165425 -0.0067986455 -0.0427372
0.05716205 0.09965025 -0.13001199 0.36820373 0.07846252 0.13778542 -0.024999835 -0.06571197
0.02058665 0.03367186 -0.0040536737 -0.05040994 0.02115334 0.06919283 -0.01352276 -0.11481942
0.026026392 -0.04887219 0.16697079 -0.062496487 -0.122576244 0.12316916 -0.10183457 -0.13299961
0.04533774 -0.021702738 0.013662494 0.21553531 -0.018513227 -0.073846355 0.036018062 -0.04512582
0.009489779 0.04762362 0.020097649 -0.027919339 0.18224628 -0.07584363 0.05581863 0.27943227

model.rnn.weight_hh_l0 f4 [160, 40]
00000000: a853 183e 848d 61bd 7dc0 b5bd 794e 21be
00000010: 98f5 973d e000 343d de3f 2f3d 4767 c2bd
00000020: 7b8b 47be e262 fe3d 65a4 86be 36ef e6bc
00000030: 25fe 29be a7cf 00be 9173 4b3e 3bcf 4dbe
00000040: fefc 8abe d323 1c3e f1cc 1dbe 7847 813c
00000050: 6d48 3cbd c186 0a3c cb89 393e f02f c5be
00000060: bc84 77be 25c5 26bd f066 e83d 5018 0f3c
00000070: 47af 943e bbb7 753d 958e 59be 304d 993d
00000080: a477 8d3d cc16 11be 4b11 e23c 1d61 a4bd
00000090: 6378 6c3e 7b25 cbbd 149e 91bd 50e1 bbbd
000000a0: aeb8 4a3e 06c2 c53d 33f0 1d3d f4df bfbd
000000b0: 0c08 bb3d 855b b3bc a09b 07be f3e1 47be
000000c0: d0d7 2b3d c359 4f3e 5e77 19be 724f fbbc
000000d0: c28f a83c 6b60 47be 0128 0b3c 39cb 05be
000000e0: 0ad5 91bd 0dae 503e 66df d7bc 7e21 02bc
000000f0: f6ba 2b3d b970 2e3d dfdb afbd 33eb 59be
00000100: 1562 1cbd 3dc3 b6bd b89b acbc f786 cb3d
00000110: 3786 b0bd ce96 c3bc 18a9 3b3d 7564 233c
00000120: 10a0 093e 7151 df3d e4c6 8b3c 4d34 a9bd
00000130: 74fc 813d 216a 97bc 4f98 023e aaec 24be
00000140: ea7a 5d3d aa69 a43d 4e7a 09bc cabe 033d
00000150: e6a6 91bd e9ab 1e3c 76eb d83c e2f9 66bc
00000160: dc00 a7bd 23d7 8c3d d218 8cbd 48cb 10bd
00000170: f3aa b4bd ce99 6cbd aec6 333e fd53 673d
00000180: 6872 e7bd 8823 2e3d 9ac0 8ebc 516a 26be
00000190: fef6 133e 686a d2bd cbe8 eb3d c547 68be
000001a0: 35ff 08bd 57cd 0bbe 2d6f 143e 849e e5bc
000001b0: 75e7 1b3e 6fcd 19be 2fea 83bd a8c7 b5bd
000001c0: 6de1 d3bd 4516 fb3d 5407 b2bd 600b 4c3d
000001d0: 901e 553e c11d c63d 1f28 c83b 35a1 1ebd
000001e0: 7d7a b53e 9fc7 d23c d6f7 ff3d 5986 afbb
000001f0: 5b34 28be 97eb 043e b717 033e c189 2fbc
00000200: 3638 f5bc d9b7 56bd 3b4f d73c 90d4 863d
00000210: d780 90be e2cd 4cbe 1905 423e 3619 15be
00000220: 35d1 fa3c 7d26 cb3d 23df 5ebe 5acc ddbd
00000230: 79e3 91bd 9632 98be 1688 443e bddd aabd
00000240: f034 d4bd d65c 033e 93b9 193e 07b5 d63c
00000250: bb00 c73d f6f7 983d 0c20 a3be 8b70 1abe
00000260: 5144 2cbd 53b3 d23b e796 983e fc06 1dbd
00000270: 6a45 673d 2523 723e 89f2 9f3c 34db 53bd
00000280: f5ef e9bd d4ce e73c 7328 8ebd af4a 143e
00000290: 7145 79bd 57c3 7abd ecb7 15be 77e1 62be
000002a0: 07b3 2d3e c175 1dbe 2b78 e1bd 52d8 b93d
000002b0: 4d26 7fbd 5217 bebd 92d7 dabd 90cd 79be
000002c0: 39c6 093e 8e26 25bd 740f 033e 4659 b83d
000002d0: 6959 803c 98a9 a5bd fd46 013d 3cf5 89be
000002e0: b193 8cbd 7c4f 293d 23a7 13bd aed2 85bd
000002f0: b55e acbc d53d 1ebe d335 1abc 4554 e4bd
00000300: b611 8b3d dd26 b23d af48 ccbb 8367 093e
00000310: ba42 58be 399c 243d f551 adbd 3d77 6c3d
00000320: 43cc 0dbe d78d 6d3c 9f8b 35be 570c bfbd
00000330: b98e c43c 3fed 273e e630 60bc 65f7 41be
00000340: 3e80 283e 9357 4cbc 7550 99bd e93f 313e
00000350: 32f5 babd 6593 263d 8efd 203e a8e9 a1bb
00000360: a59e afbd cf6b d7bd 1c18 463d 5c35 3abd
00000370: d616 33be f809 12be 0ce2 243d 4e6e 8a3d
00000380: 6ab3 523d 3bda 8e3d 6d7d 123e 2df1 893d
00000390: 4fc4 febc e31a 3ebe 0414 003d fd4c fa3d
000003a0: fe9e 2bbd 8bf3 56bd 0143 1cbe cb16 b2bc
000003b0: dd5f 2a3e ba97 183d 086b eebd 4ad1 2bbd
000003c0: b649 3f3d 4cff 833c 9342 003e b7e3 82bc
000003d0: de44 ebbd 8fb3 433d 0503 8d3c 48c1 37bc
000003e0: fb5c c2bc e5a7 f4bd e351 cbbd fc28 0fbe
000003f0: 9379 993c 2731 bc3d f8fe c23c 4981 073d
0.14875662 -0.0550666 -0.08874605 -0.15752591 0.0741989 0.043946147 0.042785518 -0.09492355
-0.19486801 0.12421204 -0.26297298 -0.028190237 -0.16600855 -0.12579213 0.19868304 -0.20098583
-0.27146143 0.15248041 -0.1541021 0.01578115 -0.045967508 0.008454979 0.1811897 -0.38513136
-0.24171728 -0.040715355 0.11347759 0.008733824 0.29039976 0.059989672 -0.21245797 0.074854255
0.06907585 -0.14168853 0.027596137 -0.080263354 0.23092799 -0.09919258 -0.07110229 -0.09173834
0.19797012 0.09656148 0.03855915 -0.093688875 0.09132394 -0.021894226 -0.1324296 -0.19519787
0.04195386 0.20249085 -0.14986941 -0.03067753 0.020576362 -0.19470374 0.008493424 -0.13065805
-0.07120712 0.20378895 -0.026351642 -0.0079425555 0.041926347 0.04258797 -0.08586859 -0.21281128
-0.038179476 -0.089239575 -0.021070346 0.09937852 -0.086193494 -0.02387562 0.045815557 0.009972681
0.13439965 0.109042056 0.017062612 -0.08261929 0.0634698 -0.018483223 0.12753414 -0.16105905
0.054072298 0.08027966 -0.008390976 0.032164373 -0.071119115 0.009684541 0.026479464 -0.014097663
-0.08154461 0.068769716 -0.068406716 -0.035350114 -0.088216685 -0.057763867 0.17556259 0.05647658
-0.11301118 0.042514354 -0.017425824 -0.16251494 0.14449689 -0.10274202 0.11519011 -0.22683628
-0.03344651 -0.1365255 0.14495535 -0.028029688 0.15225013 -0.15019773 -0.06441151 -0.08875972
-0.10345731 0.12260107 -0.08692804 0.049815536 0.2081244 0.09673644 0.0061082984 -0.038727958
0.35445014 0.025729952 0.12498443 -0.0053565917 -0.16426222 0.12980495 0.12802015 -0.010713995
-0.02993403 -0.052421425 0.026282897 0.06583512 -0.28223297 -0.20000413 0.18947257 -0.14560398
0.030617336 0.099194504 -0.21764807 -0.108299926 -0.07123465 -0.29726094 0.19192538 -0.083430745
-0.103616595 0.12828383 0.15012197 0.026209367 0.09716936 0.0746917 -0.31860387 -0.15081994
-0.04205734 0.0064300685 0.2980263 -0.03833674 0.056462683 0.23646219 0.01952483 -0.05172272
-0.11422721 0.028296866 -0.06941309 0.14481615 -0.06085724 -0.061221447 -0.14620942 -0.2215632
0.16962825 -0.15376951 -0.11009248 0.09074463 -0.062292386 -0.09281792 -0.10685648 -0.24394822
0.13454522 -0.04031997 0.12798864 0.090014026 0.015667634 -0.08088988 0.03156184 -0.2694491
-0.068641074 0.041335568 -0.036048066 -0.065343246 -0.021041254 -0.15453275 -0.009412247 -0.11148886
0.067904875 0.08698819 -0.0062342505 0.13418393 -0.21119204 0.040188048 -0.08462898 0.057730902
-0.13847451 0.014499149 -0.17729042 -0.093285255 0.023993837 0.16399096 -0.013683533 -0.1894203
0.1645517 -0.012472051 -0.07486049 0.17309536 -0.091287985 0.04066791 0.15721723 -0.004941184
-0.08575181 -0.1051861 0.048362836 -0.045461044 -0.1748918 -0.14261615 0.040254638 0.0675932
0.051440634 0.06975218 0.14305659 0.06735454 -0.031099467 -0.18564944 0.03126909 0.122217156
-0.041899674 -0.052478354 -0.15259935 -0.021739384 0.16638131 0.037254073 -0.11641508 -0.04194764
0.046701156 0.016112946 0.12525396 -0.015977724 -0.11487745 0.047778662 0.017213354 -0.011215515
-0.023725977 -0.11946086 -0.09927728 -0.13980478 0.018734729 0.091890626 0.02380322 0.03308228

model.rnn.bias_ih_l0 f4 [160]
00000000: a977 1f3e 9112 1c3e 4c43 14bd d807 c0bd
00000010: 3c73 2dbd a63c ccbd 1003 e1bd 80bd 80bd
00000020: 0d82 66bd c312 4c3d f020 153e 6d32 263e
00000030: 7ee0 a8bd 0f31 2b3b 1171 7f3e abdb b4bd
00000040: 8952 623e b6c3 e3bd cab7 ef3d ea10 05bd
00000050: 7c9b 33bd ab47 c73c b93e 693d cbac 3d3e
00000060: 6a03 f33c 64b7 b6bc 8f26 16be 6cfd 5e3d
00000070: 03ef c53d dca4 2d3e fea3 db3d b6f4 9fbd
00000080: 706d bf3d ee43 0c3e 242c a9bd 53f4 af3d
00000090: d202 b23d 8614 f5bc 0175 393e ceec ebbd
000000a0: b4d3 fe3d 728c f93d bdda 623c d0e6 e93d
000000b0: 7182 863d d3ac c8bd 64d3 31bd 972d 2bbd
000000c0: ac3d 003e 26c2 c6bd 6e74 a73c 1689 adbd
000000d0: 863a 0c3e 7cad 833d 69e4 0e3e bfd2 af3d
000000e0: 7322 123d d689 aabd b147 323d b06b 18bd
000000f0: 6af7 ffbc 4881 283d a593 1a3e b3e8 053e
00000100: acfd 86bd 4b14 d33c 4e6b 11be 5e3a d2bd
00000110: 0cd6 a7bd 8116 9abc 3bb8 7cbd 785e 1c3e
00000120: 3e78 ea3d e8f8 d0bc 799a 2fbb 18bf ae3d
00000130: 1c8b 253e b7d6 ef3d 93fa a1bc d449 5abd
00000140: 282c b93c d5fd 073e df27 b9bd 76fa d5bd
00000150: cd1d 01be c76f 51bd 2412 c1bd 4779 5dbd
00000160: 2a6e 01be 357f d13d f808 30bc b499 8dbd
00000170: 2770 933d f1d6 8fbd b24b a3bd 1409 13ba
00000180: a92e c7bd d5d9 29bd 019f 53bc 2eff b63d
00000190: 899c a7bc e1f8 24be 0494 483d 3107 3cbd
000001a0: 7e87 60bc b7d6 d5bd 61ca 483d a277 c539
000001b0: b774 66bc 1680 163e 4545 d4bd 4419 cd3c
000001c0: 84b2 1dbe e2de efbd d1a3 a9bd ceea 5b3d
000001d0: a0f9 a23c 3a06 7cbb 76c3 22bd 890c c23d
000001e0: 0b3a 06be ffe2 303e 5ce5 43bd 6eee 633e
000001f0: 916b 2c3e cbf0 41bd bd61 cbbd a548 88bd
00000200: bfa1 d63c 9c5f 183e 9b0d 403e 617a 0a3e
00000210: 6d9f b1bd b8a7 003d 1036 e8bc 48be 1a3e
00000220: b3b2 123e 7522 cc3d 7aec fbbd c465 a4bc
00000230: de49 903d 73e1 4e3e 8c53 ffbd 457c 523e
00000240: a2e6 14bd 5f9c 243e 3ae3 ecbd 204d fb3d
00000250: 8f82 363d a056 a63c f7a1 f4bd 9c88 173d
00000260: dbb1 69bc e306 18bd 09d1 173e 79d8 f33d
00000270: 89b4 c73d b0db 0bbe a226 debd 1e72 f5bc
0.1557299 0.15241458 -0.03619699 -0.09376496 -0.042346224 -0.09972505 -0.10986912 -0.06286144
-0.05627637 0.04982258 0.14563346 0.16230173 -0.082459435 0.002612177 0.24945475 -0.08830961
0.22101797 -0.11121313 0.11704977 -0.032486834 -0.043849453 0.024326166 0.056944583 0.18522947
0.029664714 -0.022304244 -0.14663146 0.0544409 0.096647285 0.1695742 0.107246384 -0.07810347
0.093470454 0.13697788 -0.08260372 0.08591523 0.08691944 -0.029917013 0.1811104 -0.11519776
0.12442723 0.12184991 0.013846097 0.11420977 0.065678485 -0.097985886 -0.04341449 -0.041791525
0.12523526 -0.097049996 0.02044126 -0.08473413 0.136942 0.06429574 0.13954319 0.085851185
0.035677385 -0.08327071 0.0435254 -0.037212074 -0.031245906 0.041138917 0.15095384 0.13077049
-0.06591353 0.025766512 -0.1420109 -0.10265039 -0.08195123 -0.018809559 -0.061699133 0.15270412
0.114487156 -0.025509313 -0.0026794954 0.08532542 0.16166347 0.117108755 -0.019772803 -0.053293064
0.022604063 0.13280423 -0.09040808 -0.10448162 -0.12609024 -0.05113199 -0.09427288 -0.054070737
-0.1263968 0.10229341 -0.010744326 -0.06914082 0.07199126 -0.07023419 -0.07973422 -0.0005608958
-0.097256966 -0.041467506 -0.012916327 0.089353904 -0.020460384 -0.16110565 0.048969284 -0.045905296
-0.013704179 -0.10441344 0.04902113 0.00037663901 -0.014065913 0.14697298 -0.103647746 0.025036462
-0.1540013 -0.117124334 -0.082831986 0.053690724 0.019894421 -0.003845586 -0.039737187 0.09475047
-0.13108079 0.17274092 -0.047826156 0.22258922 0.16837908 -0.04734878 -0.099307515 -0.06654481
0.026200173 0.14880222 0.1875519 0.13523246 -0.08672986 0.03140995 -0.028346092 0.15111649
0.14325981 0.0996751 -0.12300964 -0.020068057 0.07045339 0.2020319 -0.12467107 0.20555218
-0.03635276 0.16075276 -0.115667775 0.1227057 0.044558104 0.020304978 -0.11944955 0.036995515
-0.014263595 -0.037115943 0.14825834 0.11906523 0.09751231 -0.13658023 -0.108472124 -0.029961642

model.rnn.bias_hh_l0 f4 [160]
00000000: 1494 483e 4391 cb3d eafe 1a3e 643e 0b3e
00000010: ad05 a23d 9091 7d3c 6e71 2b3e 978b edbc
00000020: addf f93d 8640 d73d 76c0 023c 7d54 3bbd
00000030: 600f d93c 66fe bdbd 1234 cc3c 136c d13d
00000040: 2bb2 6abd 34b5 03be e124 b8bd 22f5 b23c
00000050: fc89 84bd 5407 d63d 0f33 d03c de0f 0dbd
00000060: 0ba3 3dbd b0a7 a2bd 8687 9e3d 5cf9 033c
00000070: 99dd dcbd d384 ccbd 7f6e 5f3d 3cff d13d
00000080: b44f ee3d ad81 543c 90d7 37bc 40c9 813b
00000090: a9df 033e a633 91bd 5b9f 4d3e d565 35bc
000000a0: fd17 eb3d 94ff ef3d 77cb 1a3e 4f03 863d
000000b0: c3e0 21bd 90cf 94bd e5c3 d93d 1f60 643d
000000c0: 54d6 20be eeeb 04be 6abf da3c e5dc a43c
000000d0: e0c6 b4bc dea1 d9bd 57f6 063e c93d d7bd
000000e0: 988d a5bd 69f4 203e a981 6e3c 90b6 37bc
000000f0: b9ec 7c3d 242c cf3d 8b01 8c3a 2961 923c
00000100: f32b 48bd 0500 1a3e 1e07 e6bd b5d4 dd3c
00000110: 583b debb ab20 dc3c 980d 213e f11d bf3d
00000120: 985f 16be 960b 33bd a884 c9bd 045d ae3b
00000130: 311e 433e c14c 123e 20f0 e83d 11fd 0f3e
00000140: df7d 3bbd c391 30bd 285a 393e 0119 833c
00000150: ff1f 0e3e f22f 1abe d486 503d 338e d53d
00000160: 3a18 e93c f470 77bd e5fe 003e d1ff 3fbc
00000170: 26b9 febc 2a4a f6bc a5e4 5bbd e364 06be
00000180: 1feb 1dbe a5ef d339 bd1f 4abd d0d5 f9bd
00000190: 0491 bdbd e5a2 d73c 6862 0abe 2b00 17bd
000001a0: de18 333d 2c7a 093e 71a4 2a3d b05d 673d
000001b0: aabf 24bd cd17 32bd c6cb 323e b4bf 193e
000001c0: 3f30 7dbd 6d4b 10bd 632f 35be 1e0e 2f3d
000001d0: 8d89 173e 6ada c2bd 08d5 253d e668 3fbc
000001e0: 4e85 dc3a d30a b13d 1b19 123e e65d 493e
000001f0: 7197 1f3e 5ace 61bd 8d0e edbd 25bc fc3d
00000200: d283 2a3e 1fde 163c 4994 493d b8e7 513d
00000210: 38cb ca3d a92f 133e 1bd6 e03d 6c2d 70bd
00000220: 52e7 b53d 9128 1bbc 216c f43c 5239 13bc
00000230: aa0d 9fbd 5f19 793d f3bd 06bd c4ad a73d
00000240: 1d33 6fbc af07 1d3e d4aa 85bd cd01 c33d
00000250: 174f 01be f45d 4e3e 7d6e 253e 76de e9bd
00000260: 3581 623d cf5e a63c 91d7 053e 1f2a 72bd
00000270: 810e 123e aee0 05be 4a7e a4bd c9a4 3bbd
0.19587737 0.09939816 0.15136304 0.13598019 0.07911239 0.015476599 0.16742489 -0.028997226
0.12200866 0.10510354 0.007980457 -0.04573487 0.02649659 -0.09277038 0.024927173 0.10225692
-0.05729882 -0.12862092 -0.08991409 0.021845404 -0.06471631 0.104506165 0.025414972 -0.03443896
-0.046298068 -0.0794214 0.07740693 0.008055057 -0.10784454 -0.09986272 0.054548737 0.1025376
0.11636296 0.01297037 -0.011220828 0.0039607584 0.12878288 -0.07089929 0.2008032 -0.011071642
0.11479185 0.117186695 0.15116678 0.065436 -0.03952099 -0.07266152 0.10633067 0.05575573
-0.1570676 -0.12980625 0.026702601 0.020124862 -0.022067487 -0.10626577 0.13179909 -0.105098315
-0.080836475 0.15718235 0.014557281 -0.01121296 0.061749194 0.10115841 0.0010681612 0.017868595
-0.04887004 0.1503907 -0.11231826 0.027078966 -0.0067819767 0.026871046 0.15727842 0.09331883
-0.14684904 -0.04371222 -0.09839755 0.005321147 0.19054486 0.14287092 0.11373925 0.14061381
-0.045774337 -0.04310776 0.18100798 0.016003134 0.13879393 -0.15057352 0.050909832 0.10427513
0.028453935 -0.060410455 0.12597235 -0.011718706 -0.031094145 -0.030064661 -0.05368485 -0.13124423
-0.15421723 0.00040423605 -0.049346674 -0.121989846 -0.09256175 0.026322791 -0.13514102 -0.036865395
0.043724887 0.13425511 0.04166073 0.05648583 -0.040221848 -0.04347973 0.17460546 0.15014535
-0.06181359 -0.03522818 -0.17693858 0.042738073 0.14798565 -0.095143154 0.040486366 -0.011682725
0.0016824396 0.08644643 0.1426739 0.19664726 0.15585114 -0.055128433 -0.11575041 0.12340573
0.16651848 0.009208231 0.04921368 0.051246375 0.09902042 0.1437365 0.109783374 -0.058637068
0.088820115 -0.009470121 0.029836716 -0.008985834 -0.07766278 0.06081521 -0.032895993 0.0818744
-0.014599589 0.15334962 -0.065267235 0.09521828 -0.12627827 0.20153028 0.16155429 -0.11419384
0.055299003 0.02030888 0.13070513 -0.0591222 0.14263345 -0.1307399 -0.080319 -0.04581145

model.rnn.weight_ih_l1 f4 [160, 40]
00000000: 515f 79bd 6780 90bc f377 453d 8e25 c53d
00000010: b1ee ddbd bfcd 083e ada4 6bbd 1b57 bc3d
00000020: 140a b8bd 1c65 84bd dceb 0cbe 5f03 91bd
00000030: 6e30 1c3e 3a22 c5bd 010a cf3d be31 f03d
00000040: 2ed4 a5bd f666 e2bd 2521 c5bd 32db bbbd
00000050: ef58 293d c103 f0bd e6be cf3b c6e7 84bd
00000060: e71a febd 5c38 e93d 01e6 8dbd a0ec e83c
00000070: fde4 02bd bf4b 84bd 2df2 0cbe c4f8 76ba
00000080: f8c7 f7bd d762 cbbd eb33 93bd 66eb 0b3e
00000090: f2a6 f43d d0c1 bdbd 98c8 9bbc 1119 1bbe
000000a0: c088 b33d 7329 8b3d c861 fbbd fc46 453d
000000b0: 6624 e7bd 1a74 a2bd 8213 adbd e87d 34be
000000c0: 501c dc3c 5a9c 96bd afde c9bd 26ba 0d3c
000000d0: f0c4 bc3c e88f edbd d3b4 c6bd 1070 853d
000000e0: 1db9 e83d 1113 a13d 5c37 4cbb 7ce8 bf3d
000000f0: d8c3 8a3d baa7 2dbc 9ca5 503e 2f9e 8d3b
00000100: 89d4 c03a 0ed9 0fbe ba63 1c3e 4554 ab3d
00000110: 2bb7 7d3c b478 803d 12e8 8cbd 9e27 d73a
00000120: caa3 863d 11a9 33bd 7f4c 4d3e 04a7 823c
00000130: 1eb4 443e 66ef df3d 4629 02bd 7895 27be
00000140: 6a64 34bd 7794 8dbe f614 e7bb e596 7d3c
00000150: 0225 a1bd dff5 f0bc e076 87be 721f 8a3a
00000160: b79e 93bd a105 933e df68 33bd 4993 233d
00000170: d761 fb3d 7145 1d3d 57c5 603d 10e0 94bd
00000180: 0c0e d0be cbaa 073e 1c08 16be f8e9 1fbe
00000190: fd7e 87bd 11f1 39be f3af b3bc 7bf6 e5bd
000001a0: 9f64 87be 4f1e 2f3c ccd4 903d d8f0 4bbe
000001b0: 1f92 2b3e 6271 313d 3a71 43bd 1668 e93d
000001c0: c3af 84bd 1717 443e ea68 ac3d b714 d6bd
000001d0: b32a f2bd 6777 1cbd a3ed 543e 4a69 883c
000001e0: bda4 54bd ee9e 1a3d 8c13 cb3d b692 8abe
000001f0: ce60 2f3e cf03 813c 6170 82be a480 383e
00000200: a307 e6bd f43d 683d 84b1 ffbd dbe2 403d
00000210: ad8e 16bc 3f90 19be 71c6 3a3e c30b 1bbd
00000220: c663 e6bc 2675 e53b eb02 d53c 218e b43d
00000230: 2c98 9e3d 1dc3 83be fcdc 0a3c ed33 ffbd
00000240: 40e2 03be 16d3 e2bd 34d6 5c3e c276 9abd
00000250: c8af fb3d 5186 d4bd 90eb c43a d8fe e5bc
00000260: 5baa 7a3e f43f 0dbe 2c7b 07be 2997 013e
00000270: 248e 713e 6297 3a3e 68f4 4c3e 28df bc3d
00000280: 5030 413b cd19 9a3d fb84 3abd 68e0 13bd
00000290: 172c 103e b8a8 043e 73f2 c5bd 6fa7 83bc
000002a0: 5340 163e 7093 623d fe57 b73d ab17 0f3d
000002b0: 46df 753d c491 313e 7e60 13be b68e 693d
000002c0: 702e bdbd 3238 d43c a796 20bc f0f6 6fbd
000002d0: a55d 31bd afa9 783d b4a7 813d 0821 683d
000002e0: e02e 59bd d93c 60bd fe5d af3d 5dbf 5a3b
000002f0: ca79 ebbd c07f 0e3e 9aa1 8b3d cec8 a3bd
00000300: dcc0 1ebe 7c46 c43d f95b 9a3d 4ed6 8bbd
00000310: f7d3 b2bd 0257 24bd 43c4 bfbd a633 95bd
00000320: 6798 013e 212c 71bd 170d b93d e0bb 053e
00000330: a9a1 f7bd 1c51 833e 37e0 4c3d 6939 f23d
00000340: 3a7c afbd 4e45 29bb e6d8 1c3e 7372 c03d
00000350: 0c46 5d3d a0f7 8a3d 5fca cb3d 5165 b0bd
00000360: d73a 3a3e fa21 41bd 1d27 823d 30e9 dc3d
00000370: 365f 0ebd 9c67 36be 236c d53d 1de4 debc
00000380: f571 673d 0d1a 513c 862c 05be d822 d03c
00000390: 67b7 263c faee 2dbd a174 133e 04e5 59bd
000003a0: 0cc6 de3d 8907 263d 356e 483e 1749 0a3d
000003b0: 9c86 ccbd 9061 29be 1826 46bd faa9 1bbe
000003c0: fde2 1cbe 5da7 a4bd a4fd 51bd daba ad3d
000003d0: 18ab f2bb 35ff dcbc c5e1 b63d 346c 093e
000003e0: e2d3 843c b86f aa3d 05b9 0b3d 20c0 373e
000003f0: de3e b83c 1ea0 cfbc 16a7 b93d f3a4 c1bd
-0.060881916 -0.017639352 0.048210096 0.096263036 -0.108365424 0.13359736 -0.057530094 0.091963015
-0.08986297 -0.064645976 -0.13761848 -0.07080721 0.1525285 -0.09625669 0.1010933 0.117282376
-0.08097111 -0.110547945 -0.096254624 -0.091726676 0.04134458 -0.11719466 0.0063398955 -0.0648952
-0.12407475 0.11387703 -0.069286354 0.028433144 -0.03195666 -0.0645976 -0.13764258 -0.0009421224
-0.12098688 -0.099309616 -0.07187637 0.13664016 0.11945905 -0.092654824 -0.019016549 -0.15146281
0.08766317 0.06795015 -0.1227451 0.0481634 -0.11286239 -0.07932301 -0.084509864 -0.17626154
0.02686897 -0.073540404 -0.09856927 0.008650338 0.023043126 -0.115997136 -0.09702458 0.06515515
0.113634326 0.07864965 -0.0031160926 0.09370515 0.067756355 -0.010599071 0.20375675 0.0043218355
0.0014711778 -0.14047644 0.15272418 0.083656825 0.015485565 0.06273022 -0.068802014 0.0016415005
0.06574209 -0.043862406 0.20048712 0.01594878 0.19209334 0.109343335 -0.031777643 -0.16365612
-0.044041075 -0.27652332 -0.0070520593 0.015477871 -0.07868387 -0.029414115 -0.26457882 0.0010537936
-0.07208007 0.28715232 -0.043801185 0.039935384 0.12274521 0.038396303 0.054875698 -0.07269299
-0.40635717 0.13248746 -0.14651531 -0.15616596 -0.06616018 -0.18158366 -0.021934485 -0.11228653
-0.26443955 0.0106883785 0.07071838 -0.19916093 0.1675496 0.04332102 -0.047715403 0.11396806
-0.064788364 0.19149433 0.08418448 -0.1045317 -0.118245505 -0.03819981 0.20793776 0.016651768
-0.05191492 0.037749223 0.09915838 -0.27065057 0.17126772 0.015748886 -0.25476363 0.18017823
-0.11231925 0.056699708 -0.1248503 0.047091346 -0.00918929 -0.14996432 0.18239762 -0.037853014
-0.028123748 0.0070024906 0.026002368 0.088161714 0.07743868 -0.25734797 0.008475538 -0.12461076
-0.12879276 -0.11075418 0.21566087 -0.075421825 0.12289387 -0.10377181 0.0015023816 -0.02807562
0.24479048 -0.13793927 -0.1323058 0.1265532 0.23589379 0.1822181 0.20015109 0.09222251
0.002947826 0.07524452 -0.045536976 -0.036102682 0.14079319 0.12954986 -0.09665384 -0.01607105
0.14672975 0.05531639 0.0895233 0.03493468 0.060027383 0.17340761 -0.14392278 0.057020865
-0.09237373 0.025905702 -0.009801543 -0.058585107 -0.043302197 0.060708698 0.06330815 0.056672126
-0.05302322 -0.05474553 0.085628495 0.0033378222 -0.11497839 0.1391592 0.068179324 -0.07997285
-0.15503258 0.09583756 0.07537074 -0.06827985 -0.08731835 -0.04012204 -0.09363606 -0.07285242
0.12655793 -0.058879975 0.090357 0.1305995 -0.12091381 0.2564782 0.050018515 0.11827356
-0.08568616 -0.0025828662 0.15317115 0.093968295 0.05402188 0.06785512 0.099507086 -0.086130746
0.18186508 -0.047151543 0.063551165 0.107866645 -0.03475877 -0.17812961 0.10421016 -0.027208382
0.056505162 0.012762559 -0.13005266 0.02540724 0.010175562 -0.042464234 0.14399959 -0.053196922
0.10877618 0.04053453 0.1957329 0.03376111 -0.09986612 -0.16541123 -0.048376173 -0.1520156
-0.15320964 -0.080397345 -0.05126728 0.08482905 -0.00740565 -0.026977161 0.08929781 0.13420182
0.016214315 0.0832209 0.034111995 0.17944384 0.022490915 -0.025344905 0.09065072 -0.0945529

model.rnn.weight_hh_l1 f4 [160, 40]
00000000: 1282 a43d 299a 9b3c d2d2 b93d cb96 39be
00000010: 6ee4 ce3d efcf 87bd 27f8 943c eb65 853d
00000020: 2907 ccbc 329e 12be 3ebc 193e 61bc e9bd
00000030: 49e2 92bc 0961 223c 5635 953d b513 dc3d
00000040: 8d5d b2bd a765 863c 17f2 783d ec6a 363e
00000050: a597 443d ed77 afbd 251d 0bbe 2227 2bbe
00000060: 88e7 843d fe7f a93d 6207 a5bd bd2a 073e
00000070: 7f45 143e 9d38 d23d a9e6 38be 2ae4 36be
00000080: 8079 43bd 121c a03d b186 e6bd 9d8a 473d
00000090: 3316 fe3d 50cc 9abd a35e 0fbe 8138 03be
000000a0: 2680 be3c b2c4 adbd 212b 3abe 5ec1 ddbd
000000b0: 61f3 233e c806 44be bceb ba3d a4fe 243e
000000c0: fb93 3abc 3902 c0bd 6e9f d73d 002b cf3d
000000d0: 6335 02be 9364 943c 6c56 d13d bc4e 1a3d
000000e0: 0fce 173c 5d80 a8bc c96b 3bbd 92a8 023e
000000f0: 02cb 0c3e a84e 1abe a18a c23d 7adc 183c
00000100: ef8f fabc 8a6b edbd e318 77bd 7436 c23d
00000110: cdc9 563e 816f cc3d 6db8 afbd 9ff3 cf3d
00000120: cedd febd 65c0 b83d 6247 90bd 0df2 e53d
00000130: ebc8 1bbe f244 2d3d 36b0 8cbd a695 5abe
00000140: 674e 21bd c680 4abe 3a3c 8b3c e1ee 653e
00000150: e86e db3c 8d6f e3bc bef2 a2bb fdeb de3d
00000160: bd45 a43d d8f9 e2bd 067c 343d 277d 3fbe
00000170: 8693 c6bc 8d1d 77bd 0aab acbe 9182 41be
00000180: 83cc 6ebe 73bc b93c 27e3 7b3c a346 11be
00000190: 6f19 2f3e 1760 83be 4c4e b2be 0110 2fbe
000001a0: 27ae d4bd 0991 edbd 563e bcbd 002b e1bd
000001b0: 0840 613e 890a 96bc 01da 893e 7d4c 08be
000001c0: 2000 e63d 6147 84be c7f0 33be 34e5 0d3c
000001d0: f5ff ff3c 8bf7 173e 14c6 81bd e915 ff3c
000001e0: 0bce ca3d d540 51bc 19df 1b3e 805e 8f3c
000001f0: 3e3e 21bd 9864 5bbe c41a 7dbd 03c7 d73d
00000200: 2581 89be 5c33 d1bc 2538 7e3d f3e1 4d3e
00000210: e7ba ccbc f50d adbd bb4e bdbd 8dcd c33a
00000220: 3511 a7bc 46d5 3b3d acf0 013e 7f63 d43d
00000230: c465 ff3d 1bcf 393c cb08 61be 28bd a9bd
00000240: d80b 103e 619c 0fbd 9000 bcbc 24e2 193c
00000250: d9ed c13d 8173 b5bc b5d9 eb3d f45b d4bc
00000260: ab1d 263d cbf7 63bd 810b febd 491d 34bc
00000270: da44 cdbc 8922 d83d 50fe 4cbe 82dc 06be
00000280: 3db5 26be e55e 2c3d 3a78 183d 4cbc c13b
00000290: 3e6f 9dbd f1bf aabd 9391 73bd cab9 b33d
000002a0: b47f 8dbc 8007 ae3c 4658 8bbc 5525 153d
000002b0: 00fc a23d 8f38 46bd 73a2 35bd 0c67 273e
000002c0: fc17 e53d f88b 0fbd f2a9 e2bd 486b 503d
000002d0: fe08 bd3d 8f29 7b3d 8fe3 0bbc 5308 e7bd
000002e0: 4674 bcbd a1db 59bd eda5 233d b790 a1bd
000002f0: ebd1 883c ae1f 11bd aa7a 3bbd b407 cfbc
00000300: aedf 78bd c3af 94bd 9b60 123d a653 bd3d
00000310: aee9 bb3d f370 c43d 71d5 0cbe be36 a4bd
00000320: c384 be3d 3d4e 87bd 43de f1bd 62b5 063e
00000330: 4c90 42bc 374f a9bc 1ddf 1bbd 346f b03d
00000340: 228b e53d 6749 323e 94e6 8f3b 2ea1 863d
00000350: 07a1 08bd dd16 dd3d 1e16 dfbd 2af7 27bd
00000360: 02dc 1d3e c998 02be d264 8bbd 28a9 e7bd
00000370: ff69 bd3d 5e46 17be 6be9 9cbd f3a3 0a3d
00000380: 579c a73d eb59 17bd 7e52 04be 82b7 01bd
00000390: 1083 d33d fe6c dfbd 4fd7 dcbd 1116 d3bd
000003a0: 574f 1f3e f21e 273e 97f7 663d 459d a1bd
000003b0: b8f9 383e e084 5f3d 304f d83d 19e0 04be
000003c0: 9ab3 01be 8e45 d03c c2a3 a7bd 7fcb 07bc
000003d0: 3ef0 1a3e d992 06be 0ece ebbc 5108 fb3d
000003e0: 2c5f 373d f5c6 423d 0425 823d 6a9f c13d
000003f0: 9d1a b2bc 6149 203e 4c4d 6fbd 1820 96bd
0.080326214 0.018994408 0.09073414 -0.18123929 0.10102163 -0.06631457 0.018184735 0.0651358
-0.024905758 -0.14318159 0.15013215 -0.114128835 -0.017930167 0.00991083 0.07285564 0.10745946
-0.0870925 0.016405893 0.06077775 0.17814225 0.047996182 -0.08567796 -0.13585337 -0.16714147
0.064894736 0.08276366 -0.08058049 0.13199897 0.14479636 0.102647044 -0.1805674 -0.17860475
-0.047723293 0.07817854 -0.11256159 0.048716176 0.12406578 -0.07558501 -0.14000945 -0.12814523
0.023254465 -0.08484782 -0.18180515 -0.108278975 0.1601081 -0.19143212 0.09126994 0.16112763
-0.01138782 -0.09375424 0.10528456 0.101156235 -0.12715678 0.018114364 0.10221562 0.037672743
0.009265437 -0.02056902 -0.04575709 0.12759617 0.13749316 -0.15069067 0.094990976 0.009329909
-0.030586211 -0.11592777 -0.06032647 0.09483042 0.20975418 0.09982205 -0.08580098 0.10153889
-0.1244465 0.09021071 -0.07044865 0.11227808 -0.15213363 0.04230208 -0.06869547 -0.21346149
-0.03938141 -0.19775686 0.016996492 0.22454406 0.026786283 -0.027763152 -0.004972785 0.10884855
0.08021114 -0.1108281 0.04406359 -0.18700086 -0.024240267 -0.060330916 -0.33724242 -0.18897463
-0.23320203 0.022672867 0.015373982 -0.14187102 0.17099546 -0.25659248 -0.3482536 -0.17095949
-0.103847794 -0.11599929 -0.09191577 -0.1099453 0.21997082 -0.01831557 0.26924136 -0.13310428
0.112304926 -0.25835708 -0.17572318 0.008660603 0.03124998 0.14840524 -0.063366085 0.031138377
0.09902581 -0.012771805 0.15221824 0.017501116 -0.039366 -0.21425092 -0.061793104 0.10536005
-0.26856342 -0.025537185 0.062065262 0.20105724 -0.024991466 -0.08449928 -0.09243532 0.0014938578
-0.020393947 0.04585769 0.12689465 0.1037054 0.12470582 0.011340882 -0.2197601 -0.08288032
0.14067018 -0.035061244 -0.022949487 0.009392295 0.09469194 -0.022149803 0.11516134 -0.025922753
0.040555637 -0.055656236 -0.12404538 -0.01099331 -0.025057245 0.10553462 -0.20018888 -0.13170055
-0.16280074 0.042082686 0.037224032 0.0059123393 -0.076872334 -0.08337391 -0.059465002 0.08775671
-0.017272808 0.02124381 -0.017009865 0.036412556 0.079582214 -0.048393782 -0.044344377 0.16347903
0.11186215 -0.035045594 -0.11067571 0.05088356 0.09230231 0.06131893 -0.008538141 -0.112808846
-0.09201865 -0.05318797 0.03995316 -0.0788893 0.01670166 -0.035430603 -0.04577128 -0.025272228
-0.060760193 -0.072600864 0.03573666 0.0924447 0.0917543 0.09591856 -0.13753296 -0.08018254
0.09302666 -0.0660672 -0.11809971 0.1315513 -0.011875223 -0.020667655 -0.038054574 0.0861496
0.11208178 0.17410813 0.0043915007 0.06573711 -0.033356693 0.107953764 -0.108928904 -0.0410072
0.15415958 -0.12753595 -0.06806339 -0.11311561 0.09248733 -0.14772937 -0.076617084 0.03384776
0.08184116 -0.036950987 -0.12922093 -0.031669147 0.103277326 -0.109094605 -0.10783254 -0.10306943
0.1555761 0.16320398 0.056388464 -0.07891325 0.1806401 0.05457008 0.10561979 -0.12976111
-0.12666169 0.025423791 -0.08185531 -0.008288263 0.15130708 -0.13141955 -0.028784778 0.122574456
0.044768497 0.04755302 0.063547164 0.09454234 -0.021741206 0.15652992 -0.058423325 -0.0733034

model.rnn.bias_ih_l1 f4 [160]
00000000: d930 f73c 906c 493d 098c 313e 3231 933e
00000010: edae 6dbd 4c2a 0b3e 0407 a6bd 632d ecbc
00000020: 56f8 b2bd 84c9 be3d 7308 72bd 195a b3bc
00000030: 7039 a63b fc06 96bd 1722 1e3d 81f9 b73d
00000040: 8af2 b2bd c823 8d3e 66f3 1f3e c642 e8bb
00000050: cbd1 c6bc a238 253e 1f7e fc3c 346d 0c3e
00000060: f05d 253e 0666 d43c 07be a2bd 597d b13d
00000070: 88f4 c7bd c4e6 6d3c 40c3 a53d 2488 613e
00000080: 5610 2d3d c37b e23d c4fb a13c 36d0 ed3b
00000090: 68c7 b5bd 646c 9bbd 1d61 063e 4338 453d
000000a0: 0fc0 71bc 280e 313e c81a ea3d b1af 5a3e
000000b0: c9f9 503d 58d9 3f3c a9b7 e63c ff56 2e3e
000000c0: f092 463a b4b8 9c3d 3db3 1a3e 92da 0ebe
000000d0: 200e 273e a036 4bbd 76b9 8ebd 1375 163e
000000e0: 3f49 263e 10e1 e53a 47eb baba f9f1 b2bd
000000f0: 3d1b 0dbd 51e0 6ebd 0cbe 8e3d 04de 2f3c
00000100: 5471 bebc e5e3 b8bd 7cf3 f93d cc84 02be
00000110: 32ff 493e 0748 00be 51f4 653c c1cc 523e
00000120: 633e d1bc eb3c 0f3e d035 f73d c732 a7bd
00000130: e937 93bd 6639 4d3e e4cb 443e 4aca 293e
00000140: 8464 cdbd 3cf7 21be dc58 52bc f57e e7bd
00000150: 195a 1a3e a0ac c7bd 223a c8bd 3fcc f63d
00000160: 77f0 3dbe 0ab8 533d 270f 863d b648 463d
00000170: 326d dc3d 0e64 ef3d 5770 c6bc c8c9 f8bb
00000180: d97f 07be 2e37 abbd 614f 42bd 2801 0c3e
00000190: 69d8 cabd ae5e 043e 07a4 5dbd 1e1c 8abd
000001a0: c261 1e3e c891 d73c 75a2 89bd f7e5 353d
000001b0: ac7a 643d 7fa9 3dbc af34 e4bd 0e74 5fbe
000001c0: 4640 02be d504 803d c9bb 9e3d f1ae c63d
000001d0: c885 f5bd 0681 2b3b 9f7a 49be eed5 8fbd
000001e0: 4423 4c3e 8f96 823d 9176 433e ee1f b33d
000001f0: 225b 6fbd 1d5b a43d c653 b43d bf88 c63d
00000200: cffb 993d e646 373e 8954 2cbd 919d 9bbc
00000210: f22a b83d 811f bcbb 4871 a93d ffb8 d2bd
00000220: a77c 3f3b cc34 4d3e 45d9 7dbd fbfb 093d
00000230: 5b05 84bd 7e4e fa3d 13f2 8dbd 7936 c73d
00000240: 6bb2 b4bd d04c 7739 505f 913d cc04 c3bd
00000250: eccd d63d ba28 f6bd e16a 583e 1ea3 06bd
00000260: a508 ea3d fad5 3c3e 381d b73c 8375 9ebc
00000270: 9e4c 09bd c625 53bd 51b7 113e 389f d0bd
0.03017466 0.0491758 0.17338575 0.2874847 -0.05802815 0.13590354 -0.08106807 -0.028830236
-0.087387726 0.0931578 -0.05909009 -0.021893548 0.005072765 -0.07325551 0.03860673 0.08983136
-0.08737667 0.2756636 0.15620193 -0.007088038 -0.024269959 0.16134885 0.030821858 0.13713533
0.16149116 0.025927555 -0.07946401 0.08666486 -0.097634375 0.014520351 0.080938816 0.2202459
0.042251907 0.11058762 0.019773372 0.0072574867 -0.08875924 -0.07589033 0.13122983 0.04814936
-0.014755263 0.17290556 0.11430889 0.21356083 0.051019464 0.011709534 0.028163748 0.17025374
0.0007574996 0.07652417 0.15107436 -0.13950565 0.16313982 -0.04961264 -0.069689676 0.14693098
0.16238879 0.0017538387 -0.0014260792 -0.08737559 -0.034449805 -0.058319394 0.06969842 0.010734085
-0.023247398 -0.090278424 0.12204644 -0.1274597 0.19726256 -0.12527476 0.0140353 0.2058592
-0.025542444 0.13988082 0.12070811 -0.08163982 -0.071883984 0.20041427 0.19218403 0.16581073
-0.100289375 -0.15816969 -0.012838569 -0.11303512 0.15073432 -0.097497225 -0.09776713 0.120506756
-0.18548761 0.051689185 0.06545859 0.048409186 0.10763015 0.11689006 -0.02422349 -0.0075924136
-0.13232364 -0.08360134 -0.047438983 0.13672316 -0.09904558 0.12926742 -0.054111507 -0.06743644
0.15466979 0.026314631 -0.06720439 0.044408765 0.05578105 -0.011576056 -0.11142861 -0.21821615
-0.12719831 0.06250922 0.07750661 0.09701336 -0.119884074 0.0026169433 -0.19675682 -0.07023226
0.19935328 0.06376373 0.19088198 0.087463245 -0.05843652 0.08025191 0.08805041 0.09694051
0.07518732 0.1789814 -0.042072807 -0.018996032 0.08992566 -0.0057410602 0.0827356 -0.102891915
0.0029218586 0.20039672 -0.061974782 0.033687573 -0.06446334 0.122220024 -0.069309376 0.09727187
-0.08823093 0.0002358437 0.070982575 -0.09522399 0.10488495 -0.12019487 0.21134521 -0.032870404
0.1142743 0.18441 0.0223528 -0.019343143 -0.033520333 -0.051549695 0.14230086 -0.101866186

model.rnn.bias_hh_l1 f4 [160]
00000000: 4f19 493d 053f d43d 6526 043e 3a02 0e3e
00000010: f1d6 6dbd 8f1e 19bd f3b6 473c c7fb 703d
00000020: 2f39 153d bf39 0a3e a6e5 1f3e 5e45 dd3d
00000030: d1e9 7fbd d27d 44b7 df58 813d 825e f73d
00000040: 65ad ba3d b45c ca3d 6cc3 3cbd 9451 96bd
00000050: 56c3 dcbc 268c d0bd cd81 643d 3e40 473d
00000060: 0e42 06bd cd42 a8bc f458 893a c8f5 98bc
00000070: ac63 4a3e e93f 3fbd 1f25 b93d edc4 b23d
00000080: b532 6d3e 11ba 24bc a939 633d c0b0 ecbd
00000090: 70fa a4bd def0 273e f4aa 433e 595e 26bd
000000a0: 9a83 c2bd 9a52 c0bd d2c8 203e 54c2 44bc
000000b0: b0b1 27bd effc a4bc 3ad7 8abd 7968 b53d
000000c0: a46a a1bd ac02 603d 5740 6a3d a09f 933d
000000d0: b1b5 083e f83b 7e3d 1288 b0bd 9b19 e73d
000000e0: a108 153e 3ea7 153e 4a59 db3d b716 9cbd
000000f0: c1e0 2a3e 2e9e 90bd d802 ff3d c322 d4bd
00000100: d528 373e 005b dcbc 4ee1 68bc aeb7 edbd
00000110: e95a 55bb a1c2 bc3d c4ec bebd 887e a8bd
00000120: 3267 0d3e 22c1 b6bd 8e77 ed3c 12fb a23d
00000130: a507 b3bd 27c6 b03c ee52 7f3d 42df 54bd
00000140: f7c9 1cbe e631 f03c 4211 f03d b1fb 97bd
00000150: 1c8e 20be 8f5b bd3c 251f 2bbe 050c ce3d
00000160: ddbb 49be 1e26 28bd 47af 213e 214b b1bd
00000170: 722b f93d 188b 623d 98e2 c1bd b220 f53d
00000180: 71e5 fcbd d778 fe3d 8098 153e 56fc 0b3e
00000190: efd6 d8bd d801 463d d549 103e 3e15 febc
000001a0: a341 0dbe 9256 ab3d c764 98bd 954d 32bd
000001b0: 2990 a2bd 4083 b0bd 3a85 be3d d1d4 f3bc
000001c0: cf23 b0bd 5a31 dabd f084 ea3c c810 203d
000001d0: 8d81 c03d fdbd 103e efa8 9dbd f586 1ebe
000001e0: 65e4 6a3d 7c20 64bc 6f2d 1e3e a61e 073e
000001f0: 1a6e cf3c e548 abbd c8b0 ba3c 0bab 063d
00000200: 4a93 ec3d 7fc3 023e d425 323d f79d 04be
00000210: 2c59 653c 9f28 10bc 55e6 c73c 572b acbd
00000220: d726 a43a a9a9 5ebd 6b65 57bd e210 95bd
00000230: de5f 2c3d cc8d 8dbc d45a 833d 81e6 abbd
00000240: be04 873c cb0d 4f3e c485 313e 54f4 b7bc
00000250: 3e60 9c3d 53a0 373e cccb 9bbd bf5c b53d
00000260: 200b 6fbc 7e10 ba3d 9da0 903d 8e28 023e
00000270: b186 113e bdbd 813c a99a c13d c1c5 303e
0.0490964 0.103635825 0.12905271 0.13868037 -0.058066312 -0.03738266 0.012189615 0.058833864
0.036431488 0.13498591 0.15614948 0.10804246 -0.062478844 -1.1711805e-05 0.06315779 0.12078573
0.09115104 0.09880963 -0.046084806 -0.073397785 -0.026948612 -0.10182981 0.05578785 0.04864525
-0.03277784 -0.020539666 0.0010478781 -0.018671885 0.19764584 -0.04669181 0.090402834 0.08728967
0.23163874 -0.010054127 0.05547491 -0.1155715 -0.0805558 0.16400477 0.19108182 -0.04061732
-0.09497757 -0.09390755 0.15701607 -0.012009222 -0.04094094 -0.02014014 -0.067793325 0.08857817
-0.07881668 0.054690048 0.057190266 0.072081804 0.1335056 0.06206891 -0.08619703 0.11284181
0.14554073 0.14614579 0.1071039 -0.0762152 0.166873 -0.070614204 0.12451714 -0.10358193
0.1788667 -0.026898861 -0.014213873 -0.116073 -0.0032555407 0.0921681 -0.09322503 -0.08227259
0.13808897 -0.08923556 0.028987672 0.07958044 -0.087416925 0.021578861 0.062334947 -0.051970728
-0.15311418 0.029320668 0.11722042 -0.07421053 -0.1567921 0.023114948 -0.167111 0.10060886
-0.1970057 -0.041051976 0.15789519 -0.08656908 0.1216649 0.05530843 -0.094670475 0.11969127
-0.1234845 0.12425392 0.14608955 0.13670477 -0.1058787 0.048341602 0.14090665 -0.031015988
-0.1379457 0.08366121 -0.07441097 -0.04353102 -0.079376526 -0.08618784 0.09302755 -0.029764565
-0.0860058 -0.10653944 0.028627843 0.039078504 0.0939971 0.14134975 -0.07698237 -0.1548117
0.05734672 -0.0139237605 0.15447019 0.13195285 0.025321055 -0.08363513 0.022789374 0.032877963
0.11551531 0.12769888 0.043493107 -0.12950884 0.013998311 -0.008798747 0.024401823 -0.08406704
0.0012523782 -0.05436102 -0.052586954 -0.07278611 0.042083614 -0.017279528 0.064138085 -0.083935745
0.016481753 0.20220105 0.17336184 -0.022455372 0.07635544 0.17932253 -0.076072305 0.088555805
-0.014590055 0.09085177 0.070618846 0.12710783 0.14211537 0.015837545 0.09453327 0.17262937
