practice/AutogluonModels/ag-20231204_134323/models/NeuralNetFastAImodel-internals.pkl (torch, 120611 bytes, 11 tensors)

weight f4 [200, 1]
00000000: c343 a1bc 7756 0a3f 974f 51bf 72cd 3bbf
00000010: b318 ccbe b530 843e e144 12bd d093 4a3f
00000020: 649b d1bd 7b85 753e 862c 91be b110 37be
00000030: 7058 73bf f078 29bf 4498 c4be 0893 923d
00000040: 4b1e c73e 7da8 193f feb9 2cbf 2547 dcbe
00000050: 28ad bd3e d0a7 543f 5c18 51be 1cba 3e3f
00000060: 5ceb 1abe fc5b f23d 366a 673f 1e5e 6dbf
00000070: 5d7b 1fbf e972 87be 6fb7 cfbe 778e 5c3f
00000080: ae31 28bf 7a1e f4be acb3 30bf 602d 6ebf
00000090: f797 16bf ff86 5b3f 8c25 e53e 9232 f73e
000000a0: de61 8c3d 75a6 04bf f93b 323e 8199 6ebf
000000b0: 6a6b 3bbf 8848 02bf 7e93 213f b106 173f
000000c0: 8fe3 e4be 3397 26bd 9554 223f 327c 7d3f
000000d0: 1f67 c23e fa81 1c3e bac6 2a3f 47d4 14bf
000000e0: 1779 4f3e 2a46 45bf 1871 32bf 63f4 01bf
000000f0: 315f e83e d84e d33e 3b40 15bf 6441 933e
00000100: 7586 0b3f caa4 97bd b903 943d b450 5b3e
00000110: a2f4 1c3f 16ee 743f 2850 43bf 3496 b0be
00000120: 6176 c93e 8621 533f c0b4 5e3f 528c 613f
00000130: d30b 423e 1b59 5ebf 13d6 b23d b72b 21bf
00000140: 8f03 6ebf 176b 623f 3b57 423f 35ab 7ebf
00000150: 5fa5 473e b057 20be ed04 1fbe bb72 f2be
00000160: d6e5 bb3e 2ee9 15bf f88a bf3e 49c2 013f
00000170: 6116 373f 5164 c33e 785d 7cbf 570d 24bf
00000180: d96c 033f e065 3c3e 49d5 46bf 5116 17bf
00000190: 1d2b 703f 3b81 2c3f 896c dabe 0fc2 8abe
000001a0: 2da6 72bf a3c5 22bd 43c9 3fbf f234 44bf
000001b0: a4a9 5fbd 4656 093e c7e1 c7be d46e 163f
000001c0: e22d 1abf 135f 673f c54e 2f3f 5c75 57bf
000001d0: 4bff 6dbe d1a7 2b3d 259f 1a3e bb4f 893e
000001e0: 0cb4 c43e 8b2f 353d 56bf f3be 6eab f13e
000001f0: 2803 75bf 5455 19bf 416a 69be b0bd efbe
00000200: 793d b1be 0dbc 51bf 6b7b 4abe 3170 443e
00000210: ea0d 25bf 3b7c 71bd db87 363f a99d e3bd
00000220: 275f 453c fb36 dabd e587 2b3e 1aa8 223f
00000230: bcf5 713f 5520 243f ea5f 723f 7c24 c4bd
00000240: a014 64bf c519 f1be 4336 2e3f 55e5 b73c
00000250: 58c3 f8be 30d1 43bf 614c 6dbf b130 58bf
00000260: 9aae 45be 746b 0d3f b708 0b3f 50b1 75bf
00000270: 8507 213f 9d9d 46bf b5fd 61be 5a45 d8be
00000280: fd8e 56be a50d 5cbe 820b 66bf 336d 5bbf
00000290: 89f9 19be 7a0f bf3c 0d55 eebe eda2 ca3e
000002a0: 6fde 64bf 3f31 a1bd 8ba7 603f a43f cebe
000002b0: 271d 673f 09e0 b73e 3ab7 66bf 743b 223f
000002c0: d1fb e2bd dca2 e3be 8292 4c3f 45bc 4ebf
000002d0: fd29 e63d 0cce 48be e959 363f cb2d 903e
000002e0: e091 fb3e ded8 bc3e 7da8 50be 17d9 63be
000002f0: bf8f 51bf c985 073f 4173 4b3f 94b2 2e3f
00000300: e767 32bf b98c 513d eb93 34bf 9cb4 0dbf
00000310: 1a49 12bf a182 aa3e e1cd 1bbf edc3 b5bc
-0.019685632 0.54038185 -0.8176207 -0.7336036 -0.39862594 0.2581841 -0.03571022 0.79131794
-0.102347165 0.239767 -0.2835428 -0.17877461 -0.9505682 -0.6620016 -0.3839742 0.0715695
0.388903 0.6002272 -0.674713 -0.4302303 0.3704617 0.8306856 -0.20419449 0.7450273
-0.15128845 0.11833951 0.9039644 -0.92721736 -0.6229761 -0.26454857 -0.40569636 0.86154884
-0.65700805 -0.47679502 -0.6902416 -0.93037987 -0.5882563 0.8575286 0.44755208 0.4828077
0.06854604 -0.51816493 0.1740569 -0.9320298 -0.73210776 -0.50891924 0.6311568 0.58994585
-0.44704863 -0.04067154 0.6341031 0.9901763 0.379693 0.15283957 0.6670948 -0.5813641
0.20261036 -0.77060187 -0.6970382 -0.5076353 0.45385125 0.4127109 -0.5830113 0.28760827
0.5450204 -0.07404478 0.072272725 0.21417505 0.6131078 0.9567579 -0.76294184 -0.34489596
0.39348128 0.8247303 0.8699455 0.88104737 0.18949823 -0.86854714 0.08732238 -0.6295733
-0.9297418 0.88444656 0.75914353 -0.9947999 0.19496678 -0.1565845 -0.15529223 -0.47353157
0.36698788 -0.5855893 0.37410712 0.5068708 0.7151852 0.38162473 -0.9858012 -0.64082855
0.51337963 0.18398237 -0.776692 -0.5901843 0.93815786 0.6738469 -0.4266093 -0.2710118
-0.94784814 -0.039739262 -0.74916476 -0.7664329 -0.05460514 0.13411817 -0.39039442 0.5876286
-0.6022626 0.90379447 0.6847957 -0.8416345 -0.23241918 0.04190809 0.15099771 0.26818642
0.38418615 0.044234794 -0.47606915 0.47201103 -0.9570794 -0.59895825 -0.22794439 -0.46824408
-0.34617212 -0.8192757 -0.19773643 0.19183423 -0.64474356 -0.058956366 0.7130105 -0.11114056
0.012046612 -0.10655018 0.16751058 0.6353775 0.94515586 0.64111835 0.94677603 -0.09577271
-0.8909397 -0.47089973 0.68051547 0.022448221 -0.48586535 -0.7649107 -0.9269467 -0.844493
-0.19304886 0.55242085 0.5431017 -0.9597368 0.629021 -0.7758425 -0.22069438 -0.4224041
-0.20952983 -0.2148958 -0.8986131 -0.857135 -0.15036596 0.02332281 -0.46549264 0.39577428
-0.89401907 -0.07870721 0.8775565 -0.4028293 0.9027886 0.35913113 -0.9012333 0.6337197
-0.110831864 -0.4446019 0.79911053 -0.80756027 0.112384774 -0.1960985 0.7123094 0.28159937
0.4913473 0.36884207 -0.20376773 -0.22250782 -0.81859964 0.52938515 0.7947274 0.6824124
-0.6968979 0.051159594 -0.70538205 -0.55353713 -0.57142794 0.33302787 -0.6086102 -0.022188151

weight f4 [200]
00000000: 4d14 823f a679 833f 6bc5 7b3f 65be 7f3f
00000010: 6f6e 823f 4187 7d3f 0016 7a3f 31ed 813f
00000020: ad7e 813f 995e 793f 0af0 793f 26bf 7b3f
00000030: ae04 7d3f 1456 803f bbed 743f d92d 863f
00000040: 6dd2 7b3f a99f 803f e549 7e3f 5eb1 7e3f
00000050: 7c4e 813f b2d2 843f 6463 7e3f 53a6 7f3f
00000060: 3287 7d3f 420f 823f aa6b 823f 5e54 833f
00000070: 641e 7d3f 1eeb 813f 2b43 833f 6163 803f
00000080: a8ca 843f 4627 843f c71b 7c3f 5a61 793f
00000090: 5994 813f 0b54 803f 14bc 803f 802b 803f
000000a0: a24a 823f 3854 813f 0e02 813f 6b72 813f
000000b0: a5f6 843f 8a59 7c3f 2b07 823f 4c35 823f
000000c0: 255b 813f 7b0f 7f3f d33a 7a3f becc 7d3f
000000d0: cccb 773f f7bf 823f 87a4 7e3f ac18 7d3f
000000e0: ce91 813f fa76 7d3f 1c1b 823f cf55 7c3f
000000f0: 4abf 803f 6a97 833f 0372 7b3f 52ef 7b3f
00000100: 4580 7e3f 3699 753f a6a3 863f 64dc 7b3f
00000110: ba6b 7b3f f9c0 7d3f 22cf 7a3f 0418 793f
00000120: 60bb 7f3f 9fb7 7c3f 68f4 823f bebf 813f
00000130: d870 7e3f 6316 823f a958 7e3f e0d9 813f
00000140: db52 813f 0453 7c3f c16e 813f 9d72 7e3f
00000150: 7780 803f 3808 7d3f da1f 7e3f b8fe 833f
00000160: 5e89 783f 9e46 793f 3a98 823f 8243 803f
00000170: ca60 823f 3c52 813f 132b 7b3f 988e 7d3f
00000180: 258c 843f 48c8 783f aa02 803f a99e 863f
00000190: 95b2 803f 5357 813f d1ae 7b3f 968c 823f
000001a0: cbe8 783f 92af 833f 3fb1 7e3f fecb 7d3f
000001b0: d953 803f bd61 7a3f 03d3 793f 5125 7c3f
000001c0: 1055 7d3f 1384 7c3f 6b4f 813f f2c0 7f3f
000001d0: 7ecb 7b3f f78f 7c3f f58a 803f 6ed4 843f
000001e0: af54 7c3f 13fa 7b3f 0bce 7b3f a67a 7e3f
000001f0: af91 803f fded 813f 718c 783f c7f7 793f
00000200: ef29 803f a062 813f 9274 7c3f f35a 7b3f
00000210: 0ca8 7a3f 2484 803f c7b6 7c3f 7865 803f
00000220: ec67 7c3f 2bf5 813f b132 763f c0bd 823f
00000230: da85 803f 42f3 853f f0f1 803f aba3 833f
00000240: 1678 7a3f 263c 7f3f a60a 823f bf81 793f
00000250: c934 7a3f ffee 803f 8f6e 753f 592b 823f
00000260: 5501 7e3f 71dc 833f 8fa1 813f 0688 7d3f
00000270: 9e9c 823f a4d3 793f e746 823f 7311 853f
00000280: ad06 803f 07d9 823f 2e74 823f c14b 7c3f
00000290: f49e 7d3f 4b88 803f b089 823f 28fa 833f
000002a0: 54fe 7b3f 1430 823f dd9d 813f 9c2f 7f3f
000002b0: f26a 843f 4509 803f 566c 803f 6c03 833f
000002c0: 7b8a 7d3f 8a16 803f c96c 853f f190 813f
000002d0: 6418 803f c290 7f3f e545 803f 6f4c 803f
000002e0: ee69 853f 9060 833f 40bf 773f 406a 823f
000002f0: ab22 7a3f 1a60 783f a40d 853f 0347 803f
00000300: 4300 7a3f 05f5 7f3f a966 823f 4e80 813f
00000310: 7cd9 793f ed91 7d3f 610a 843f 1810 7c3f
1.0162445 1.0271499 0.9834811 0.99899894 1.0189952 0.99034506 0.9768982 1.015051
1.0116783 0.9740997 0.97631896 0.98338544 0.98835266 1.0026269 0.9567525 1.0482742
0.9836796 1.0048724 0.99331504 0.9948939 1.0102077 1.0376799 0.9937041 0.99863166
0.99034417 1.0160906 1.0189106 1.0260122 0.988745 1.0149877 1.0254873 1.0030328
1.0374346 1.0324485 0.98479885 0.9741417 1.0123397 1.0025648 1.0057397 1.0013275
1.0179026 1.0103827 1.0078752 1.0113043 1.038777 0.98574126 1.0158437 1.0172515
1.010594 0.99632996 0.9774601 0.99140537 0.96795344 1.0214833 0.994698 0.9886577
1.0122621 0.9900967 1.0164523 0.98568434 1.0058377 1.0280583 0.98220843 0.9841205
0.99414474 0.95936906 1.0518692 0.98383164 0.9821125 0.9912258 0.9797231 0.9730227
0.99895287 0.98717684 1.0230837 1.013664 0.99390936 1.0163082 0.99354035 1.0144615
1.010341 0.9856417 1.0111924 0.99393636 1.0039204 0.98840666 0.9926735 1.0312109
0.97084606 0.9737338 1.0202706 1.0020602 1.0185788 1.0103221 0.981126 0.99045706
1.0355269 0.97180605 1.0000813 1.0517169 1.0054499 1.0104774 0.98313624 1.0199153
0.97230214 1.0287955 0.99489206 0.9913939 1.0025588 0.97805387 0.97587603 0.9849444
0.9895792 0.9863903 1.0102361 0.99903786 0.9835738 0.9865717 1.0042406 1.0377328
0.98566717 0.9842846 0.9836127 0.99405897 1.0044459 1.0150753 0.97089297 0.97643703
1.0012797 1.0108223 0.9861537 0.9818565 0.9791267 1.0040326 0.98716396 1.0030966
0.9859607 1.0152944 0.961711 1.0214157 1.0040848 1.0464861 1.0073833 1.0284323
0.97839487 0.99701154 1.01595 0.974636 0.97736794 1.0072936 0.95871824 1.0169479
0.9922078 1.0301648 1.0127429 0.9903568 1.0204046 0.9758856 1.0177888 1.039595
1.0002037 1.0222481 1.0191705 0.9855309 0.9907067 1.0041593 1.0198269 1.0310717
0.9843495 1.0170922 1.0126301 0.9968202 1.0345137 1.0002829 1.0033062 1.0235419
0.9903943 1.0006878 1.0423824 1.0122358 1.0007443 0.9983026 1.002133 1.0023326
1.0422952 1.0263844 0.967762 1.0188675 0.9770915 0.9702164 1.0394788 1.0021671
0.9765665 0.99983245 1.0187579 1.011728 0.9759748 0.9905079 1.0315667 0.9846206

bias f4 [200]
00000000: bd80 883c 479b 6bbd 66bf 32bb ba49 15bb
00000010: ad16 08bc a49f 98bc b0fb ca3b 0b41 1cbd
00000020: 947f adb9 d9f1 96bc cd96 3bbc 5346 f73a
00000030: 4e98 e3bc c5f0 c23c 95dc 78bd 94b7 80bd
00000040: 9cfb 27bb f45b c33b b6aa 7b3c 3441 b6bc
00000050: 4f31 aabc 7ea5 57bd 40cb cebc 5abd cebc
00000060: 5cfe bcb8 9e24 acbc 8f15 683c b8cf a7bc
00000070: eb40 ec3a 2188 c23c 33b6 00bb d0b1 9cbd
00000080: 12a7 5d3c 001b 84bd 9d14 80bc b858 8c3c
00000090: c510 5bbd 190c af3c aa19 1b3d 1f59 603b
000000a0: 5c6a 76bd e21b b6bc b1be 33bd 9ed1 f8bb
000000b0: 1e78 1f3d c03e 4a3c 38ec 61bb 0df8 343b
000000c0: 200c 403c 6ffe 073d 0d8d ddbc e715 173d
000000d0: f36d 163c 78c6 a0bc defc 37bd f01a cd3c
000000e0: 4531 b73c 8f3c 00bd ca91 ea3a 288a a63b
000000f0: cb72 41bd f27c 5cbc ac6c f7bc f937 043c
00000100: d367 4e3c ef43 74bd beab b1bd fb25 49bd
00000110: 7e14 87bc a26a 12bc 2fad c1bb 0442 703c
00000120: 8b69 ec3c 78bb cebc af2a 4f3b be71 243b
00000130: 4deb 9ebc c553 713c aa42 c1bc ff60 0c3d
00000140: f851 52bd 4647 ab3b b55b 23bd 2c6f b83c
00000150: 7256 bbbb 7d7a 153b 5655 67bd 279b ce3b
00000160: 28e8 193b 2b77 8a39 f555 9dbb 9dcb 3b3c
00000170: db31 07bc a94e 9ebc 0a5f 53bc bab4 23bd
00000180: 64bd 6fba 2fd1 df3c 1497 5dbd 32bb 973b
00000190: 4963 78bd e8d1 18bd bab0 03bd 2ba2 70bc
000001a0: 30bf b33c 8ff1 b0bc a510 eebb f94b 04bd
000001b0: f454 49bd f304 bdbc 4396 21bc f9c3 573c
000001c0: 2298 85bd f1aa cdbc 8b07 6dbc f67a fc3c
000001d0: 7ad7 db3b 9b9a 98bc 279e 5abc fcdc 43bd
000001e0: 6063 19bd 4536 9dbc 4bab 93bb ae1d b2bb
000001f0: a806 0dbd 0014 d03b 8e09 ddbb befa 0b3c
00000200: 6faa 61bd 3441 e13b c102 73bc c58c 633c
00000210: 429e 52bc ce3b 5dbc df86 05bd b02b 403c
00000220: 1468 79bd 5eb0 003b fa6e 3abc f483 403d
00000230: b23e 3b3c 878f b7bc 84b4 cd3a 7206 b5bb
00000240: a1ac c9bc 2fe7 a3bb e84a aabb 8980 aabb
00000250: 8674 453c 87b1 6dbc 8f9b 0e3c 0e5b 533c
00000260: d47c 98bc 1130 9fbc 8b3e 03bd 0c97 1dbd
00000270: 8ccd e53c 661f 1fbd 7070 fd3c 202d c23c
00000280: c474 ba3c f3c6 c3bc 3f6c 78bc 83b1 aabc
00000290: 5bb2 4d3c 6220 e3bc c16a ebbc 910a 783c
000002a0: 9c27 07bc 76d7 6abc 8409 b43c b1cf 3cbd
000002b0: ab37 d9bb 6282 93bc 0777 74ba 24d8 7fbd
000002c0: daae 65bd 548c 50bd 4e47 fbbc 41b9 01bb
000002d0: 71f4 49bd e69e 40bc dab2 03bd ac23 ae3c
000002e0: 196e ccbc 1a62 41bd 8e37 34bb 5e73 d4bc
000002f0: c83c b9bc 4704 153d c45a 2dbd d66f 29bd
00000300: 38b4 07bd 9f80 c33a cc7a 2cbd 01b7 efba
00000310: f5e8 09bc aed7 2f3a ade5 933c 4ac0 823b
0.01666295 -0.05752113 -0.0027274727 -0.002277954 -0.008306188 -0.01863081 0.0061945543 -0.038147967
-0.00033092184 -0.018425869 -0.011449528 0.0018865563 -0.027782585 0.023796448 -0.06075724 -0.06285015
-0.0025632149 0.0059618894 0.015360525 -0.022247888 -0.020775465 -0.05264806 -0.025243402 -0.025236774
-9.011917e-05 -0.021013554 0.014165296 -0.02048479 0.0018024718 0.023746552 -0.001963985 -0.076511025
0.013528602 -0.06450462 -0.01563483 0.017132148 -0.05348279 0.021368073 0.037866272 0.0034232808
-0.060160026 -0.022230092 -0.04388303 -0.0075933477 0.038932912 0.012344062 -0.0034473073 0.002761367
0.011721641 0.03320163 -0.027044797 0.036886122 0.009181487 -0.019625887 -0.044918887 0.025037259
0.02236236 -0.031307753 0.0017896232 0.0050823875 -0.047228616 -0.013457524 -0.030203186 0.008069986
0.012597996 -0.0596351 -0.08675335 -0.049108487 -0.016489264 -0.008936556 -0.0059105377 0.014664177
0.02885892 -0.025235876 0.0031611135 0.002509221 -0.01939931 0.014729445 -0.023591358 0.03427219
-0.051347703 0.0052270023 -0.03988238 0.022513948 -0.005717092 0.0022808604 -0.056477867 0.0063051167
0.0023484323 0.00026410198 -0.0048015066 0.011462119 -0.008251633 -0.019324617 -0.012901077 -0.039967276
-0.0009145348 0.027321426 -0.054099157 0.0046304697 -0.06064156 -0.037309557 -0.03215096 -0.014687101
0.021941751 -0.02159956 -0.007265168 -0.032299016 -0.049153283 -0.023073649 -0.009862485 0.013169282
-0.06523158 -0.025105925 -0.01446713 0.030820351 0.0067090364 -0.01862841 -0.0133433705 -0.04781817
-0.037448287 -0.019190917 -0.0045065037 -0.005435667 -0.034430176 0.0063500404 -0.006745524 0.008543668
-0.05509418 0.006874228 -0.0148322 0.013888543 -0.012855114 -0.013503028 -0.032599326 0.011729166
-0.060890272 0.0019636373 -0.011378998 0.04700084 0.011428522 -0.022407306 0.0015694057 -0.00552445
-0.024618449 -0.0050019245 -0.005196918 -0.005203311 0.012051707 -0.014507658 0.00870408 0.012900127
-0.01861421 -0.0194321 -0.032042067 -0.038474128 0.028052114 -0.038848303 0.030937403 0.023703158
0.022760756 -0.023898577 -0.015162527 -0.020836597 0.01255473 -0.027725402 -0.028737428 0.015139238
-0.00824919 -0.014333596 0.021977194 -0.046096507 -0.0066289506 -0.018006507 -0.0009325598 -0.062461987
-0.056074955 -0.050915077 -0.03067365 -0.0019794258 -0.049305383 -0.011756634 -0.032152988 0.021257244
-0.024954842 -0.047212698 -0.0027498933 -0.025933918 -0.02261199 0.036381032 -0.04232289 -0.04136642
-0.033130854 0.0014915651 -0.042109296 -0.0018288792 -0.008417358 0.0006707859 0.018053854 0.003990208

running_mean f4 [200]
00000000: 9537 c73b 1782 733e f97d 853e f97c 6f3e
00000010: 037a 013e 8ec3 e83d f113 223c 8992 b23e
00000020: dd8f 043d cef4 da3d d3a1 bb3d 0f9e 6b3d
00000030: 8236 9b3e 3da0 573e aefc fb3d 5175 f63c
00000040: 9199 2f3e 3c83 873e 1733 5c3e 66a7 0c3e
00000050: 0c42 263e 8759 bb3e d2e9 833d 3d09 a83e
00000060: 971b 473d 6150 503d 07e4 cb3e d754 973e
00000070: 68b7 4b3e 7aed ac3d 7ef9 033e a562 c23e
00000080: 75de 553e 6cad 1b3e 1e78 613e 1ce9 973e
00000090: 77fc 3f3e d078 c13e 839a 493e 20d9 593e
000000a0: 72fb f43c 06c9 283e 725b 9e3d fd1a 983e
000000b0: bd89 6e3e bd2c 263e e057 8e3e e1e9 843e
000000c0: 9553 123e d2ab 513c e207 8f3e 6965 df3e
000000d0: 3e03 2c3e 78e0 863d 9978 963e d46d 3e3e
000000e0: 662c b43d 1191 7b3e c479 633e 69e6 253e
000000f0: 68ce 4c3e 27e9 393e 10b5 3e3e 5895 023e
00000100: dc1b 763e 7c2b dd3c a19e fb3c 8c0a c33d
00000110: d260 8a3e 8bdc d73e 8719 793e 2b3d e33d
00000120: a657 313e ff16 ba3e ce38 c43e 8fb8 c63e
00000130: acdb ab3d 59d1 8d3e e82c 1e3d 002e 4d3e
00000140: 45c4 973e b88f c73e f240 ab3e df60 a23e
00000150: 96ca af3d 66ec 4d3d 8384 4c3d 28ff 1a3e
00000160: 0214 263e 5a65 3f3e ec84 283e 3271 643e
00000170: 4246 a13e fe3d 2c3e 0ff3 a03e 9856 513e
00000180: cf0b 673e 1994 a43d 20ad 7d3e 0922 403e
00000190: d0aa d33e 46f7 973e 574f 0b3e 7e81 af3d
000001a0: e8bd 9a3e 6136 483c 149a 743e ce5d 7a3e
000001b0: 2a38 923c d1a4 743d bc1a ff3d 3189 843e
000001c0: 9fd8 443e cae0 cb3e 0767 9a3e 6c3b 893e
000001d0: 666b 993d d0b6 963c 984a 873d b804 f23d
000001e0: 6ae9 2d3e fedd 953c 9c6c 1b3e 80d9 543e
000001f0: 5d40 9c3e 4538 433e 2dcd 953d d0ac 193e
00000200: 59df e33d 3ab1 853e 1304 823d 59e2 ad3d
00000210: e29b 523e b842 9a3c 4bcf a03e 1b87 103d
00000220: de62 e43b 6f68 023d 2376 993d a246 8f3e
00000230: ac34 d53e 1a69 903e 4f94 d53e 1e96 f43c
00000240: e87c 913e a6d4 193e bd85 993e b6a8 183c
00000250: 94fc 1e3e d4cf 793e 3476 973e 16c3 893e
00000260: 918d 7e3d 550e 793e 661b 753e 9ac4 9c3e
00000270: 7ac8 8d3e f765 7d3e 8ea1 903d ac78 083e
00000280: 4469 863d 40a7 8c3d d2a9 923e 2df3 8b3e
00000290: 3744 453d 1533 253c 5a70 183e bc7f 313e
000002a0: 0201 923e 3a57 c53c 8ffa c53e 468f 033e
000002b0: 86a6 cb3e 58a9 213e 5f0c 933e 02c9 8e3e
000002c0: 903b 0d3d f9b3 113e 2d3b b43e 74d9 833e
000002d0: f3e7 4e3d 3c09 833d 38ab a03e 7bcc fd3d
000002e0: 2953 5d3e 6eb1 253e 6439 8a3d 787a 923d
000002f0: 20a9 853e a610 6f3e 0e3b b33e 4be7 993e
00000300: 10ba 633e d998 b13c b333 663e eace 343e
00000310: 6fe9 3a3e 8c24 163e 3863 463e cb97 de3b
0.006079624 0.23780094 0.26072672 0.23387517 0.126442 0.11365424 0.00989245 0.34877422
0.03236376 0.10691224 0.09161725 0.057523783 0.30315024 0.2105722 0.12304054 0.030085238
0.17148425 0.2646731 0.21503864 0.13735732 0.16236132 0.3659174 0.06441082 0.32819548
0.048610296 0.050857905 0.3982241 0.29556915 0.19894183 0.084437326 0.12888142 0.37965885
0.20885642 0.15202874 0.22018477 0.29670036 0.18748651 0.37787485 0.19687848 0.21274233
0.029905055 0.16482934 0.077322856 0.2970809 0.2329473 0.16228004 0.27801418 0.25959685
0.14289697 0.012797313 0.27935702 0.43632057 0.16798112 0.06585783 0.29388884 0.18596584
0.08797531 0.24567057 0.22214419 0.16201176 0.20000613 0.18155347 0.18623757 0.12752283
0.24034065 0.026998274 0.030715289 0.09523496 0.27026993 0.42160448 0.24326144 0.11095651
0.17318591 0.3634567 0.3832459 0.38812682 0.083915085 0.27698782 0.038617045 0.20037079
0.2964193 0.38976836 0.33447987 0.31714532 0.08583562 0.050274275 0.04993106 0.15136397
0.1621857 0.18691006 0.16456956 0.22308806 0.31498915 0.16820523 0.3143544 0.20443189
0.22563098 0.0803606 0.24773073 0.18762983 0.41341257 0.29680842 0.13604484 0.085696205
0.30223012 0.012219996 0.23886901 0.24449846 0.017849047 0.059727494 0.12456271 0.2588592
0.1922326 0.39819938 0.3015673 0.26803148 0.07491188 0.018397719 0.066060245 0.11817306
0.16983572 0.01829433 0.1517815 0.20786095 0.30517855 0.19064434 0.07314525 0.15007329
0.111265846 0.26111776 0.06348433 0.08490438 0.20567277 0.018830642 0.31408152 0.035285097
0.0069697937 0.031837877 0.07493236 0.27983576 0.41641748 0.28205186 0.41714713 0.029856738
0.28415608 0.15022525 0.29984847 0.009317568 0.15526038 0.24395686 0.2958237 0.2690665
0.062146727 0.24321873 0.23936233 0.30618745 0.27692014 0.24745928 0.07062064 0.13327283
0.065630466 0.06867838 0.28645188 0.27333966 0.048160758 0.01008298 0.14886609 0.17333883
0.28516394 0.024089444 0.38667724 0.12847623 0.39775485 0.15787256 0.28720376 0.27887732
0.03448063 0.1422881 0.35201398 0.2575184 0.050514173 0.06398246 0.3138063 0.12392517
0.21613754 0.16180965 0.06749228 0.07152265 0.26105595 0.23346195 0.35005993 0.30059275
0.22238946 0.021679329 0.22480659 0.17657056 0.1825311 0.14662379 0.19373786 0.0067929975

running_var f4 [200]
00000000: 28ac 453c b9f0 e23d bed6 393e 29eb 173e
00000010: 812b 543d 7085 0d3d 5b3a 483c 4cfe 653e
00000020: cbe8 6e3c e6f7 023d 6005 073d 6bd0 a53c
00000030: afeb 763e 72e0 fa3d efe7 4b3d 923d 5e3c
00000040: 34cd 813d 5fa6 093e a054 023e 8fce 713d
00000050: 6bbc 6d3d d8ea 7b3e 0bc3 b63c 5e0e 4d3e
00000060: 8467 923c ad16 873c d20d 943e 654f 6b3e
00000070: 61ad e23d 17a7 f33c 3783 5a3d 8d21 873e
00000080: 272a f73d a588 8e3d ca10 083e 180b 6d3e
00000090: 3503 cc3d f2eb 853e db45 a33d ac8a ba3d
000000a0: 7dc9 5d3c 3b34 a33d 46b3 b73c 2299 6d3e
000000b0: a0c4 163e 9e04 9f3d 4f9a 163e fbdf 043e
000000c0: 12d0 803d 12da 4a3c eff2 173e b582 b03e
000000d0: ff26 7b3d e125 a03c 55db 263e ad39 c93d
000000e0: cad9 d03c 635d 263e 0b40 0a3e ca96 9e3d
000000f0: f2b7 a73d 107f 8e3d 72ae c93d 7b87 253d
00000100: 5050 e73d 4aff 623c 3445 5f3c c306 e43c
00000110: 2d03 0f3e f735 a53e 0b5e 233e 7500 2f3d
00000120: fde2 833d a5b6 783e f793 893e b9f2 8c3e
00000130: 42f2 c63c f427 503e c5ed 6e3c 9a79 e53d
00000140: af99 6c3e 1e18 8e3e 9182 543e 6d89 863e
00000150: 7c92 cb3c 52c7 953c 2719 953c 4b80 8d3d
00000160: 936c 6d3d 91f6 ca3d 02ec 723d c4ac ca3d
00000170: 43d9 3d3e 4797 7b3d dd4a 843e b5f8 ed3d
00000180: 77bc ce3d e1a2 be3c 0ff7 283e 7d34 cc3d
00000190: 7a16 9f3e 0df0 293e b727 6e3d bddd f73c
000001a0: 307e 753e 4e44 4a3c cdf2 1d3e 5cea 243e
000001b0: 9e3d 513c 7135 953c cf92 4f3d a533 043e
000001c0: e144 d53d c409 943e 1809 2f3e 0aa8 433e
000001d0: faee d43c dfda 4d3c b08a a03c d400 153d
000001e0: 4696 7f3d 84d0 4d3c c02d 8e3d e330 b33d
000001f0: e90f 7a3e be10 d23d a4a9 cf3c 2ea1 8b3d
00000200: c4ac 2f3d 5d57 3a3e ab80 b43c c765 c93c
00000210: e790 f03d b2a4 523c aad4 3c3e 47fd 763c
00000220: 8da0 453c 434c 6d3c 03b0 b23c d76b 183e
00000230: b251 a13e 22a4 1a3e 1edd a13e 3c79 683c
00000240: ad70 5a3e 28ca 8b3d 4c30 2d3e 31b1 463c
00000250: 69b1 933d 1139 243e 8fbe 6b3e ed17 453e
00000260: 3714 b13c 3c46 ec3d d89e e53d 9da7 7b3e
00000270: dc82 153e cea0 283e 63f1 c73c fd21 663d
00000280: 7bd1 b93c f16d c23c 78c2 5d3e 6209 4b3e
00000290: b77d 913c ea13 473c 5cb3 893d cb0c 843d
000002a0: 46e8 5b3e 87ba 5b3c 98f1 8b3e 27a1 593d
000002b0: 2eb8 933e 227a 633d 1edb 5e3e 6175 173e
000002c0: 52a0 743c 27f1 7f3d 550d 6a3e 3c95 353e
000002d0: 7ea4 863c cf04 b63c 0385 3c3e eefa 1e3d
000002e0: 8cba bf3d d771 6c3d cfbc bf3c fc95 ca3c
000002f0: 9847 3a3e f6a8 db3d 6798 673e f4fc 2d3e
00000300: 8690 0a3e b59c 513c 2d49 0d3e 5fbf b73d
00000310: 7ebc c23d aff7 4a3d 491f d83d 160a 463c
0.012064971 0.110810705 0.18148324 0.148358 0.0517993 0.034551084 0.012220944 0.22460288
0.014581869 0.031974696 0.03296411 0.020240983 0.24113344 0.12249841 0.049781736 0.013564484
0.063379675 0.13442372 0.12727594 0.05903488 0.058041018 0.24601305 0.0223098 0.20025012
0.017871626 0.016490305 0.28916794 0.22979505 0.11068226 0.02974276 0.053347792 0.26392785
0.12068587 0.069596566 0.13287655 0.23148763 0.09961549 0.26156574 0.07972308 0.09108481
0.013536808 0.079689465 0.022424351 0.23202947 0.14723444 0.077645525 0.14707302 0.12976067
0.06289686 0.012381094 0.14838766 0.34474722 0.061316486 0.019549312 0.16294606 0.09825454
0.025494475 0.16246562 0.13500993 0.077436045 0.08189382 0.06957829 0.09847726 0.040412407
0.11294615 0.013854811 0.013627339 0.027835255 0.13966055 0.32267734 0.15953843 0.042725045
0.06439779 0.24288423 0.268707 0.27528933 0.02428544 0.20327741 0.014583056 0.11204834
0.231055 0.27752775 0.20752932 0.26276723 0.024850123 0.01828352 0.01820047 0.069092356
0.057964873 0.0991031 0.059307106 0.09896234 0.1853991 0.061423566 0.25838366 0.11619703
0.100945406 0.023271026 0.16500495 0.09970949 0.31071836 0.16595478 0.058143344 0.0302571
0.23973918 0.012345387 0.15424652 0.16105026 0.012771038 0.01821396 0.050677117 0.12910326
0.10413528 0.289137 0.17093313 0.1910707 0.02599286 0.01256439 0.019597381 0.036377743
0.06239917 0.012561921 0.0694232 0.08749559 0.24420132 0.102570996 0.025349446 0.06817852
0.04288937 0.18197389 0.02203401 0.024584664 0.11746388 0.012856649 0.184405 0.015075034
0.012062204 0.014483514 0.021812445 0.14884888 0.3150764 0.15101674 0.31614012 0.014189061
0.21332045 0.068256676 0.16912955 0.012127207 0.07211573 0.16037394 0.23021911 0.19247408
0.021616085 0.11536834 0.11211938 0.24575658 0.146007 0.16467592 0.024407094 0.056184758
0.022682896 0.023734065 0.21656215 0.19827798 0.01776014 0.012150744 0.06723663 0.064477526
0.21475324 0.013411171 0.2733276 0.053132202 0.28851455 0.055536397 0.21763274 0.1479087
0.0149308015 0.06248584 0.22856648 0.1773271 0.016435858 0.02221909 0.18410115 0.038813524
0.09361753 0.057725754 0.02340546 0.024729721 0.18191373 0.10725586 0.2261673 0.16991025
0.13531694 0.0127937095 0.13797446 0.08972048 0.09508608 0.049552616 0.10552842 0.012087366

weight f4 [100, 200]
00000000: 3266 733c a68f 323d 27f0 29bd 97c3 f0bc
00000010: 5c3a c9bc 5018 6a3d 13e2 96bc e7c2 6c3d
00000020: dbd0 293d e8ca 3d3b e974 3b3c 8ce5 e3bb
00000030: 2b9c eb3c bb8f 88bc e16d 653c dff8 b23b
00000040: 49bb 5ebd 4d63 12bd bc91 903d 945b 42bd
00000050: b341 853b 02cc a03d 674f de3c 7024 813c
00000060: f876 4dbd 0468 013d f2f5 51bd 9e22 293b
00000070: 7df5 8cbb df81 4d3c 89c2 bb3c 9600 803d
00000080: d7bb 1e3c fdb5 ac3d d9ed 3a3d 303b e0bc
00000090: 1e27 403d 619f 3bbd 8b6a c5bc 4ff9 723c
000000a0: 27fc ee3c 1c9d 853d f4f3 aebc d1ae 823c
000000b0: c759 143d 8e28 65bd 4100 633d a6de 78bd
000000c0: c5b8 ba3c 9913 f03b f8ec ffbc fa11 f93b
000000d0: b23a 613d 148d aabc 663a 26bd 69f0 a1bc
000000e0: deae 8dbd f5c0 4f3d 4060 b3bc ef26 d6bc
000000f0: f931 21bd 270e 343d e681 4a3d 1652 523d
00000100: 53c8 c23c d72d eebb c30c b7bc 2915 8c3c
00000110: 9a40 7c3d c422 903c 5a42 92bc 2073 85bc
00000120: cdca 87bd 56b6 263c 139e 4dbd 71d8 7bbd
00000130: 1ddb 643d a757 00bd b2ac 40bc 0397 303d
00000140: 37d0 f03c 7adb 26bd f389 65bd 4e24 8a3d
00000150: e492 a43c b21e a13d 3000 44bc 4a02 413d
00000160: 4f93 70bc 0bf4 363c 1645 47bd a80d f83c
00000170: 81e1 8c3c 15cd feb8 60ca 063b 9857 9dbc
00000180: 710e 323d 9f5b 5cbd 89b2 2b3d fcad 9abc
00000190: 00c3 eabc fb0e 833c 9ad4 e4bc 32ec 193d
000001a0: dba2 283d d644 28bd 08ae 9d3c 8443 353d
000001b0: 3b46 183d 7084 53bc ee11 1abd 2778 72bb
000001c0: 87f6 293d f3e9 bdbc 77a1 e43c 9c10 353d
000001d0: a5bf c1bc ae48 0fbb 296d 1a3d 4261 173c
000001e0: ef17 103a da40 8e3b 09b3 d8bc f91a e03b
000001f0: 69e2 5a3d 56ad 803d 409e 743d 47c8 013d
00000200: 41da 4f3d b58a 96bc 640a 25bd 142f 60bd
00000210: 35f2 b23d 46ed 893d 821d 52bd 102d 2e3d
00000220: 0ef2 4f3d ae97 7b3d 61e3 6d3d 998f 853d
00000230: 7351 aebc f904 8cbc 1923 7d3d af1e 623d
00000240: a8e3 c6bc bcaf ae3d 305a 073d 6b30 703d
00000250: e388 c8bc 17f1 343d 0b85 c8bb 7292 793d
00000260: 3c00 403b 983b 0a3d a098 433c e039 583d
00000270: 583c cebc 395d 4c3d 6d1c d6bc b3f3 343d
00000280: 81d2 59bd 4ea1 65bd 0dfa 2cbd 3c1a 973d
00000290: ea39 623d e565 8b3d 25ba 953d 43e1 84bd
000002a0: ecd7 f0bc b794 0f3c 5239 10bd e16f 843d
000002b0: 2628 51bd 8681 fbbc e071 72bd bc9a 43bd
000002c0: 6473 893d 2249 8a3d c976 583d 6f62 9c3d
000002d0: 6d4f 8c3d 509c ba3b b4f8 f43c 1295 7d3d
000002e0: 130d d63c aaf1 b03d 11cc 5f3d cf81 843d
000002f0: 7779 5fbc da1f 093d 9463 343c 1e11 bfbc
00000300: 3597 0ebd a41a 23bd 5270 1fbd 7404 863d
00000310: d453 8c3d 0bd0 42bc 2475 a4bc bfd1 923d
00000320: f3b9 8c3d c985 12bc abae 6abc e892 903d
00000330: 3232 103d aaa6 9cbd bc2f c43d 633e 023d
00000340: 5355 95bc 9f7d 923c 163c 02bc d594 173c
00000350: f924 7f3d 66b0 2e3d ba1c eabc 89c5 30bd
00000360: 7691 5dbd c16d f3bc 462e 8b3c e0e4 ba3d
00000370: 51ec 0cbd c5b5 96bd 01b8 4a3d d7ee 5b3b
00000380: 26e0 443d d03c c0bd 2190 f2bc 80a8 58bd
00000390: 246d 99bc 3ac1 423c 6ae7 4bbd 4069 05bc
000003a0: a067 bf3d 40bc 5bbb ca8f 83bc 2330 e1bc
000003b0: 8b2e fc3c a38d a8bd c414 b1bb a0a2 abbd
000003c0: a3a3 d6bd 68a3 51bd adfa 21bd 64c4 703d
000003d0: 66c8 ddbc 637c 8f3d 5009 24bd 92ac 943b
000003e0: 5880 f2ba ac53 4ebd 6a55 f73c 31c3 833c
000003f0: f1b9 073d edc4 983c 4d34 9ebd 8df0 ab3d
0.014855908 0.043594025 -0.041488793 -0.02939014 -0.02456396 0.057152092 -0.018418347 0.05780306
0.041458946 0.0028960053 0.011441448 -0.0069548544 0.02876099 -0.016670099 0.014003248 0.0054617967
-0.054377828 -0.03573923 0.070590466 -0.047450617 0.00406667 0.078514114 0.027137471 0.015764445
-0.050162286 0.031593338 -0.051259942 0.0025807987 -0.0043017254 0.012543171 0.02291991 0.06250112
0.009688339 0.08433149 0.045636985 -0.027371973 0.046912305 -0.045806292 -0.024098655 0.014829948
0.02917297 0.06524107 -0.02135656 0.0159525 0.03621843 -0.05594688 0.055420164 -0.06075921
0.022793183 0.007326555 -0.031240925 0.00760102 0.054987617 -0.020819224 -0.040583037 -0.019767957
-0.06918119 0.050721128 -0.021896482 -0.026141612 -0.0393543 0.04395881 0.049440287 0.051347815
0.023777163 -0.007268648 -0.022344952 0.017099934 0.061585046 0.017594703 -0.017853905 -0.016290247
-0.06630478 0.010175308 -0.05019958 -0.06148571 0.055873025 -0.03133359 -0.011759924 0.043112766
0.02939616 -0.040736653 -0.05603976 0.06745206 0.020089574 0.07867183 -0.011962935 0.047121324
-0.014683559 0.011166583 -0.04864987 0.03027995 0.017197372 -0.00012149863 0.0020567402 -0.019206807
0.043470804 -0.053798314 0.04191831 -0.01888179 -0.028657436 0.015998354 -0.027933408 0.03757877
0.041170936 -0.041081272 0.019248024 0.04425384 0.037176352 -0.0129099935 -0.037614755 -0.0036997886
0.041494872 -0.023182845 0.027909024 0.044205293 -0.023650954 -0.0021863389 0.03770176 0.009239497
0.00054967304 0.004341227 -0.026452558 0.006839153 0.053438578 0.06283061 0.05972123 0.03168514
0.050745253 -0.018376688 -0.040293112 -0.054732397 0.087376036 0.067347094 -0.051297672 0.042523444
0.05076795 0.06142395 0.058078174 0.0652153 -0.021279072 -0.017092215 0.06180105 0.055205043
-0.024278477 0.085296124 0.033044994 0.058639925 -0.024479335 0.044175234 -0.0061193756 0.060930677
0.0029297015 0.03374824 0.011938244 0.05278957 -0.025175259 0.04989359 -0.026136601 0.044177722
-0.053179268 -0.056062035 -0.042230655 0.07378051 0.055231012 0.06806544 0.07310895 -0.06488278
-0.029399835 0.008763484 -0.035210915 0.06466652 -0.05106368 -0.03070141 -0.05919063 -0.047754988
0.06711462 0.0675223 0.052847657 0.07635962 0.06851087 0.0056949034 0.029903747 0.061909743
0.026129281 0.08639844 0.054637972 0.064700715 -0.013639799 0.03347764 0.011010069 -0.023323592
-0.03481217 -0.03982033 -0.038925476 0.06543818 0.068519264 -0.011890422 -0.020075388 0.07168912
0.068714045 -0.00894303 -0.014323871 0.0705927 0.03520412 -0.07648976 0.09579417 0.031797778
-0.018229162 0.017882166 -0.007948896 0.009251793 0.06229112 0.042648695 -0.028578151 -0.043157134
-0.0540938 -0.02971542 0.016989838 0.09125686 -0.034405056 -0.073588885 0.049491886 0.0033559108
0.048065327 -0.09386599 -0.029609742 -0.05289507 -0.0187288 0.011886889 -0.04978124 -0.008142769
0.09345937 -0.0033528954 -0.016059775 -0.027488774 0.030783912 -0.0823014 -0.005404087 -0.08380628
-0.1048043 -0.051181227 -0.039545704 0.058781043 -0.027073096 0.07006147 -0.040047944 0.0045371735
-0.0018501384 -0.050372764 0.030192096 0.016084285 0.033136312 0.018648589 -0.07724819 0.08395491

weight f4 [100]
00000000: 1784 823f a912 7a3f 80c0 753f dd94 803f
00000010: 2752 823f 76cc 773f f8a1 733f 7e2c 743f
00000020: f696 793f 834d 7b3f 11de 753f e46f 823f
00000030: d0db 813f 0930 813f ba48 7b3f dfa4 833f
00000040: 654c 7c3f 9cf9 793f a807 783f fadf 783f
00000050: 36dd 803f 1e3c 643f 5858 7f3f 678e 823f
00000060: 41c4 7c3f f0f1 7e3f b4c2 7c3f ffd9 753f
00000070: e5d6 753f 5ebf 763f fb25 7a3f 5c36 823f
00000080: 08c6 7e3f 76f7 7c3f 5ff7 7b3f 5852 803f
00000090: d38b 7d3f 62a6 803f 2a21 7e3f 0017 7f3f
000000a0: 0de5 6a3f 284b 7e3f 92e0 773f 6661 763f
000000b0: fd07 7e3f b586 783f 7e4d 7c3f 1e5f 7b3f
000000c0: a72b 7d3f 4fb2 813f c019 743f a10c 7b3f
000000d0: dc9c 7d3f e9ca 7f3f 4447 793f 715d 7b3f
000000e0: f000 793f b7c3 7f3f a2a3 783f e845 773f
000000f0: 178b 813f d92c 783f c674 7b3f 7f15 753f
00000100: 043e 843f 84d9 793f 79f9 7c3f 0f82 803f
00000110: 7599 763f c7df 753f 4571 763f 2998 7c3f
00000120: cf85 6e3f 72dc 7e3f a64a 763f 336e 793f
00000130: 7bdd 7c3f d685 793f 35eb 713f 775d 7c3f
00000140: e379 733f 3f14 803f 0148 7c3f 2a60 7a3f
00000150: 7647 7a3f a5ba 753f e94e 7e3f f26c 793f
00000160: a4d4 773f 748d 7f3f 80a9 7e3f 787c 793f
00000170: ea40 783f d0bf 7a3f 1856 773f 9313 7d3f
00000180: 0583 803f cbc6 783f 2e18 783f d705 6d3f
1.0196561 0.97684723 0.95996857 1.004543 1.0181321 0.9679636 0.9516902 0.9538039
0.97495973 0.9816515 0.9604197 1.0190396 1.0145206 1.0092784 0.98157847 1.028469
0.9855407 0.976465 0.9688668 0.9721676 1.0067508 0.8915423 0.99744177 1.0199708
0.9873696 0.9958792 0.98734593 0.9603576 0.9603103 0.96385753 0.97714204 1.0172839
0.9952092 0.98815095 0.98424333 1.0025129 0.9904148 1.0050776 0.99269354 0.9964447
0.91755754 0.9933343 0.9682704 0.9624237 0.9923094 0.97080547 0.98555744 0.9819201
0.98894733 1.013254 0.9535179 0.98066145 0.99067473 0.9991899 0.9737437 0.98189455
0.97267056 0.9990801 0.97124684 0.96591043 1.0120572 0.9694343 0.9822506 0.95735925
1.0331426 0.9759753 0.98818165 1.0039691 0.96327907 0.9604458 0.96266586 0.9866968
0.93172926 0.9955512 0.96207654 0.97433776 0.9877545 0.9746984 0.9449952 0.98580116
0.9510786 1.0006179 0.9854737 0.97802985 0.9776529 0.9598792 0.9933916 0.9743186
0.9680884 0.99825215 0.99477386 0.9745555 0.9697405 0.9794893 0.96615744 0.9885799
1.0039984 0.97178334 0.96911895 0.92587036

bias f4 [100]
00000000: b4a5 75bb 72f1 5c3c 291e c03c 5030 34bc
00000010: 9c5e b8bc bd6d 183d e266 e43c 7b39 18bd
00000020: 682b ea3b 5633 acbb 0a83 513c 9f9e 98bc
00000030: 1871 403c 46b0 f0bc e644 c13c 93e0 3fbc
00000040: d4c0 133c 1bb5 313c e99c 823c ee49 b53b
00000050: 1890 9f3c b2e4 d53c f12e 8cbc 06a9 b6bc
00000060: ed68 79bc e742 99bc 9eae cfbc dab9 0f3d
00000070: 5f09 013d 25da 863b 2c68 d23c 24c8 a3bb
00000080: b1ed 0fbd b30b e2bb 7357 cb3c 26d6 413c
00000090: 9b0f 153d e7ef dbbc aa91 3b3d ad24 d3bc
000000a0: aa56 493d 5c02 42ba 4116 c33c 2060 aa3c
000000b0: e071 a2bc 65e5 80bb f736 c2bc 8e35 33bd
000000c0: d3e2 a23c 66fb 9cba d9ae 2f3b c763 923b
000000d0: 4351 a3bc 83d1 af3c c0cf 95bc c6ad 533c
000000e0: b4c8 9b3c 7f90 e1bc 2df1 eebb 8230 0a3c
000000f0: 9449 8e3c 8c31 d73c e44f 81bc bdcc 923b
00000100: 351b 0d3c bb17 943b 52e1 14bc 01e9 d53b
00000110: 0c57 f3bb d1cd 84bc ef5c 18bd a2bd 953c
00000120: 442b f93c 2017 b9bc 9fe1 b93c bde2 cb3c
00000130: 05cf 11bd cbac 1dbd 13c7 a6bc 59de 1a3c
00000140: f77b 91bc 648c a2bc c46a 08bd 41e0 ae3c
00000150: 4b47 f83c 4cd7 f73b 4dd5 6fbc 9716 903c
00000160: 83e5 e03c 2be1 17bd 86a3 c73c 0097 243c
00000170: d90c 99bc 7c0f 6a3c b988 c83b 9836 a53b
00000180: b6f8 4abc 572d 283c 1b14 3d3d d7ff f03c
-0.00374828 0.013485299 0.023451881 -0.010997847 -0.02250605 0.03721403 0.02788109 -0.037164193
0.0071462877 -0.005255143 0.01278759 -0.018630324 0.011745714 -0.029380929 0.023592424 -0.0117112575
0.009018142 0.010846402 0.015943961 0.0055324947 0.019477889 0.026110027 -0.017112227 -0.022297394
-0.01522277 -0.01870866 -0.025351819 0.03508935 0.031503078 0.0041153603 0.025684439 -0.004998224
-0.03513879 -0.0068983673 0.024821972 0.011830842 0.036391836 -0.026847793 0.045793213 -0.025774324
0.049154915 -0.0007400864 0.023814322 0.02079779 -0.01982969 -0.003933596 -0.02370785 -0.043752246
0.019883549 -0.0011976778 0.0026807098 0.004467461 -0.01993621 0.021462208 -0.01828754 0.012919849
0.019016601 -0.027534721 -0.007291934 0.008434417 0.01736907 0.026268743 -0.015785165 0.004479973
0.008612444 0.0045194305 -0.009086924 0.0065280204 -0.0074261483 -0.016211422 -0.037198003 0.0182789
0.030416138 -0.022594035 0.022690592 0.02488839 -0.03559782 -0.038494866 -0.020358598 0.009452426
-0.017759306 -0.019842334 -0.033304945 0.021347167 0.030307433 0.007563507 -0.014638257 0.017588897
0.02745319 -0.03707997 0.024369966 0.010045767 -0.018682884 0.014285918 0.0061198142 0.0050419085
-0.012388399 0.010264716 0.046161752 0.029418869

running_mean f4 [100]
00000000: 9bf3 193f 5720 d53f 4f50 bd3f ab02 833f
00000010: f03e 9d3f d53e 073f ac1a 023f 0081 c23f
00000020: 656f 5e3f 075a 303f 66a3 7f3f 3edc 893f
00000030: 67b5 893f cd70 bf3f d836 ab3f add1 7f3f
00000040: a3c8 0740 534a a73f 74df 823e 361c 3b3f
00000050: 321d 623f bcce 753f 9890 3e3f 6c13 893f
00000060: 8212 cb3f d7e6 183f 7140 903f 0d33 a53f
00000070: 09ee 953f 59eb c93f 681a dd3f 8c17 6a3f
00000080: 3b4a b03f 08e6 703f 2244 7a3f 38bb ad3f
00000090: 0ddb b23f 39c8 953f 8bff 503f 3fa5 5d3f
000000a0: a40a 843f fb33 993f ef53 413f 4f26 903f
000000b0: 8185 553f a402 9b3f 36a2 2e3f d214 653f
000000c0: 60c8 c63f 0c53 823f d361 6c3f 483f 8b3f
000000d0: d23f 843f 14f9 853f 0483 ba3f e8f5 563f
000000e0: d84d a13f 16bd af3f 457b 9f3f e665 7d3f
000000f0: 1403 433f f87d d13f 6048 c23f bb90 cc3f
00000100: 0cdf 523f 6deb 593f 5a0e 333f 0d2e 7d3f
00000110: 957a 8a3f b3b8 773f ba19 5e3f 120f a73f
00000120: afc1 683f 5ff8 a63f 025d d93f e50a b63f
00000130: 7cf7 5f3f 326b 523f cc6d 853f 8498 be3f
00000140: 5f4e 813f 3147 483f 3320 663f df02 b23f
00000150: a6f7 8e3f 9bec d93f 385d a23f edd1 c43f
00000160: 3f4f 4d3f bcec bc3f 9add 6b3f 0946 d33f
00000170: 6d63 943f f9ab c63f e5b5 b53f 488e 883f
00000180: 6494 d23f 6e05 d23f 6f1f 7b3f 08bf e63f
0.6013734 1.6650494 1.4790133 1.0235189 1.2284832 0.5283025 0.5082195 1.5195618
0.86888725 0.6888737 0.998587 1.0770338 1.0758485 1.4956299 1.3376112 0.99929315
2.121621 1.3069557 0.25561106 0.7308992 0.883258 0.96018577 0.7443938 1.0709052
1.5865023 0.59727234 1.1269666 1.2906204 1.1713268 1.5774947 1.7273684 0.9144218
1.3772653 0.94101 0.9776021 1.357276 1.3973099 1.1701728 0.8163993 0.8658027
1.0315747 1.1968988 0.755187 1.1261691 0.83406836 1.2110181 0.68216264 0.89484894
1.55299 1.0181594 0.9233677 1.0878687 1.0331976 1.0466638 1.4571233 0.83968973
1.2601881 1.372958 1.2459494 0.9898361 0.7617657 1.6366568 1.5178337 1.5981668
0.8237159 0.85124856 0.69943774 0.9889839 1.0818659 0.96766204 0.86758006 1.3051474
0.9092054 1.3044547 1.6981509 1.4222075 0.87487006 0.8219482 1.0424132 1.4890294
1.0102042 0.7823363 0.8989288 1.3907126 1.1169326 1.7025331 1.2684698 1.5376564
0.80199045 1.4759746 0.9213501 1.6505748 1.1592842 1.5521232 1.4196135 1.0668421
1.6451535 1.6407907 0.9809484 1.8027048

running_var f4 [100]
00000000: 9f09 c13f 55fb 9540 6478 b240 d5fa 5140
00000010: 8bb2 0840 36f4 633f 56fd af3e eedf 0d41
00000020: 485a 0f40 2c2d 8c3f 7b8f 4640 caf3 b63f
00000030: ee19 3f40 98bb 6d40 9069 a340 a246 b33f
00000040: f20f b240 7a7d 5c40 9e2f af3d d098 b23f
00000050: fe37 1240 74ec fc3f a63c cc3f 590c c43f
00000060: 1d06 a740 394c aa3f 49b3 2e40 1577 dc40
00000070: 9fd2 3740 18a7 5140 cc23 e040 b9e0 2140
00000080: f624 f440 16e6 0640 9b25 a73f 6c18 bc40
00000090: 154b a640 3c08 f53f ae72 0840 9e3a 5c3f
000000a0: ec02 1f40 d12e 9f40 6a88 d53f c388 2940
000000b0: 54db 2040 b5e8 0840 c34f e13f a34e 2040
000000c0: a29a ce40 62c3 bb3f ef06 fa3f db85 8e3f
000000d0: 12fb 4c40 1e05 f83f 7088 e140 8196 0c40
000000e0: 1aa6 3740 7a5c bb40 b536 8f40 d585 ed3f
000000f0: fa92 1540 7d3e 8b40 e9c6 ad40 690b b640
00000100: d1bd 0940 e822 0740 f63e d73f f49b 7340
00000110: 2b97 8d40 10e4 7340 457d 0040 1862 1440
00000120: c938 773f b080 a240 02f3 cf40 f1f0 1e40
00000130: 4d89 d63f 3312 8d3f b91c ad3f 1c7d 1841
00000140: 6db4 2c40 8cc2 e63f 4593 3a40 bb4f 0240
00000150: 1824 b53f 4153 1e40 44c9 b940 fb3b ad40
00000160: d062 1d40 bd32 7c40 b543 0b40 8184 8a40
00000170: e8b5 a03f fc3a d140 909a 7b40 8303 3940
00000180: 546d 0f41 917d 1740 c8b9 5640 6f04 ba40
1.5081061 4.68693 5.577196 3.2809346 2.1358974 0.8904451 0.34372967 8.86717
2.2398853 1.0951285 3.1025074 1.4293149 2.9859576 3.7145748 5.106636 1.400593
5.5644464 3.4451585 0.08554004 1.3952885 2.2846675 1.975966 1.5956008 1.5316268
5.2194963 1.3304511 2.7296927 6.8895364 2.8722303 3.2758236 7.0043697 2.529341
7.629512 2.1077933 1.3058351 5.877981 5.1966653 1.9143138 2.1319995 0.8602694
2.4845533 4.974465 1.6682255 2.6489723 2.5133867 2.1392033 1.7602466 2.5047996
6.456376 1.4669001 1.9533366 1.11346 3.202824 1.9376562 7.047905 2.196686
2.869513 5.8550386 4.475428 1.8556467 2.3370957 4.351378 5.430531 5.688893
2.1522105 2.1115055 1.6816089 3.8063936 4.424703 3.8107948 2.0076458 2.3184872
0.9657102 5.078209 6.498414 2.483456 1.6760651 1.1021179 1.352439 9.530544
2.6985123 1.8028121 2.9152386 2.0361164 1.415164 2.4738314 5.8058186 5.413572
2.459156 3.9405968 2.1760075 4.328675 1.2555513 6.5384502 3.9313087 2.8908393
8.964191 2.367039 3.3550892 5.813041

weight f4 [1, 100]
00000000: db84 c93d 4c4e 5ebd dd6c d1bc 9f82 c73d
00000010: 26e5 523d 169f 92bb fd96 db3a 3641 57bc
00000020: 8550 053c abef 8a3d a215 22bc d47a 8c3d
00000030: 64a3 903d 83f2 373d acd0 55bd afaf 8a3d
00000040: 656b 99bc e1f5 39bd 281a 053b 8567 4dbc
00000050: c8eb 0fbd 553e 873b bbe5 a23d b0ef 923d
00000060: e3c0 ff3c 9fb8 443d 1b3f 9f3d 6a65 04bd
00000070: 9b89 31bb 4fa8 1abd ffdf 00bd cf79 803d
00000080: 0836 a33d 2938 013d 3d30 acbc 6ea2 62bd
00000090: e3dc 76bd 8d2f 313d 9e33 9ebd 832e a53d
000000a0: d2dd 393c ade3 853c 9cda fcbc 4b46 96bc
000000b0: 2cf1 023d 7a6b 083c 1b74 273d ec61 4c3d
000000c0: 64a0 71bd af21 dd3d 056b 923b a100 87bd
000000d0: b8c3 4e3d 8609 7abd 73ca 5e3d 8310 0abd
000000e0: df10 b3bc 6c78 3c3d d089 8d3d 4583 24bd
000000f0: 93fe 6b3d b8c7 55bd c24d 8c3d 7ee1 893c
00000100: e4ba b83d 58dc 29bd 6b6b e13c ff49 b13d
00000110: d833 ae3c d78c 003d 6541 0b3d b37e a5bc
00000120: e78e 38bc 4daa b43c 3b8b 2fbd 6068 98bd
00000130: 9403 213d c26f 593d b29d 973b b400 9bbd
00000140: aac7 b83b c19b 9d3d ef32 1a3c 717b 6cbd
00000150: 5ccd 47bc 36b9 e8bc 16e4 973c a245 f7bc
00000160: eefc 81bd fe35 113d 0e63 fdbc 017e 8ebd
00000170: eb72 7d3d 2fc5 a5bc b37b 58bd 39cc 093d
00000180: 2690 b43d 3b22 d2bc c8a6 67bd df0b cc3b
0.09839793 -0.05427389 -0.025564605 0.09741711 0.051488064 -0.004474531 0.0016753372 -0.013138106
0.008136873 0.06783994 -0.009892853 0.06859365 0.07062414 0.04490901 -0.052200958 0.0677179
-0.018727968 -0.045400504 0.002030978 -0.012536888 -0.035136968 0.0041273036 0.07953974 0.07174623
0.031219905 0.04802763 0.07775708 -0.03232328 -0.0027090076 -0.037758168 -0.03146362 0.06273233
0.0796929 0.0315477 -0.021019096 -0.055330686 -0.060269248 0.04325824 -0.07724689 0.08065512
0.01134439 0.016343916 -0.03086596 -0.018344065 0.03196828 0.008326406 0.04088221 0.049898073
-0.05899085 0.1079744 0.004468324 -0.06591917 0.05047962 -0.06104424 0.05439229 -0.033707153
-0.02185863 0.04601328 0.06911051 -0.04016425 0.057615828 -0.05219242 0.068507686 0.016831156
0.090200216 -0.0414699 0.027517041 0.08656692 0.021264955 0.031384315 0.033997912 -0.020202016
-0.011264539 0.022053862 -0.04285739 -0.07441783 0.039310053 0.053085096 0.004626953 -0.075684935
0.005639036 0.07695723 0.009411558 -0.05773491 -0.012194958 -0.028408628 0.018541377 -0.03018457
-0.06347071 0.03545188 -0.030931022 -0.06957627 0.061877172 -0.020235626 -0.052852344 0.033642028
0.08816557 -0.025651088 -0.05655554 0.006227001
