practice/AutogluonModels/ag-20231210_075408/models/DeepAR/W0/gluon_ts/prediction-net-state.pt (torch, 108693 bytes, 11 tensors)

model.param_proj.proj.0.weight f4 [1, 40]
00000000: 8ca9 ee3d ea6a 0a3e de9d ecbd 334e fa3c
00000010: df2f 0dbe debf 8ebd bc15 c8bd 1794 87bd
00000020: 0852 b13d 3824 ea3d 7a9f 0a3e 8669 b93b
00000030: 4673 963c f83d 9fbd 11bc 143d f22e 0cbd
00000040: 939d 5abd 450e 843d 4e09 dabc 66d5 8b3c
00000050: 0dc6 bd3d f672 d9bc a69f 033e d9b4 5bbd
00000060: 7e4b d7bd 1013 393e 8da5 e4bd 0a3c 89bc
00000070: c8df 003d 140b 01be bedc c1bd d5fd ed3d
00000080: ba42 f13d b3ee 4d3d 5ea4 b23d 6a75 3f3d
00000090: 7d60 92bd 8ce3 90bc 6f82 273d 6752 853d
0.11653432 0.13517347 -0.11553548 0.030554866 -0.13787793 -0.069701895 -0.097697705 -0.06620043
0.08658224 0.114326894 0.13537398 0.0056583313 0.018365514 -0.077754915 0.036312167 -0.034224458
-0.05337293 0.06448034 -0.026615765 0.01706953 0.09266291 -0.026544075 0.1285387 -0.053639267
-0.10512446 0.18073678 -0.11164389 -0.016752262 0.031463414 -0.12601882 -0.09465931 0.1162068
0.11780305 0.05027647 0.08722757 0.046742834 -0.0714731 -0.017686628 0.040895876 0.065098576

model.param_proj.proj.1.weight f4 [1, 40]
00000000: d175 88bd 155e 243e c6bf 933c 1f9e 05be
00000010: 474f 18be fd69 ffbc bdcd f13d feeb 2c3d
00000020: abcc 85bc 1e50 06be 79ad c2bd 26fe 0f3e
00000030: 365b 2dbe 7dfc d73d 066c b33d 7064 cebd
00000040: 1414 1bbe 7a81 6a3c 2b50 523c 2724 0b3e
00000050: 2830 063e 80df f4bd e504 dfbd e8d8 07be
00000060: 5f28 9f3d fde4 7d3a da5b 453e d075 723c
00000070: 2dec 343e 01ea 093e ff9a 0e3e 0190 503c
00000080: 77a5 19be 1810 c33d 57cd 03be 7085 83bd
00000090: dcd6 f4bd 7529 d13d e80f 49bd 9f2c 523e
-0.06663097 0.16051514 0.01803578 -0.130486 -0.14873992 -0.031178469 0.118068196 0.042217247
-0.016332945 -0.131165 -0.095057435 0.14061794 -0.16929325 0.10546205 0.08760838 -0.10077751
-0.15144378 0.014313096 0.012836496 0.1358801 0.13104308 -0.11956692 -0.108896054 -0.13266337
0.07771372 0.0009685306 0.1927332 0.0147985965 0.17668219 0.13468172 0.13926314 0.012729646
-0.15004526 0.09524554 -0.128713 -0.064219356 -0.11955044 0.102129854 -0.049087435 0.20524834

model.param_proj.proj.2.weight f4 [1, 40]
00000000: 3535 e53d 204a bebd 0501 113e 7152 a3bd
00000010: 7222 95bd 3837 8ebd 9f02 47be b2af dc3d
00000020: 0e4b febd c68c ba3d fea8 6cbd f872 11be
00000030: d49d 3e3d 1500 ea3d f57b a5bc aabe b5bb
00000040: 894a 053e a67a 06be d87d e83d 3227 073e
00000050: d0e2 103e 7a3b 343b 48d5 91bd 5107 8f3d
00000060: 4f2f c03d ade4 a6bd cd80 073e 5c65 2e3e
00000070: cfde cb3d fb89 a93d d5b5 3cbe dc36 ea3d
00000080: 65b7 41bd c104 4d3d adaf 88bd 7ae1 31be
00000090: 7c15 aabb 4ed9 603d edb8 2a3e 6510 a63d
0.11191789 -0.09291482 0.14160545 -0.07974709 -0.072819605 -0.06944126 -0.19434594 0.10775699
-0.12416659 0.09108882 -0.05777835 -0.14204013 0.046537235 0.11425797 -0.020200709 -0.0055464106
0.13016714 -0.13132724 0.11352128 0.13198546 0.14149022 0.002750127 -0.07120758 0.06983817
0.093840234 -0.08149085 0.13232727 0.17030853 0.09954607 0.08278271 -0.18428738 0.11436245
-0.04729404 0.05005336 -0.066741325 -0.17371169 -0.0051905494 0.054894738 0.16672106 0.08108596

model.rnn.weight_ih_l0 f4 [160, 37]
00000000: 05cc 73bd a6df 923d fd36 2abd f0d5 623c
00000010: 0e1e 9b3d bd49 08be 95c5 ac3d 368c c8bd
00000020: e586 85bd 4d22 c1bd cb67 193e 6147 d03b
00000030: a7c8 67bd ef3d 88bc ab2b e4bd 7941 0e3e
00000040: 4786 213e a6fb 443d 1ab7 0e3e 82b9 073e
00000050: 9f40 893d a94e cf3d 36c7 173e 0d2c bb3c
00000060: 8126 183e 99a5 dfbd e50e 613c dbc2 8c3c
00000070: 26b8 08be 625d a03c 1493 353a ae85 0d3e
00000080: 42ed cf3d 3aea 4dbd 7b77 943d 2605 ccbd
00000090: eb0a 033e 12ee 90bc 31ac c3bd 71d1 013e
000000a0: 8bd9 83bc 0518 7d3d fd25 fabb 4cd7 0c3e
000000b0: 9eb5 02bd 0b5e 833c 392f acbd 9f1c 6f3d
000000c0: ff1b d13c f4ce 22bd acb7 a0bd a1f1 24bd
000000d0: aa8a 8b3d e403 103e 6a34 1f3e 42bb 183d
000000e0: ec0c edbd 272f 083e d029 2939 dbc2 1cbe
000000f0: 19a3 773d 98a4 a2bd e997 5f3d 261f a03d
00000100: 973a c43c 5327 87bb 66a9 723d c44c f3bd
00000110: b693 1dbc 63d3 533d b7b1 b13c 8a27 a23d
00000120: 36bd e83d ac53 1abd 9a43 84bd 69ed d8bd
00000130: be8d e53d 607f a439 3520 153e b635 b1bd
00000140: 55c5 e3bd aa3e cb3b c5b7 96bc c4e8 383d
00000150: e0a7 863d 48e2 a5bd 9b4c 293e 7670 83bd
00000160: 0a6c b5bd 51e8 d23d 6b7d ec3d bc7f 64bd
00000170: f017 793d e683 0b3d 16e6 bbbd 014b cfbd
00000180: ae8e 023d b6a4 39bd 970e db3d 1ea0 d4bc
00000190: d7b7 c03d 5488 b8bd d615 8ebc 3336 42bd
000001a0: c274 08be dc34 1a3e dea4 20bd 3907 023e
000001b0: 951f 843d d05c bd3d ea12 893d 2d23 83bd
000001c0: 9bcb 8f3d 77c7 a9bd e3c9 90bd 0d14 053e
000001d0: 9d74 fcbd 1e82 55bd 6cae 55bd be80 a23d
000001e0: 1496 3ebb 65a5 aabb 6bbc 363d 5adf d3bc
000001f0: a4fd 96bd d36e b8bc 17f5 9a3d 9ce5 0a3e
00000200: cc45 4dbc c6b1 853d 7666 9b3c d861 f1bd
00000210: dd4c 0d3e 021f 70bd cb91 c13d 21f7 91bd
00000220: 4c28 ac3a 3f68 bdbd 5e8d 7b3d 4dcc 2d3d
00000230: 9e41 073e 2b1f 8bbc 07b0 bbbd a1c1 5a3d
00000240: 6eb8 5fbd d1db 643d 6582 dabd 6feb 213e
00000250: ac7f f0bd 3a12 9ebc c56a 213d abf8 7d3d
00000260: 2a36 0a3e 0375 ecbd d0f8 373b 5d88 0b3e
00000270: 2ece 08be a94a cc3d c96c 9b3c 1e83 11be
00000280: 6952 673d ee77 13be f308 efbd 32ea 3ebd
00000290: 44d9 bf3c af27 e2bc 094c ff3b 7f22 f5bd
000002a0: 6008 f3bd 5fe8 2a3e c84f 61bb 81c6 de3d
000002b0: 8bba e73d 6275 c8bd 9556 9dbd 2ca4 14be
000002c0: 1cce 19be ed11 abbd fa57 69bc 6437 103c
000002d0: 7fb5 093e c6d2 263d ada3 043e 4a0f 9e3c
000002e0: 80fd 123e 2275 a9bd 6521 863d b20e e63d
000002f0: 4b1d d73d 8da3 9d3d d855 5f3d 0980 ec3c
00000300: 4e42 f4bd 3e6d 373e 83d3 7f3c 60b2 d53d
00000310: f31e c43d 1358 033e 1d08 233e 4738 96bd
00000320: f611 b2bb b469 183e 1f6c 013e 7bee bd3d
00000330: 5927 053d 6f8b ba3d d925 2bbe 4734 0abe
00000340: 830b bfbd 3df3 43bd 65f5 143e 819f d63d
00000350: 0427 0dbe bc74 e2bd 0515 bf3d caca 03be
00000360: e0b8 07be 0eb2 a2bd 1cff d33d df5f be3d
00000370: 7dd0 e5bc ff7c cebc baba 773d 4a0f 153e
00000380: da9d fabd c6c0 3b3d c03e dc3d 5205 f2bd
00000390: 56e1 13bc 1843 593c 030f 113c 1fc6 1c3e
000003a0: b926 e5bd 448c e63d 80f3 363e c652 91bd
000003b0: ecd5 5cbd 739f 583d c1be 6b3d d162 313d
000003c0: 35f9 aebd 76b6 2f3d cbc5 db3c 54c1 fa3d
000003d0: d5d6 47bd 9a1e 29bd dd6d 0fbe a752 06be
000003e0: ee62 cfbd 1c4b f9bd 628c 10be 4bb2 983d
000003f0: 31a4 3abd 166d 12be 712a 7f3c d0cf 2abe
-0.05952074 0.07171564 -0.041556347 0.013844952 0.07574092 -0.13309379 0.08436123 -0.09792368
-0.0651987 -0.094303705 0.14981 0.0063561653 -0.05658784 -0.016631095 -0.111411415 0.13892163
0.15773879 0.048091553 0.13937035 0.1325436 0.067017786 0.10122425 0.14822087 0.022848153
0.14858438 -0.10920257 0.013736461 0.017182758 -0.13351497 0.019575778 0.00069265184 0.13820526
0.10152675 -0.050272204 0.072493516 -0.099619195 0.12797134 -0.017691646 -0.09554327 0.12677552
-0.016094944 0.061790485 -0.007633923 0.13754004 -0.031911485 0.016036054 -0.084074445 0.058376905
0.025526045 -0.039748147 -0.07847533 -0.040269498 0.068135574 0.14063984 0.15547338 0.037287958
-0.1157473 0.13299237 0.00016132672 -0.15308706 0.060458276 -0.0794155 0.054588232 0.07818441
0.023953719 -0.004124561 0.059243582 -0.11879876 -0.009617737 0.051715266 0.021691186 0.07917698
0.11364214 -0.037677452 -0.064582065 -0.105921574 0.11208676 0.0003137542 0.14563067 -0.08652823
-0.111216225 0.0062025385 -0.018398175 0.045143858 0.06574988 -0.080998 0.16533129 -0.064179346
-0.088584974 0.10298217 0.11547359 -0.05578588 0.060813844 0.034061335 -0.09174745 -0.10121728
0.03187435 -0.045323096 0.10696142 -0.025955256 0.09410065 -0.090103775 -0.017344397 -0.04741497
-0.1332579 0.15059227 -0.03921973 0.12698068 0.06451336 0.09246218 0.06693061 -0.064031936
0.070212565 -0.08289998 -0.07069757 0.1299593 -0.1232693 -0.052126043 -0.052168295 0.07934712
-0.0029081153 -0.005207705 0.044613283 -0.025863338 -0.07372597 -0.022513783 0.075662784 0.13564152
-0.012528848 0.06528048 0.018969756 -0.1178624 0.13798852 -0.05862332 0.09451636 -0.07127214
0.0013134568 -0.09248399 0.061414115 0.042431165 0.13208625 -0.016982635 -0.09164434 0.053407315
-0.054619245 0.055873696 -0.10669402 0.15812467 -0.117431015 -0.0192958 0.039408464 0.062004726
0.13497224 -0.11545756 0.0028071888 0.13626237 -0.13359901 0.09975178 0.018972771 -0.14210173
0.056475077 -0.14401218 -0.11671629 -0.046610065 0.02341903 -0.027606813 0.0077910465 -0.1196947
-0.11866832 0.16690205 -0.0034379829 0.10877705 0.11314877 -0.09788014 -0.0768253 -0.14515752
-0.1502003 -0.083530284 -0.014242167 0.008802269 0.13448142 0.040728353 0.12953062 0.0192944
0.14354515 -0.082742944 0.06549338 0.11233272 0.10503634 0.076972105 0.054525226 0.028869646
-0.11926709 0.17912766 0.015614393 0.10434413 0.095762156 0.12826566 0.15921064 -0.07334953
-0.00543427 0.14884073 0.12638901 0.09274002 0.032508228 0.09108626 -0.16713656 -0.13496505
-0.093283676 -0.047839392 0.14546736 0.10479642 -0.13784415 -0.110574216 0.09330181 -0.12870327
-0.13254118 -0.079441175 0.103513926 0.0929563 -0.028053517 -0.025206087 0.06048081 0.14556614
-0.12237139 0.04583814 0.10754156 -0.11817421 -0.009025892 0.013260625 0.008853677 0.15309952
-0.111890264 0.11257222 0.17866325 -0.07095866 -0.05391495 0.052886438 0.057554964 0.04330713
-0.08543626 0.042898618 0.026827713 0.12243906 -0.048788864 -0.04128895 -0.14006753 -0.13117467
-0.10126291 -0.12172529 -0.14116052 0.07455882 -0.04556674 -0.14299425 0.015574084 -0.16680837

model.rnn.weight_hh_l0 f4 [160, 40]
00000000: ac40 fabd 54cd 05be 35a8 a7bc 48c0 f53d
00000010: da1f 2a3e 6174 0a3e af79 33be c581 e6bd
00000020: 3c5d 173e 8a7a fc3d a17f 623d 0e21 203e
00000030: 8fa4 9c3d 972d b03d 110e ef3d 244c 25be
00000040: 9981 153e f94e cc3d f542 c0bd 3977 22be
00000050: d48e 043d 87d3 10be 7033 b5bb 462b 37bb
00000060: 9a68 cc3c 27b0 16bd b4e2 18be e077 73bc
00000070: b7a6 e8bd 8090 06be 8f83 863d a0e1 243e
00000080: c776 f33c 9a71 b1bd c1cd 533d 542b d23d
00000090: 3f46 b5bd cdae f4bd 2e99 d6bd a4e0 d93c
000000a0: 0631 673d 2157 b73d f498 a83d dc77 19be
000000b0: b762 ffbd 4df4 b93c 1499 f83d e117 023d
000000c0: c821 0cbd 7b49 86bd 2532 bf3d 7d64 fbbd
000000d0: 314b 883d 4ecc c5bd 68db 453d a8ea aabd
000000e0: 4e80 21bd 9a85 2fbd 92bb cc3d 49e6 093e
000000f0: 98d2 e13d d703 16bd f957 03bc b2d0 e6bc
00000100: f399 18be 962c 133e cf6b cb3d fbba 33bc
00000110: 1aa3 0cbe e463 f6bd 94ad 74bd 46e1 ffbd
00000120: 8dd3 24bd b30d 6e3d 1ffc 993c 7046 243d
00000130: 3746 68bd 855c a83d da3e 50bd 8b52 5cbd
00000140: a41f 813d 783c e0bd 19dd a2bd 1b93 d2bb
00000150: b027 b5bd f15e 563c 63e2 2bbe 8a09 c0bd
00000160: 4981 a33d 9d5d 053d 8f1f 5e3d 4841 81bd
00000170: 3588 cb3d 3aa2 313c f80c c8bd 672d b1bd
00000180: 7eee 8fbc a273 2ebe 54dd e93d 41c2 41be
00000190: e976 6abc dc0f c0bd a409 1e38 4941 363d
000001a0: 0a3a 4a3e 382e ff3d ccd4 8abc b91c 213c
000001b0: ad8a 3abe 4fb8 c0bd 093c ab3d 1732 b0bd
000001c0: e967 863d 0bf9 443e 15a0 343e a55a d33d
000001d0: ca4a 49be 58c9 bb3d 0f87 e8bd cfe3 8e3d
000001e0: fee0 8f3d 0eab 0d3e 1989 77bd 734c 16be
000001f0: 221e 0dbd c658 303e 7ae9 913d bf71 c5bd
00000200: 174d 5b3d 8aa3 b2ba faf9 ca3c 79c5 813d
00000210: 61f1 9f3d 623f 06be 9bcf bd3d e194 2b3e
00000220: bcba 1ebd 30f1 33b8 09a7 59bd 8b28 ee3b
00000230: 63ab d4bd c66e f2bc 96e9 11be 1db2 ab3d
00000240: 5e01 70bd ce05 3e3c a54f 873d 19ab db3d
00000250: 6eb6 09be 6e26 013e 3333 193e fbe1 8dbd
00000260: 2221 843d c00a 433d 0cd3 d43d 1579 e23d
00000270: 5cbe 30be 363e 713c e73b 12be fa15 36bd
00000280: 83e2 9bbc 57bb f0bc 4e71 f53d 3e7f a73d
00000290: fae2 c53d 64b3 e73b 76a9 0a3c 7e08 c63d
000002a0: d181 cd3c d816 493d df0f 3f3d 0197 09be
000002b0: f5af bf3d 2a35 1c3d c347 ebbd fcd8 33be
000002c0: 5797 9cbc d42a c63d 155d ddbd 5677 71bd
000002d0: 8dba 0d3e e51f eebd 3c6c 233e 5e5e c2bd
000002e0: 40f4 933d f683 3a3d 199a 9dbd b08a 03be
000002f0: c066 943b 4d83 29be 1445 d1bd 32f6 21bd
00000300: 2e5a 2d3e a03a 023e b0ce bdbd 65d9 393d
00000310: 950b 60bc b632 523d 9baf 03be 6953 c13d
00000320: 4b0b f93c 1ec8 aebd f00e a53d 8f55 b4bd
00000330: ba05 043e c0b2 d83d fba8 d23d 5259 413d
00000340: eb1f bb3d c6dc 14be c393 2abd 7565 0abc
00000350: c4bf dabd a3b3 603d af79 063e 69d6 c0bd
00000360: 4dc1 5abd 3e21 dd3d 14f3 b73b bfaf 11bc
00000370: a111 92bd 7fec fcbc 4c3f 29bd ec8d a83d
00000380: 0868 8ebd 25d4 753d 431b 923d c8db a33d
00000390: b086 a03d 0c9c 913d 9bee c0bc b4f3 dd3d
000003a0: bfb4 a23d 9ad5 47bd 7da9 f0bd 2999 4f3d
000003b0: 366c aebd ef26 083e 78b2 563d 59a4 2e3e
000003c0: ab2c 42bd 8d86 923c fbd0 c63d 8126 43bd
000003d0: 989d 573d edd6 f23d 2dce 62bd 8379 b1bd
000003e0: 823f f7bd 9032 8d3d 27e1 e8bd ffa6 403d
000003f0: 6eda c33c 5a23 ca3d ab78 9abd bcc9 e4bd
-0.122193664 -0.13066608 -0.02046595 0.11999565 0.16613713 0.13520958 -0.17526887 -0.1125522
0.1478166 0.1232806 0.055297498 0.1563761 0.076485746 0.086024456 0.11672605 -0.16142327
0.14600219 0.09976 -0.09387771 -0.15865792 0.032362774 -0.14143191 -0.0055298135 -0.0027949377
0.024952222 -0.036789086 -0.1493023 -0.014860123 -0.11359923 -0.1314106 0.065680616 0.16101694
0.029719723 -0.08664246 0.051709894 0.102621704 -0.08851289 -0.11947403 -0.104784355 0.026596375
0.056443237 0.089521654 0.082322985 -0.14987129 -0.1247 0.0226995 0.12138572 0.031761054
-0.034211904 -0.06556984 0.09335736 -0.12275026 0.066549666 -0.09658109 0.048304945 -0.083455384
-0.039429 -0.04285202 0.09996714 0.13466753 0.11026496 -0.036624756 -0.00801658 -0.028175686
-0.14902477 0.14372477 0.09932672 -0.010969873 -0.13734093 -0.120307714 -0.05973585 -0.124941394
-0.040240813 0.058118533 0.018796979 0.040106237 -0.056707587 0.08220772 -0.05084119 -0.053789657
0.06304863 -0.109490335 -0.07952327 -0.0064262277 -0.088454604 0.013084159 -0.16785578 -0.093768194
0.079836436 0.03255998 0.054229315 -0.063112795 0.09938089 0.0108419005 -0.097680986 -0.08651238
-0.017569777 -0.17036298 0.11419168 -0.18921758 -0.014310577 -0.09378025 3.7679114e-05 0.044495855
0.19748703 0.124599874 -0.016947173 0.009833508 -0.18216963 -0.09410154 0.0836106 -0.08603304
0.06562788 0.19235627 0.17639191 0.103200234 -0.19657436 0.09169263 -0.113538854 0.06977045
0.07025336 0.13834783 -0.06043348 -0.146776 -0.034452565 0.17221364 0.0712461 -0.09640836
0.053540315 -0.0013629061 0.024777401 0.06336493 0.07809711 -0.13110116 0.09268113 0.16756012
-0.038752303 -4.290155e-05 -0.053137813 0.0072680167 -0.10384252 -0.029593837 -0.14249262 0.08383582
-0.058595054 0.011598064 0.06606988 0.10725994 -0.13448498 0.12612316 0.14960937 -0.06927868
0.06451632 0.047617674 0.103918165 0.11058251 -0.17260116 0.014724305 -0.14280663 -0.044454552
-0.019028908 -0.029386206 0.11984502 0.081785664 0.09662433 0.0070709456 0.008463254 0.096695885
0.025086315 0.04909405 0.046645995 -0.1343651 0.09359733 0.03813664 -0.11488297 -0.17563242
-0.019115133 0.096761376 -0.108087696 -0.0589517 0.13840695 -0.11627177 0.15959257 -0.09490655
0.07224321 0.045536004 -0.076954074 -0.12845874 0.0045288503 -0.16553994 -0.10218254 -0.03954143
0.16928932 0.12717676 -0.09267938 0.04537334 -0.013674636 0.051317893 -0.12859957 0.09439737
0.030400893 -0.08534263 0.0805949 -0.088053815 0.1289281 0.10580969 0.10286137 0.047204323
0.09136947 -0.14537343 -0.041644823 -0.008447041 -0.10681108 0.054858815 0.13132356 -0.094158955
-0.053407002 0.10797356 0.005613694 -0.008891999 -0.07132269 -0.030874489 -0.04132013 0.082301944
-0.06953436 0.06001677 0.07134106 0.08000904 0.078381896 0.07109842 -0.023551276 0.10837498
0.07944631 -0.04878769 -0.11751077 0.050683174 -0.08516733 0.13296102 0.052416295 0.17054881
-0.04740588 0.017886424 0.097078286 -0.047644142 0.052640527 0.118574 -0.055372406 -0.08665755
-0.1207266 0.0689441 -0.113710694 0.04703426 0.023907866 0.09870024 -0.07542547 -0.1117129

model.rnn.bias_ih_l0 f4 [160]
00000000: 7a37 8dbd 68f1 173e db5e 40bc 464a 3bbb
00000010: 5fc9 2cbd 2d29 3f3e da04 b6bd 6a2d 81bd
00000020: e3ac d1bd bd74 d2bd 55c7 7e3d 6ff5 583d
00000030: f110 cabd 959c ccbd 50da 06be af98 93bc
00000040: 190d e6bc 045e 09be 038b acbd d512 743c
00000050: 4301 9f3d 52ba 92bd ce32 9fbd 0872 3c3e
00000060: e5a9 0c3d 0e0e 4dbd 755a e8bd 9b2b ff3d
00000070: 58e1 0dbe 5ff8 ac3c f830 85bd 150c 443e
00000080: 2881 77bd 77a8 e93d 5773 903d 62db 58bd
00000090: 3649 7a3d 7e28 5e3d 2aa5 b439 e330 e2bd
000000a0: f234 6ebd 2e26 bdbd 8ef7 28bd c592 56bd
000000b0: 265c 05be 63f1 bbbd 0310 2c3e 1975 cbbd
000000c0: be85 d93d 760a 29bd ce04 4abd d6af 0a3e
000000d0: 8f0e 3ebd bca6 d93d 9f54 72bd be39 863b
000000e0: 30cb 6b3d 1039 d7bb a38e a43d fa67 fe3d
000000f0: dd49 1f3e bab6 563c 6fbd 373d e30c 363e
00000100: 9437 c3bd c889 6cbc ebc7 c03d 672b ecbd
00000110: 36c2 53bd f06a 9e3b 2b3f 1c3e 9c75 f83d
00000120: dab7 e5bc bca7 2d3e 9182 88bd 5599 b33d
00000130: a70b dfbd e6a9 b03a 4503 753d 20dc a8bd
00000140: 293c c53c 640e 90bd a8a8 483d d19e cabd
00000150: 73c2 853d 868d 73bd 72a5 573c f08d 16be
00000160: 08fd a63d 0986 953c 8ddf 7e3d 237b f7bd
00000170: 5601 ffbd 913a 46bd c954 993b 2c8a b0bd
00000180: dfd2 d0bd 03df e2bd 462a 583d 01b7 1cbe
00000190: ff5f 223d fa0e 2cbe a481 15be b425 1a3d
000001a0: 8542 97bc ba78 05be 83ce 30be 8444 fd3d
000001b0: 8036 ccbd 83fa 14bd 95dc f6bd 1780 223e
000001c0: b1b9 213e e45c 29bd a5a5 1cba 4b9e c23d
000001d0: aa07 66bc e96e 26bd 15dc dfbd 33dd ca3d
000001e0: cc3c 9bbd c859 083e c32a 3e3e 5d81 ccbd
000001f0: 2587 57bc ec5e 88bd f27b f0bd 377d 313e
00000200: abca 8dbd 10ab 373c a8aa 0dbe b4d8 073d
00000210: c2f1 203e 2b36 e7bd 527b 31be 64da d93d
00000220: c21c 833d 32bc 293e 566c 40bb 292a 463e
00000230: edfa 013e 3822 8c3d 7431 d4bd 2770 763d
00000240: 2898 b03d 4bdd 333e 2c11 fcbd a1d3 0ebe
00000250: 9b5c 07be 863b 003e 9804 8f3d 04d2 383e
00000260: e8b7 f6ba 1179 86bc 1703 9ebc 5d22 87bc
00000270: 83f9 19be d422 d2bd 74e1 10bc fc81 8ebd
-0.06895347 0.14838183 -0.011741365 -0.0028578206 -0.04218423 0.18668051 -0.08887644 -0.0630749
-0.10238054 -0.10276172 0.062201817 0.05296844 -0.098665126 -0.09990803 -0.13169217 -0.018017141
-0.028082417 -0.1341477 -0.08424952 0.014897068 0.077639125 -0.07164444 -0.07773362 0.18402874
0.03434171 -0.05006223 -0.11345378 0.12459489 -0.13855493 0.021114526 -0.06503481 0.19145234
-0.060425907 0.11409085 0.07053249 -0.052943595 0.061104976 0.054237835 0.00034455332 -0.11044481
-0.05815596 -0.09235798 -0.04125171 -0.052386064 -0.13023433 -0.091769 0.16802983 -0.09934444
0.106212124 -0.041269742 -0.04932099 0.13543639 -0.046400603 0.10627505 -0.059162732 0.004096239
0.05756682 -0.0065680817 0.08035018 0.12422176 0.1555552 0.013105089 0.044858392 0.17778353
-0.09532085 -0.0144371465 0.09413131 -0.11531716 -0.051698886 0.0048345253 0.15258472 0.12131807
-0.028041769 0.16958517 -0.066655286 0.0876948 -0.108908944 0.0013478368 0.05981757 -0.082451105
0.024076538 -0.07033995 0.048988968 -0.09893573 0.06531229 -0.05946114 0.013162004 -0.14702582
0.08153731 0.01825239 0.062224913 -0.12084033 -0.12451427 -0.048395697 0.0046792966 -0.08620104
-0.101964705 -0.11077692 0.05277469 -0.15304185 0.03964233 -0.16802588 -0.14600235 0.037633613
-0.018464336 -0.13034335 -0.17266278 0.12366584 -0.099713326 -0.03637172 -0.120537914 0.15869175
0.15793492 -0.041348353 -0.00059756107 0.09502848 -0.014039913 -0.040633116 -0.10930649 0.09905472
-0.075799555 0.13315499 0.18571 -0.099856116 -0.01315478 -0.0665873 -0.11742391 0.17332922
-0.069234215 0.011210218 -0.13834631 0.03316565 0.15717223 -0.112896286 -0.17332199 0.10637358
0.064019695 0.16575697 -0.0029361448 0.1935202 0.12693377 0.06842464 -0.10360995 0.06016555
0.086227715 0.17564885 -0.12307963 -0.13947918 -0.1321892 0.12522706 0.06983298 0.18048865
-0.0018823119 -0.01641515 -0.019288583 -0.016495878 -0.15036587 -0.10260549 -0.008842815 -0.06958386

model.rnn.bias_hh_l0 f4 [160]
00000000: f0f2 3a3d 1479 98bd d174 b9bd 4aad 223e
00000010: da8d 9a3d c268 303e 274e 12be 78f9 d4bd
00000020: 39db cebd df6e 0a3e f52e aa3d 19a9 9bbb
00000030: 8d20 cc3b 830c af3c b5fb a3bd afc6 093e
00000040: 95e1 2b3e 7fb0 c3bd 7ec9 813d dffd 84ba
00000050: c7e0 b73d eab2 15be 5e3f 173e 211a 153e
00000060: 6511 2dbd 4230 c2bd 6fbc c93d 7882 e7bd
00000070: 2480 cf3d 4ad2 18be d7cb 05be 3fbe 1e3e
00000080: fd39 28bd 0320 85bd 4391 11be de7f f7bd
00000090: 98a4 673d ccee 8c3d 1a9c d5bb 2206 233c
000000a0: bc21 87bd 595f 6e3d b26e 82bd c168 fc3d
000000b0: 22e5 ccbc 5c5c 9fbd 002c 123e e9fb 97bc
000000c0: 8132 d93d 1cd5 e2bd 2465 1a3e 7c81 e93d
000000d0: 7dbd 603d a162 f33d b3b8 043e 0e65 973d
000000e0: 23d6 b73d 72fb c7bd 52fd c1bd 5a01 1e3c
000000f0: 35fb 1a3e aed5 8a3d d1aa 8a3d 4af0 92bc
00000100: 46cd 04be 3e0e 133e ea42 90bd 2b31 b1bd
00000110: 60aa b3bb ef74 2bbd 4a25 863d 7c90 debc
00000120: 165c 1e3e 16a1 e3bd 306a 1cbd f271 e3bd
00000130: 87db 31bc 888f 963d 9683 debd 8080 06bc
00000140: 3674 01be 2681 05be 6985 d23d 3c74 863d
00000150: e9e4 fabc e548 043e f906 05be 5706 d6bd
00000160: f7a7 953d c2d2 233d 3e3f a6bc 18f2 f2bd
00000170: 85a5 abbd 0362 10be 79de 133e b2d9 373d
00000180: 11ed 1cbe 95dd adbd fca6 cd3d f94a 81bd
00000190: 562d 1c3e 1355 1cbe c544 41bd 2436 05be
000001a0: 5f86 073e b456 433c 7fb5 25be a966 77bd
000001b0: 3d79 ba3d 4c61 ffbc f61b bfbd 0838 08bd
000001c0: 9f90 f43d e9f8 b1bc 7084 943d c52d 193d
000001d0: 6f63 92bd 1b7f d23d 2bbe c7bd 6f51 173d
000001e0: b4c0 47bd cde3 a6bd f3f4 873c 67b2 633d
000001f0: aafe cb3d 97d8 1b3e 7076 3abd b848 123e
00000200: 7961 a3bc 40d0 bbbc b258 053e 4749 3ebd
00000210: 6035 353e e824 58bd c4be 4cbd c360 b6bd
00000220: 1440 57bd f081 61bc 30c9 d8bd 31d2 4d3b
00000230: 0ae0 a8bd 6f0d 2dbd d120 84bd 9136 9c3d
00000240: a02d e4bc 383e f0bc a941 fa3d 2fa4 02bd
00000250: 930a cb3d 0f15 80bd 91d2 ffbd d3f3 283e
00000260: 48f6 d3bd 1857 143d b8e1 2b3e 79a6 093e
00000270: 41e7 ed3b ecd7 26be b0a0 debd 884d 8bbd
0.04564184 -0.07444969 -0.09055484 0.15886417 0.07546587 0.17227462 -0.14287625 -0.10399145
-0.10100407 0.13518856 0.083097376 -0.0047503826 0.0062294663 0.02136827 -0.08006994 0.13454698
0.16785271 -0.09555148 0.0633726 -0.001014646 0.0897842 -0.14619032 0.14770266 0.14560749
-0.042252917 -0.09481861 0.09850394 -0.11304182 0.10131863 -0.14923969 -0.1306604 0.1550226
-0.041070927 -0.065002464 -0.14215569 -0.120849356 0.056553453 0.068814844 -0.006518853 0.009950193
-0.06598231 0.0581964 -0.0636877 0.12324668 -0.025011603 -0.07781288 0.14274597 -0.018552737
0.10605336 -0.11075804 0.15077645 0.1140165 0.05486821 0.11884046 0.12961082 0.073923215
0.0897639 -0.09764756 -0.09472145 0.009643877 0.1513489 0.067790374 0.06770862 -0.017936844
-0.1296893 0.14360902 -0.07044013 -0.08651956 -0.0054829568 -0.041859563 0.06550081 -0.027168505
0.15464815 -0.11114709 -0.038187206 -0.11105718 -0.010855562 0.07351595 -0.10864942 -0.008209348
-0.12641987 -0.13037547 0.10279352 0.06565139 -0.030626731 0.12918432 -0.12990941 -0.10450428
0.073074274 0.039995916 -0.020293828 -0.11862582 -0.0838118 -0.14099889 0.14440335 0.044885345
-0.15324809 -0.08489529 0.10041615 -0.06313128 0.1525167 -0.15266828 -0.047184724 -0.13008934
0.13234852 0.011922527 -0.16182517 -0.06040064 0.091051556 -0.031174324 -0.09331505 -0.03325656
0.11941647 -0.021725135 0.07251823 0.037397165 -0.07147872 0.1027815 -0.097530685 0.036942896
-0.04876776 -0.08148918 0.016596293 0.05559006 0.09960683 0.15219341 -0.045523107 0.14285553
-0.01994394 -0.02292645 0.13022116 -0.0464566 0.17696142 -0.05276957 -0.049986616 -0.089051746
-0.052551344 -0.01376389 -0.105852485 0.0031405801 -0.08245857 -0.04224914 -0.06451572 0.07627595
-0.027853787 -0.029326543 0.12219555 -0.03189486 0.09914126 -0.062540166 -0.12491334 0.16499262
-0.10349709 0.03621587 0.16785324 0.1344241 0.0072602336 -0.16293305 -0.108704925 -0.06801897

model.rnn.weight_ih_l1 f4 [160, 40]
00000000: 5cd9 37be b88e d13d 7348 283e 3433 f63a
00000010: 1420 e9b9 59b6 9c3c 2a65 04be 5d84 b3bd
00000020: e129 093e e794 01be 9b9f cbbc 9a28 b1bc
00000030: c3f1 a7bd beb2 37be 3a44 913d a4b9 f5bd
00000040: 1cf6 c63d c8a9 753d 029c 103e 6f94 60bd
00000050: a9f0 cd3d 96b3 f33d 6bc6 753d 0759 9e3d
00000060: 0dca 08bd 95b9 9cbc 8f2d d53c fe7a 08be
00000070: d1dd 24be ac30 58bd 6530 d13d fc9b 593d
00000080: 5faf 213e 96e7 0b3c 0f6a e63d 308c 083e
00000090: cb61 b8bd 86af 44bd 3a9f b23c 2040 e2bd
000000a0: c07a c83d 2e91 383d a682 9bbc cce0 41bd
000000b0: 0660 fc3d a31e c13d bce0 593d 05ce 3ebd
000000c0: 3ec3 4e3c ce89 14bd 11e8 d3bd c43e c4bd
000000d0: 5ad1 4fbd 0603 52be 783e 2e3e ab5b eabc
000000e0: d767 1e3d 70a1 a6bd b4e7 c43c 8a60 dc3d
000000f0: 8649 2d3d 0505 9bbd 74ea 1e3e b37b 3abd
00000100: 3275 0f3e 1311 8f3c 87ab 12be 9fc2 eb3d
00000110: bce0 b63d c35f d4bd cff6 e73d 1748 bd3c
00000120: db3b 4ebc 12f7 033e 724d 043e 299d bc3d
00000130: 4a74 443d e730 97bd 5a8b 2f3e eb01 47bc
00000140: da26 f63d 8e4d da3d 9c2a ba3d 005d a4bd
00000150: 9fd5 ff3d 9667 03bd 1769 b2bd 911a 1d3e
00000160: 9d36 e1bd 30d6 cebd c585 f7bc 2165 1d3e
00000170: 0d81 143e 8820 a8bd d4b5 1b3d 3d77 fe3d
00000180: 703e 89bd 3a6e 91bc fc0d 633d a40b dbbd
00000190: 8b2c 0f3e ccc8 14be e02f dd3d 3339 a1bd
000001a0: dd06 ab3d d41f 13bd b886 16bc fb23 0cbd
000001b0: af9b bcbd 589f 02bd 760c 94bc 8334 a53d
000001c0: e2c6 07be 70f1 153c 7014 933d 28d8 f9bd
000001d0: d984 e33d 4921 a9bd 41a2 103e 762a 643d
000001e0: e4f8 c33c dbe0 10bd 2ef9 60bd d830 04bd
000001f0: 16f6 a1bd 4d47 013e 0616 763d 3bc6 ecbd
00000200: f875 c9bd 83c6 f6bc dde7 9e3d d493 a73c
00000210: c624 343d a7a6 fc3d feae 23be ac81 87bc
00000220: 2781 c73d 6fbc 20be c947 483e 766c 9bbd
00000230: ef90 babd 77f0 95bd aaf6 a4bd f7ef 9e3d
00000240: 6747 68bd 8594 c3bc 6a78 2e3d d733 e13d
00000250: 971b b63b ce41 733d 373c 313e 9084 0dbe
00000260: 49af 72bd cefb ff3d 3a49 1f3e 4e69 313d
00000270: c4c3 8a3d c784 a23d 98e2 2d3d 3536 8d3c
00000280: 6348 85bd 3817 a43d 8a8e 363e 1938 d63c
00000290: 894b c8bc 6a29 19bd f533 88bd ec40 c53d
000002a0: f464 3dbe 1a99 0bbd 6d1f 32bd 6319 8f3d
000002b0: 058e ab3d 14ab 393b 89c7 26be 587a 363d
000002c0: 0da5 d33d 4e13 92bd 6667 043d f295 563d
000002d0: 09d5 15be 9199 e13c 0920 ed3d 1517 23bd
000002e0: b984 f6bd 20fa 9b3d b791 f2bd a3ff 0abd
000002f0: b127 66bd 2899 87bd 4f1a 9cbc 5034 3f3d
00000300: 9082 6b3c 8803 aabd afe6 093d bad9 18be
00000310: 42e6 d43d b510 4f3d c68f 713d e8ea 1cbd
00000320: f65f 173e 5355 12be 9942 a2bd 19f2 fa3c
00000330: 7119 043d efd2 eb3d 3f83 dbbd 7851 eabc
00000340: 3c01 9cbd 11b0 f03d c02f 053e dadd 133d
00000350: 240c b93d b81e 8bbd 8881 383d fd02 353d
00000360: 3343 f5bc 881c f03d 601a 983d aee2 083e
00000370: beb7 aebd 32e3 ad3d 0374 da3d b302 fcbd
00000380: b857 923d 9f6a 153e ebe1 613d 25e8 f03d
00000390: c4df 9abd 1db0 2b3e fc71 01bd 064a 033d
000003a0: d15d a73d d731 be3d 3122 dbbd ec9a f83a
000003b0: 9ced 96bd bbea e03c 1df9 f9bd a1e3 8e3d
000003c0: 7181 cf3d 4a51 17be 4039 b7bc 9f36 cb3d
000003d0: c6fd cc3d f95c 1a3e 1c92 21bd 277d de3c
000003e0: 392b f1bc 9bd0 e7bd eaa0 1c3e e5e9 e8bd
000003f0: 64e9 febb e2db 33be 87a5 c63c 2c71 143d
-0.1795401 0.102322996 0.16433887 0.001878357 -0.00044465123 0.019129919 -0.12929216 -0.08765481
0.13394882 -0.12654458 -0.02485638 -0.021625806 -0.08200409 -0.17939278 0.07093091 -0.11998299
0.097149104 0.05997637 0.14122012 -0.054829057 0.10055668 0.11899488 0.06000368 0.07731824
-0.033395816 -0.019131461 0.0260227 -0.13328168 -0.16100241 -0.052780792 0.10214309 0.053127274
0.15789555 0.008539101 0.11250698 0.13334727 -0.090030275 -0.048018955 0.02180444 -0.11047387
0.09789038 0.04506033 -0.018983196 -0.047333524 0.123230025 0.094296716 0.05319284 -0.046583194
0.012619792 -0.036264233 -0.103469975 -0.09582284 -0.050736763 -0.20508966 0.17016017 -0.028608164
0.03867325 -0.081362605 0.024036266 0.10760601 0.042306446 -0.07569317 0.15519124 -0.045528125
0.1400955 0.017464196 -0.14323245 0.115117304 0.089295834 -0.103698276 0.11326372 0.023105664
-0.012587513 0.12887219 0.12920168 0.092096634 0.047962464 -0.07382374 0.17143002 -0.012146453
0.12019129 0.10659324 0.09090158 -0.08025551 0.12491917 -0.03208121 -0.087114505 0.15342166
-0.10996745 -0.10099447 -0.030215153 0.15370609 0.14502354 -0.0820933 0.0380152 0.12425087
-0.06701362 -0.017752755 0.05543326 -0.1069558 0.13981836 -0.14529723 0.10800147 -0.07872238
0.083509184 -0.035919026 -0.009187393 -0.034214 -0.09209382 -0.031890243 -0.018072348 0.080666564
-0.13259462 0.0091518015 0.071816325 -0.12199432 0.11109323 -0.08258302 0.14124395 0.055704556
0.023922391 -0.03537069 -0.054925136 -0.032273144 -0.07908265 0.12624855 0.060079597 -0.11561247
-0.09836954 -0.030123955 0.07759068 0.020456232 0.043980382 0.12336474 -0.15984723 -0.016541325
0.09741431 -0.15696882 0.19558634 -0.07589047 -0.09109675 -0.07321256 -0.0805486 0.077606134
-0.05670872 -0.02387453 0.042595305 0.10996216 0.005557488 0.059388928 0.17308126 -0.138201
-0.059249196 0.124992 0.15555277 0.043313317 0.067756206 0.079354815 0.042452425 0.017237762
-0.06507947 0.08012241 0.17827812 0.026149796 -0.02445008 -0.03739301 -0.06650535 0.096315235
-0.18495542 -0.034081556 -0.043487 0.06987264 0.083766975 0.002833073 -0.16287054 0.04455027
0.10334215 -0.07132588 0.03232517 0.052389093 -0.14632048 0.027539046 0.11578376 -0.039816935
-0.120370336 0.07616067 -0.11844199 -0.0339352 -0.056190196 -0.06621009 -0.019055514 0.04668075
0.01437439 -0.08301455 0.033667263 -0.14926806 0.10395481 0.050553042 0.058975004 -0.03830996
0.147827 -0.14290361 -0.07922859 0.03063302 0.032250825 0.11514842 -0.107183926 -0.0286033
-0.07617423 0.11752332 0.13006496 0.036100246 0.09035519 -0.067929685 0.045045406 0.044192303
-0.02993927 0.11724192 0.07426906 0.13367721 -0.0853114 0.084906 0.10666659 -0.12305202
0.07145637 0.14591454 0.055147093 0.11763028 -0.07562211 0.167664 -0.031602845 0.032053016
0.08172191 0.0928685 -0.10699881 0.0018967069 -0.07369539 0.027455678 -0.12205718 0.069770105
0.10132111 -0.14777103 -0.022366166 0.099225275 0.10009341 0.15074529 -0.03944598 0.027159287
-0.029439555 -0.11319085 0.15295759 -0.11372737 -0.007779287 -0.17564347 0.024248851 0.03624074

model.rnn.weight_hh_l1 f4 [160, 40]
00000000: 58db fbbd 78b2 d03c 57b6 db3c 62e8 41be
00000010: c732 353d aa63 86bd 289a b53d 596d eabd
00000020: e0d1 a83c 0fed e23d df6b 13be 5f51 a13d
00000030: c499 43bd 4a21 823d 2797 0a3e 0548 2ebe
00000040: b5f8 d03d a87d 1dbc 8faf adbd a022 77bd
00000050: 1d9b c83c b162 26be 5309 02be a7bc 11be
00000060: bed7 1b3e 8b04 4d3d f5ae 913c ff3e 073e
00000070: 5861 9bbd 02ee b8bc f67f 253e caef e33d
00000080: 6bf5 09bd db06 e53d 294d 39be e6bf 17ba
00000090: 6da2 2e3d 179d 3a3e becb 9abd dad5 ebbd
000000a0: bebb 52be aedf 483d d064 bfbd f9c4 d9b9
000000b0: 50a1 12be 5029 43bd 271f 473d a5e9 1e3e
000000c0: 4877 b4bd addc 2fbe 3981 e5bd 7979 053d
000000d0: 3bd5 0bbe caf8 ba3d f8ff 9fbd 09ca 8bbd
000000e0: 31e8 f53d 1211 203e 7e9a 55bd b7e2 13bd
000000f0: 619b fabb 2991 b1bd 45ff 8abd 552d 563d
00000100: 3bc5 f43d 80e4 dbbc 1b93 013b f5fb b33d
00000110: 81b1 bc3c 3e3a 3bbd 3d8b 07be e9ed dbbd
00000120: 439e 35be b273 b03c 876e 9f3c d033 ebbd
00000130: eb8b f6bd b0ab 00bc fdd9 b4bc 799c babb
00000140: d6ab c83d a51e 1ebd 53c2 88bd 6547 6f3c
00000150: c85a 9c3c 826c 043e 34aa ec3d 07ac 6a3c
00000160: e2b4 94bd 3fdf 98bc 8dd5 11be a1ec 18be
00000170: 8557 9e3d 83dc dc3d 6bf1 a13c e67f 6b3d
00000180: e3e9 9c3c 8984 12ba cd85 15bd 43c4 e93d
00000190: a734 2c3e 6e2f 19be 61c9 1dbe d917 903d
000001a0: 7391 e43c 9d65 ccbd c95a cebc 79ca 5e3d
000001b0: 28c2 123d 1759 2d3b 6bc3 bfbd 190b 97bd
000001c0: f3b6 70bd 3b56 bf3c 5e6b d93a 99cc fd3d
000001d0: 54a9 47bd 4d14 41bd bdfe efbd 1acd b03d
000001e0: d49a a83d 0c1b 36bd 7f2b 0d3e 6a47 9f3d
000001f0: 64aa dfbd 08cd 23be 79fc a13d 37ae 7bbd
00000200: 0f4e 2fbe 3065 b33d 29cf 8f3d 73d7 e43d
00000210: 3136 0c3d b674 8abd a2a9 fb3d 9e4f 35be
00000220: 858d 0f3d a387 8f3d 6e4b 91bd 1217 bd3d
00000230: bb42 f8bd 02e0 943c 88ca 0e3d 8c69 753d
00000240: 8507 d9bc b72b c2bd 5b7f 483c 251c 83bd
00000250: a648 313b 3ade 1c3e 4485 a23c ac11 abbc
00000260: 00e6 bc3c 5ba0 0a3e 7536 4dbd d145 503d
00000270: c1e2 22be 9c46 dc3c ce45 513d 4988 3cbd
00000280: 2571 39be 34bc 2a3e fdb6 103d ec1e 993c
00000290: 9ed2 33be ef8a ea3d f621 ef3d e6b3 1d3e
000002a0: f3c1 0dbe 5e1a 263e ae79 123d 7a6a 043d
000002b0: b332 c3bc 724a 07be a493 3cbd ce41 9d3c
000002c0: f6bc 803d f63d 6fbc d31a d5bb 3a6b 95bd
000002d0: 50d6 1a3e 757a 5e3d 24f8 06be c446 85bd
000002e0: d2dd d4bd 17c3 c13d 0bbf 663d 0438 1b3d
000002f0: 9d13 aebd 6d35 fd3d 28c0 a7bd 2a49 6fbc
00000300: 687d 073c 2c51 f73d 3521 6bbd 826a cb3c
00000310: c314 53bd ca1e e0bd 6377 06bd 9cf2 e6bd
00000320: a1b0 35be 0499 b1bc 2c2c 3f3e 4f12 2ebe
00000330: bea5 99bd 29b1 23be d8fb c9bc 49e9 fabd
00000340: 4221 8bbd 7e7b acbd deea 223d f61f 293d
00000350: f8c5 c8bd 203f fc3d 068d b7bd 680b f03d
00000360: 68ee 0fba 67d2 c63d c11d ebbc 4758 02be
00000370: 31eb 57bd 250d 0f3d 5670 a3bc 870c b2bc
00000380: 8950 3bbd a4b5 2ebe 94ca 273e 0c5d 543d
00000390: 5aff 043e 02b4 a53d f0da 31be c59e 6dbc
000003a0: 84e6 abba 4268 963d 21a1 5cbd 45cf 0dbe
000003b0: ec6b b8bc 1afb d2bc f0c9 0d3e e7ae e43d
000003c0: 9442 16be b180 cc3d b204 c6bc c6fd 0dbe
000003d0: 1f92 c8bd 65a8 42bc 6c80 bfbc bcde 1b3d
000003e0: 635f dabd b8c3 1cbe 6469 9fbd 1f62 24bd
000003f0: 8e56 a6bd 64c5 b1bd 35d9 39bc a085 e7bc
-0.12297696 0.025475726 0.026820345 -0.18936303 0.04423788 -0.06561978 0.088672936 -0.11446638
0.020607889 0.110803716 -0.14396618 0.078768484 -0.047754064 0.06354006 0.13534223 -0.17019661
0.10203687 -0.009612478 -0.08480751 -0.060335755 0.024488026 -0.16248585 -0.1269887 -0.14232121
0.15219018 0.05005316 0.017783621 0.13207625 -0.07586926 -0.022574428 0.16162094 0.111297205
-0.033681314 0.11182948 -0.1809584 -0.0005788788 0.04263537 0.18223988 -0.07558392 -0.11515398
-0.2057943 0.049041443 -0.093454 -0.0004153622 -0.14319348 -0.04764682 0.048613694 0.15518816
-0.088118136 -0.17174025 -0.11206288 0.03258655 -0.1365556 0.09129484 -0.07812494 -0.068256445
0.120071776 0.15631512 -0.05214929 -0.036104884 -0.007647917 -0.08670265 -0.0678697 0.052289326
0.11951681 -0.026842356 0.001977152 0.08788291 0.02303386 -0.04570984 -0.13236709 -0.10738737
-0.17736153 0.021539543 0.019461883 -0.11484492 -0.12038406 -0.0078534335 -0.022076601 -0.0056949225
0.097984 -0.038603444 -0.066776894 0.014604424 0.019086257 0.12932017 0.11555901 0.014323241
-0.07261063 -0.01866114 -0.1424162 -0.14934017 0.07731537 0.10784247 0.019768437 0.05749502
0.019154495 -0.0005589207 -0.036504555 0.11414387 0.1681696 -0.14959499 -0.15408851 0.070357986
0.027901387 -0.09980319 -0.025189774 0.05439231 0.035829693 0.0026450807 -0.09363445 -0.073751636
-0.058768224 0.023356548 0.0016587784 0.123925395 -0.04874547 -0.0471385 -0.11718509 0.0863287
0.08232656 -0.044459388 0.13786124 0.07777293 -0.10921171 -0.15996182 0.079094835 -0.06144544
-0.1711962 0.08759534 0.070219345 0.11173906 0.03423137 -0.06760542 0.12288214 -0.17706153
0.035047073 0.070082925 -0.07094465 0.09232916 -0.12122103 0.018173221 0.034861118 0.05991511
-0.026492843 -0.09480994 0.012237395 -0.064018525 0.0027051358 0.15319148 0.019838937 -0.02088245
0.023058891 0.13537733 -0.050100762 0.050847832 -0.15906812 0.026889138 0.05109196 -0.04602841
-0.18109567 0.16673356 0.03533076 0.018691503 -0.17560813 0.11452281 0.116763994 0.15400657
-0.13843517 0.16220996 0.035760574 0.032328106 -0.023827886 -0.13211992 -0.04603924 0.019196417
0.062860414 -0.014602175 -0.006503442 -0.072958425 0.15120816 0.054316003 -0.13180596 -0.06507638
-0.10393871 0.094610386 0.056334537 0.037895218 -0.08499835 0.12363706 -0.08190948 -0.014604846
0.008269645 0.12076029 -0.057404716 0.02483106 -0.05153347 -0.109433725 -0.0328287 -0.11276743
-0.1774316 -0.021679409 0.18669194 -0.16999172 -0.07502316 -0.1598555 -0.024656221 -0.12251527
-0.06793453 -0.08421992 0.039774768 0.041290246 -0.098033845 0.12316728 -0.08962445 0.117209256
-0.00054905424 0.097081 -0.028700711 -0.12728988 -0.05271453 0.034924645 -0.019951027 -0.02173449
-0.0457311 -0.17061478 0.16385871 0.05184655 0.12988034 0.080909744 -0.17368674 -0.014503186
-0.0013114964 0.07344104 -0.053864602 -0.13848598 -0.022512399 -0.0257545 0.13846564 0.111661725
-0.14673835 0.099854834 -0.02417216 -0.13866338 -0.097934954 -0.011880969 -0.023376666 0.038054213
-0.10662725 -0.15309036 -0.077837735 -0.040132638 -0.08121978 -0.086802274 -0.01134329 -0.02826196

model.rnn.bias_ih_l1 f4 [160]
00000000: d87c ff3c f82a f1bc 6cdb 5dbd a7de 723d
00000010: fad8 83bc 129c 283e 7027 bc3d 2a29 09bc
00000020: 9734 cc3d d8ef 66bc 7848 013c 24a0 233c
00000030: fcd9 31bd 2cd2 d63d a917 ca3d 7d3e 6d3d
00000040: 9c9d 103e 0977 b23c 5238 83bd 4ee1 043e
00000050: 730d 6ebd db38 303d e9cb 143e c6b7 bcbc
00000060: efe4 44bd 3c10 283e 8cd2 2c3e d619 0cbe
00000070: 4094 c0bc f46f b0bd 3bd5 1b3e f6ea f6bc
00000080: 5f39 7bbd acfe c13d 0ecd ddbd 30a2 cfbd
00000090: 91f4 df3c fe68 fcbb 2d30 19bd 3845 693d
000000a0: 6052 28bd 248b de3d 9a01 093e 6a01 e1bd
000000b0: 8a22 ee3d 27db 96bb f8b8 0c3b 8baf efbc
000000c0: 0fba 113d fb0a aebd 0f9b 9cbc 18cf 2c3d
000000d0: 2328 373e 5454 23be e506 f83c 863b e83c
000000e0: a3b1 5abd 0bb4 a2bd 5b15 0cbe b768 27bd
000000f0: 13ab 8abd 4dc0 0b3e 47a5 fa3c 10b1 af3d
00000100: 1606 e53d 6da9 d03d c92c 3b3d 41b5 c2bd
00000110: 0e25 42bd 9be2 4d3c 9693 243d 958e ec3d
00000120: e063 89bc e7b9 993d 9452 03be 5137 b73d
00000130: 229b 2d3e 4e34 6fbc 425b f83d ffb7 0c3e
00000140: 9658 fabc c1ac e23d 4295 d63c b95e b23d
00000150: c294 febc 6ae1 10be b403 e5bc aa2c 1d3e
00000160: aca5 b9bc 4c32 313d dde1 1cbe 77c2 d93c
00000170: 9d12 ae3d 7698 263d 1249 293e c795 e6bb
00000180: 5ca8 4cbd ac77 efbc 27f0 f03d ee60 ccbd
00000190: 4230 d93d 44b0 f0bd 4194 00be a3ab 4c3d
000001a0: 9b4d 813d b5de 02be d7bf 4e3d b51b 06bd
000001b0: 480d 7ebd 0440 9b3c e94b 033e eee8 d73d
000001c0: 09f8 8cbd 0f2c 123d 3434 8ebd 43db b33d
000001d0: 8a93 38be 75b4 f6bc 8bd2 063d f976 293e
000001e0: 6b6f c0bd a349 4a3e d3a9 1f3e 2849 1c3e
000001f0: 9174 aa3d 4ad0 473e 17c9 ca3c c932 143d
00000200: feee 8dbd b151 773d e90d 093e 044c 013e
00000210: d7da 853d ada0 0d3e f14e b33b 31aa f43d
00000220: 0e1f 103e 6e44 0ebe 59b5 a23d 4eb1 c63d
00000230: d576 fc3d b7fc d3bd 613c dcbd 0a4b 6bbd
00000240: 0136 67bd a594 08bd f996 863d 45cc 39bd
00000250: 84cd a53d 5859 b4ba d3a3 78bd b751 013d
00000260: f37d 073e 8578 88bd 784b 993d dff4 64bc
00000270: 8b3b ed3d 29fd dd3d 42bb 4cbd eece 833d
0.03118746 -0.029439434 -0.054164335 0.05929437 -0.016094673 0.16465786 0.091872096 -0.008371631
0.09970968 -0.014095269 0.007890813 0.009986911 -0.043420777 0.10489306 0.09867794 0.05792092
0.14122623 0.021785276 -0.064072266 0.12976572 -0.058118295 0.04302297 0.1453091 -0.023036849
-0.04806989 0.16412443 0.16877192 -0.1368173 -0.023508191 -0.08615103 0.1521806 -0.030141335
-0.06133401 0.09472403 -0.10830127 -0.10138357 0.027338298 -0.0077029457 -0.03739946 0.056950778
-0.041094184 0.10866383 0.13379517 -0.10986598 0.116276816 -0.0046037617 0.0021472555 -0.02925851
0.03557783 -0.08498188 -0.019116906 0.042189687 0.17886405 -0.15950137 0.030276725 0.028348695
-0.053392064 -0.07944497 -0.13680021 -0.04087135 -0.06770911 0.13647576 0.030596389 0.08578694
0.111828014 0.101885654 0.045697007 -0.09507228 -0.04739862 0.012566234 0.04017981 0.11550633
-0.016771257 0.07506161 -0.1282447 0.08946098 0.1695371 -0.014599873 0.12126781 0.13742064
-0.03055982 0.110681064 0.026194219 0.08709473 -0.031076793 -0.14148489 -0.027955867 0.15349069
-0.022662006 0.043260857 -0.15320535 0.026581986 0.08499644 0.04067274 0.1653178 -0.007036898
-0.049965248 -0.029231869 0.117645554 -0.09979425 0.106049076 -0.1175237 -0.12556554 0.049968373
0.0631363 -0.12780268 0.05047592 -0.032741267 -0.062024385 0.018951423 0.12821926 0.10542475
-0.068832465 0.03568655 -0.06943551 0.08782055 -0.18025032 -0.030115345 0.032915633 0.1654929
-0.09396251 0.19754653 0.15592127 0.15262282 0.083230145 0.1951305 0.02475409 0.036181245
-0.0693035 0.06038064 0.13384213 0.12626654 0.06535881 0.13830824 0.005472057 0.11946524
0.14074346 -0.13893291 0.079447456 0.09701787 0.12327353 -0.10350936 -0.10753704 -0.05744461
-0.056447987 -0.033344883 0.065717645 -0.045360822 0.080958396 -0.0013759537 -0.06070311 0.03157207
0.1323164 -0.06663612 0.07485098 -0.013974397 0.115836225 0.10839302 -0.04998327 0.06435953

model.rnn.bias_hh_l1 f4 [160]
00000000: 147d b43d 6dd3 b7bd 6291 363a b202 31bd
00000010: b18b 2d3e b7c3 d83d c90b 4d3e 4b5f 4a3d
00000020: 52af 6ebb 5b8d e6bd d63d f03d 0a31 cdbd
00000030: 83a0 4dbd 883d 073e 14da e6bd 2906 9f3d
00000040: 9746 7b3d 3189 993b 9265 bebd 4933 9dbd
00000050: 425f 333e 18eb ed3d 2c78 cebd 5afa aebd
00000060: de25 b43c f192 473d d1ec 263e 3342 cf3d
00000070: 0229 50bc 13dd 52bd a699 71bd b814 48bc
00000080: 6948 3f3e f6d3 843d a793 efbd 4468 1a3e
00000090: 460e ecbd 2a11 00be 0a57 423b 5bcd 3a3e
000000a0: c9e4 963d 8a19 0a3d be5f cc3d 3e26 1e3e
000000b0: 14db 273e fad3 fc3d e986 a93d 572a 91bd
000000c0: e2fc 053e c697 0abe d539 2e3e 63b8 ca3d
000000d0: 1989 c53d 8e20 393d 93c3 fd3c dbda 41bd
000000e0: 00b0 333d 22c8 693d c315 85bd 1467 45bc
000000f0: 5870 a7bd 30ae 3e3c 560a b73d 5c46 b2bc
00000100: b52d 94bd b0ac bdbd 08e1 eb3d 95b1 903d
00000110: 31b4 e6bc 01e9 70b9 a27d 583b 5a07 8bbd
00000120: 21dc 0a3e f59f bf3d ce16 e43d c8f1 253e
00000130: cf4a c5bb e1b2 b13d 3f8d 01be cbf6 2b3e
00000140: 35bf 14be 9d5f 0d3e a2ab e23d f1fd 2cbd
00000150: f569 923d e12a 693d c476 c93d b51f 01bd
00000160: c2d5 b1bd 2e97 c43d 7e5b f03c ae0b bb3d
00000170: 9b2c 323d a25f e5bd 6c3f c13d f162 c73c
00000180: 8d4d d93d 5dae c53c f193 633d 702d 63bc
00000190: edf2 293e f729 f53d 9763 24be 4dbb 8abd
000001a0: 9c21 c13d 1efd f9bd addc 8d3d 4bd9 a43d
000001b0: a353 c4bd c242 81bd 951b 223e e982 04be
000001c0: 4fff da3d 0884 5fbd adb9 e53d 5d74 17bd
000001d0: 97a6 3ebe 0c6a 58bd 6a1d a43c 7ae9 bf3c
000001e0: ea0f 0c3d 58e5 1d3c 04bf ebbd e803 8cbd
000001f0: f571 1ebd c1d3 de3d ef55 3b3e 62f8 103d
00000200: a7de 0a3c cc54 75bd bfae 0b3e d3b6 ac3d
00000210: ed8d c13c 1063 bbbd d5dc eebd 89d2 3a3e
00000220: 5683 3c3e 1221 0f3e b4e9 57bd 7bee b9bc
00000230: 869d c5bd 6f1f 013d ffa1 c53c 5767 2b3e
00000240: 36ab 7ebd 7610 ad3a 5b4a b23d 17be 21bd
00000250: 4a09 253e 3b0f 3e3e 9eb6 0f3d 713a a13d
00000260: 2360 4abc 60d0 a7bd ab3c b5bd 02c7 c03d
00000270: 04dc 033e 1a90 213d 2c93 ab3b 00d1 c93d
0.08812919 -0.08975873 0.0006964413 -0.04321546 0.1694782 0.10584205 0.20024027 0.049407285
-0.0036420417 -0.1125743 0.11730544 -0.10019119 -0.050201904 0.13207066 -0.11272064 0.07764847
0.061346617 0.004685544 -0.09296717 -0.076757975 0.17516807 0.11617106 -0.10081515 -0.085438445
0.021990713 0.04872412 0.16301276 0.101200484 -0.0127050895 -0.051480364 -0.05898442 -0.012211971
0.18679966 0.06485741 -0.11698084 0.15078837 -0.1152616 -0.12506548 0.002965393 0.182424
0.07367856 0.033715762 0.09979199 0.15444276 0.16392165 0.12345119 0.08277685 -0.07088154
0.13084748 -0.1353446 0.17014249 0.0989845 0.0964529 0.045197062 0.030977046 -0.047327857
0.04386902 0.057075627 -0.06498291 -0.0120485015 -0.08175725 0.011638209 0.08937518 -0.021762066
-0.072352804 -0.09261453 0.11517531 0.07065121 -0.028162094 -0.00022974984 0.0033033867 -0.067885116
0.13560535 0.09356681 0.11137162 0.16205513 -0.006020881 0.086766966 -0.12651537 0.16793363
-0.14526065 0.13806005 0.110678926 -0.042234365 0.07149116 0.056925658 0.09837106 -0.03152438
-0.08683349 0.09599148 0.029340502 0.09133087 0.04349957 -0.11199881 0.09435925 0.024339171
0.10610495 0.024130994 0.05556101 -0.013865814 0.16596575 0.11970895 -0.16053616 -0.06774006
0.094302386 -0.122064814 0.06926856 0.08049258 -0.09586265 -0.06311561 0.15830834 -0.12940563
0.106932275 -0.054569274 0.112170555 -0.036976207 -0.18618236 -0.05283551 0.020033557 0.02342676
0.034194864 0.009637199 -0.11511043 -0.068366826 -0.038682897 0.108802326 0.182945 0.035393126
0.008475936 -0.05989532 0.13640879 0.084333085 0.023627246 -0.09149754 -0.11663214 0.18244375
0.18409476 0.13977459 -0.05271311 -0.022696724 -0.09649186 0.031524118 0.024125097 0.1673864
-0.062175 0.0013203758 0.087055884 -0.039487924 0.16116825 0.18560497 0.035086267 0.07872475
-0.012352022 -0.08194041 -0.08849462 0.09412958 0.12876898 0.039444067 0.00523605 0.09854317
